Ricci_flow_autoenc_Burgers_eq/Parameters/decoder.pth (torch, 169472 bytes, 8 tensors)

hidden_layer1.weight f4 [120, 3]
000000 ef d0 4d 3f 31 0c 04 3f 1b 9e 17 bf 9c 1e 24 3f
       0.8039693 0.515811 -0.59225625 0.64109206
000010 1c 3a 90 be 6e bd 64 3e d7 31 98 be da b9 20 3f
       -0.28169334 0.22337887 -0.29725525 0.62783587
000020 8c 59 05 bf 9e 29 1c 3f 74 00 46 bf 48 61 fe be
       -0.5208976 0.61001 -0.7734444 -0.49683595
000030 79 03 84 3e fe bc e7 be cd 52 45 bf c6 bc 0d be
       0.257839 -0.45261377 -0.7707947 -0.13841543
000040 32 e3 83 3d 8c 69 4d bf 71 72 29 3f 13 32 cf bd
       0.064398184 -0.80239177 0.6619025 -0.10116973
000050 d2 f1 40 bf 50 06 78 bd 36 3e 65 be 75 1f 2d bf
       -0.7536899 -0.060552895 -0.22387013 -0.67626125
000060 b6 38 de 3e 09 25 26 bf f4 ce 5b 3f 8a 4d f1 be
       0.43402642 -0.6490026 0.8586266 -0.4712947
000070 e4 da 90 3e 40 ab 27 bf 09 d8 be 3e b6 d4 97 be
       0.28292 -0.6549568 0.37274197 -0.29654473
000080 9e 08 62 bf 85 4b 2f bf 0b 8b 2b 3f 76 e4 16 3f
       -0.882944 -0.6847461 0.6700904 0.58942354
000090 67 74 f7 3e f1 96 d1 3e 0b b5 f6 3c c7 66 87 3e
       0.48330995 0.40935472 0.030115625 0.264456
0000a0 fb 72 53 3e 7d d7 27 bf b6 6a 53 bf d3 48 0b bf
       0.2064933 -0.65563184 -0.825847 -0.54407996
0000b0 54 69 32 be 39 92 02 bf d0 c7 02 bf e3 25 32 bf
       -0.17422992 -0.5100437 -0.5108614 -0.6958906
0000c0 ce cb 24 bf d3 70 05 be 91 82 2e bf 39 25 20 3f
       -0.6437348 -0.1303132 -0.6816798 0.625568
0000d0 5c b0 de be 84 52 5f 3f 12 0c bb be 42 d6 e6 be
       -0.43493927 0.87235284 -0.36532646 -0.4508534
0000e0 5b ce f0 3e 63 b0 00 3f f1 fb 8a be b2 fe 45 bf
       0.47032437 0.50269145 -0.2714534 -0.7734176
0000f0 87 b0 1b bf e9 15 1e 3f b5 8a b4 be 2a e1 91 3e
       -0.60816234 0.6175218 -0.35262075 0.284921
000100 4a 0d b1 be 77 e9 20 3f 27 50 57 3f f8 86 d0 bd
       -0.3458045 0.6285624 0.8410668 -0.10181993
000110 33 fd d6 be 0c 6c f0 3e cd e0 4f bf 5f 7e 46 bd
       -0.4199005 0.46957433 -0.81202394 -0.04846036
000120 e2 18 f9 be ce cb 57 be fe 6c 74 bf f4 67 9f be
       -0.48651797 -0.21073839 -0.9547881 -0.31133997
000130 07 95 04 be 45 4c 14 bf e4 25 28 bf fc cb 19 bf
       -0.12947474 -0.5792888 -0.65682817 -0.6007688
000140 33 71 19 3f 55 42 21 3f 88 60 08 3f b9 07 a7 be
       0.59938353 0.6299184 0.53272295 -0.3262308
000150 75 98 b6 be 5a 08 0d bf cc 58 8e 3d fd cf 57 3e
       -0.3566319 -0.5509087 0.069505304 0.21075435
000160 5a 9c 4a 3e ae 07 2d 3f 46 68 eb 3e 57 2d cd 3d
       0.19786206 0.67589843 0.45977992 0.100184135
000170 bf a3 52 bf 38 27 c6 be b2 ab 4b 3f 0d d7 08 be
       -0.82281107 -0.38701797 0.7955886 -0.13363285
000180 be 89 8f 3e 62 b0 ca be a8 ff 27 3f d2 47 b0 be
       0.28034776 -0.39587694 0.65624475 -0.34429795
000190 e8 0f 92 3e 92 43 01 bf 5e 9c 1b 3f b5 76 2e be
       0.2852776 -0.5049373 0.6078547 -0.1703747
0001a0 7c f5 20 bf 72 46 37 3f 64 44 8d be 8f 3f 20 be
       -0.6287458 0.71591866 -0.2759124 -0.15649246
0001b0 a5 ee 91 3f 7e af 53 3e 68 1d c7 3e a4 43 d6 3c
       1.1400954 0.20672414 0.38889623 0.0261553
0001c0 9f 3d a7 bd fb 3b 15 bf 92 0e e1 be ef fc 8a be
       -0.0816605 -0.5829465 -0.4395643 -0.27146098
0001d0 ec c9 ec be 6a 49 5a 3e 16 0c 1f 3f e2 ec d8 be
       -0.46247804 0.21317068 0.62127817 -0.42368227
0001e0 e2 2f 42 bd da 94 73 3f 37 c1 a7 3e bb 2c e1 3d
       -0.047408946 0.95149004 0.327646 0.1099486
0001f0 cc ae bb be 90 6b 88 3e fb 82 ea 3d 4c 3c 5a bf
       -0.36656797 0.26644564 0.11450764 -0.85248256
000200 37 23 af bd 19 8e 03 bf 8b bf b5 3e f8 16 50 3f
       -0.085516386 -0.513887 0.35497698 0.8128505
000210 f8 56 49 3e 82 57 39 bf 8d fa 00 3e 05 1f 53 3f
       0.19662082 -0.7239915 0.12595578 0.8246921
000220 ed 3b 81 3e 5a 44 10 bf 3e 72 3d bf 5f b8 96 3d
       0.25241032 -0.56354296 -0.74002445 0.07359385
000230 e4 43 37 3e 78 88 8f 3e 92 8e 25 3e f0 92 65 3f
       0.17896992 0.28033805 0.16167668 0.89677334
000240 72 95 90 be 64 6f 6d be aa b5 07 bf 85 78 de 3d
       -0.28239018 -0.23187023 -0.5301157 0.10862831
000250 0c 14 30 3f 45 90 5e 3d 86 54 3a 3d 2c 87 1d 3f
       0.6878059 0.054336805 0.045490764 0.6153438
000260 06 84 57 3e 8c 88 c1 be f1 7b 3c bf 3c c4 0c bf
       0.21046457 -0.3779949 -0.7362662 -0.5498693
000270 56 92 15 3f 4b 99 26 be 23 7b 1d 3f 0c 07 54 bf
       0.58426416 -0.16269414 0.61516017 -0.8282325
000280 cd 20 ab 3b ad 0a 02 3f 6c 87 c9 be 9a f4 0b bf
       0.005222416 0.5079754 -0.3936113 -0.5467011
000290 06 05 37 3f 68 32 58 bf e2 4a 6b 3f 76 29 72 bc
       0.7149204 -0.84451914 0.9191114 -0.014780393
0002a0 c0 0e 1d 3f cd d6 7c bd b8 d4 ca be 58 d9 2c bf
       0.6135063 -0.061728287 -0.39615417 -0.6751914
0002b0 f2 9e 1a 3f 43 4b d1 3e 90 6b 0e bf fa e7 e3 be
       0.6039878 0.40877733 -0.5563288 -0.44512922
0002c0 02 9f 39 3f 90 7c 40 3d c6 60 03 bf 65 78 99 bd
       0.7250825 0.046993792 -0.5131954 -0.074936666
0002d0 15 94 2b 3d 5c f8 23 3e c3 25 fc 3e 3b 5e b5 3b
       0.04188927 0.1601271 0.4924756 0.005534915
0002e0 43 8b da 3e e9 f0 3c bd e7 2a e7 be f0 27 34 bf
       0.42684373 -0.046128187 -0.4514992 -0.7037344
0002f0 92 2f 5b be a8 63 14 bd 77 e9 68 3f 47 98 fc 3e
       -0.21404865 -0.036227852 0.9098124 0.49334928
000300 a5 37 19 3f 99 2e 32 3e 90 28 25 3f 2d 59 9e be
       0.5985053 0.17400588 0.6451502 -0.3092741
000310 34 93 20 3f 2c 35 bd be b1 2a 4c bf 14 db 37 3e
       0.62724614 -0.3695463 -0.7975264 0.17954665
000320 0a 06 d5 3d 56 01 ea be c3 ca a0 bd 89 17 36 bf
       0.104015425 -0.45704144 -0.07851174 -0.7112966
000330 23 39 3e bc 3f f1 3f 3f e2 25 63 be 20 aa 14 bf
       -0.011610302 0.7497749 -0.2218242 -0.5807209
000340 e0 60 10 bf 26 e7 c3 be 52 2c 38 bf b7 95 4f 3e
       -0.5639782 -0.3826229 -0.7194263 0.20271955
000350 81 e5 09 3f 6c c8 04 3f 77 9f 0e bf 51 51 31 bd
       0.5386582 0.5186832 -0.55712074 -0.04329044
000360 13 e6 32 3e 0e 3e ba 3d e6 e4 71 3f 3b 33 92 be
       0.17470579 0.09093867 0.94489896 -0.2855471
000370 9a 1c cb 3e 5d cd d0 3e c3 76 51 be 6c c9 cf bd
       0.3967026 0.4078168 -0.2045546 -0.1014584
000380 1e 19 5f bf 20 d2 1f 3e 20 24 41 3f 85 aa f2 be
       -0.871477 0.156075 0.7544575 -0.4739572
000390 71 58 20 3e cd 20 80 3e 3b 9a 62 3f bf f0 1a bf
       0.15658738 0.25025025 0.88516587 -0.605236
0003a0 45 94 ba 3e af cd 30 3f 26 25 fc 3e fd bb cc 3e
       0.36441246 0.6906385 0.49247092 0.39987174
0003b0 df 8b fd be 64 43 34 bf 92 95 e9 3e f8 3e 4b be
       -0.49520776 -0.7041533 0.45621926 -0.1984824
0003c0 c5 38 01 3f ba 38 3a 3f d2 6c 37 bf 13 29 a6 3c
       0.5047725 0.7274281 -0.7165042 0.020283258
0003d0 4b b6 16 3f b9 9b 92 3e ac db 0e 3f 95 60 46 be
       0.58871907 0.28634432 0.5580394 -0.1937278
0003e0 79 f7 b1 bd ee 82 a6 be e5 d4 53 bd 50 68 5d bf
       -0.0868978 -0.32521766 -0.051716704 -0.86487293
0003f0 f3 3b ee 3e 40 5d 47 3e 51 65 37 3f 6d 2f c9 be
       0.46530113 0.19469166 0.7163897 -0.39293995

hidden_layer1.bias f4 [120]
000000 c2 8c 59 3d d0 b8 04 3f 3e d7 c8 bb 24 e7 ba be
       0.053112753 0.518445 -0.0061291745 -0.3650447
000010 3f ed a5 3e aa 5f fc be 26 83 ce 3e fd 93 00 3f
       0.32407567 -0.49291736 0.40334433 0.5022581
000020 18 6d f4 be d9 db 04 3d 65 2c 5b 3e 9b e8 e1 be
       -0.47739482 0.032436226 0.21403654 -0.44122776
000030 b3 ff eb be 70 96 d2 be bf fb a2 be f0 81 e0 bd
       -0.4609352 -0.411304 -0.31832692 -0.109622836
000040 46 08 ab be 8b 23 1b 3d ff ad b0 bb e6 ed df 3e
       -0.3340475 0.037875693 -0.0053918357 0.4373619
000050 02 47 fc be 35 cc b3 3e 1d 90 cc 3d d2 b8 f0 bd
       -0.49272925 0.35116735 0.09988425 -0.11754002
000060 5e b2 47 be f2 6c 8c 3e 70 3d 63 3e c9 88 73 bd
       -0.19501635 0.2742687 0.22191405 -0.05945662
000070 b6 8f f1 3e 8d 11 f4 be 66 36 8b 3e 30 a7 a0 3e
       0.47179955 -0.4766964 0.2718994 0.31377554
000080 1b 1b 0b 3f 12 08 d4 be f2 c5 08 bf 55 b6 2c 3e
       0.54338235 -0.41412407 -0.5342704 0.16866429
000090 c2 b0 c1 3e 3b 6d ef be f0 2e e4 3e 3e f0 c2 be
       0.37830168 -0.46763024 0.4456706 -0.38073915
0000a0 87 1f df 3e 1f 82 35 3d 66 e7 9c be 5f 19 dc be
       0.4357874 0.044313546 -0.30645293 -0.42988107
0000b0 8d 58 c3 3e 01 97 fe be 76 7d 2d be 30 da 6b bd
       0.38153496 -0.49724582 -0.16942391 -0.057581127
0000c0 48 62 bc be 8b bd 59 be 34 47 01 bf 83 c3 52 be
       -0.36793733 -0.21263711 -0.5049927 -0.20582394
0000d0 07 c3 fa 3d 4a c7 72 3e 3f 0c cd be f4 91 97 3e
       0.1224423 0.23708835 -0.40048406 0.2960354
0000e0 32 bf 00 3f 82 d9 f0 be f2 f7 89 3e 90 4c c1 be
       0.5029174 -0.47040945 0.2694698 -0.37753725
0000f0 c8 f4 e2 3e fa 9a e4 be 3d 54 3f bd ec e0 d1 3e
       0.44327378 -0.44649488 -0.046711195 0.40991914
000100 61 72 95 3e 63 22 7a 3e 03 fa 93 3d db fb 61 3e
       0.29188827 0.2442718 0.0722542 0.22068731
000110 84 72 98 bd 97 41 ef 3e ec 4d 9e be 4b a5 cc 3e
       -0.07443717 0.4672973 -0.30918825 0.3996986
000120 40 74 d9 bc 08 9a 7a 3e 33 9b 04 bf 42 94 66 3d
       -0.02654469 0.24472821 -0.51799315 0.056293733
000130 6b b3 ca be 6f 5a ee 3e 89 03 9a be 09 f1 af bd
       -0.3959001 0.4655337 -0.30080822 -0.08590896
000140 ab 33 e5 be db 3b fa be 02 8d 0f 3f 26 87 8d 3d
       -0.44765982 -0.4887379 0.56074536 0.06910543
000150 3a cc 72 3d ad bb 16 be c6 a8 c6 3e cb b0 9e 3e
       0.059276797 -0.1472003 0.3880064 0.30994257
000160 ce 5b 21 3e 07 9c 98 be 66 07 04 3f 4b 2d 8e bd
       0.15757677 -0.2980654 0.5157379 -0.06942233
000170 db 69 b6 bd a9 3c 7d 3e 2d 7c b9 be 86 63 95 be
       -0.08906909 0.24730171 -0.3622755 -0.29177493
000180 dd 2f 42 3d 13 17 51 be 44 ff b7 3e ce a5 9d be
       0.047408927 -0.20418958 0.3593694 -0.3079056
000190 71 94 af 3e 41 36 63 be b0 81 8f be 56 68 45 3e
       0.3429294 -0.22188665 -0.2802863 0.19278082
0001a0 c3 dd d4 3e eb ca 96 be 3a a1 94 bd f0 34 84 be
       0.4157544 -0.2945169 -0.07257314 -0.25821638
0001b0 11 a5 87 be 87 9a db be d4 ac a3 3e c1 61 9f be
       -0.26493123 -0.42891333 0.31967795 -0.31129268
0001c0 f1 80 26 3c 15 fd c0 3e fa 9d 01 be 20 7d c9 3e
       0.010162578 0.37693086 -0.1265792 0.39353275
0001d0 a1 8b dd 3e a7 07 26 be 54 9d 06 bf 4a ed fe be
       0.4327059 -0.16213857 -0.52583814 -0.49790412

hidden_layer2.weight f4 [120, 120]
000000 cf 37 6a bc 48 2a 19 3d 86 21 34 be df 45 a5 3d
       -0.014295532 0.03739384 -0.17590913 0.080699675
000010 28 f8 01 3c 74 67 a9 3d 9a 7a 1d bd 28 66 fe bd
       0.0079327 0.08271685 -0.038447 -0.124218285
000020 5b 68 10 3e 55 2a 7d bd f0 d0 da 3d 77 65 be bd
       0.14102308 -0.06180795 0.10684383 -0.09296697
000030 da 6d 93 3d cb c4 b4 bb 65 2a 13 3d fd b1 e2 3d
       0.07198687 -0.0055166236 0.035929102 0.11069105
000040 c2 ce 09 3d 32 1b c7 3d f7 dc 0e 3d 6b fd 55 b8
       0.033644445 0.09721984 0.034878697 -5.101917e-05
000050 32 42 9a bd eb b4 37 bd 05 19 04 3e f8 79 4b 3e
       -0.07532157 -0.04485027 0.12900169 0.19870746
000060 ed 69 f2 3d 23 0f c1 bd 91 79 e3 bb 87 e1 4e 3c
       0.1183661 -0.09426715 -0.006941982 0.012627012
000070 91 16 41 bd 4d 35 7a 3d b8 5b a5 bd 33 82 29 be
       -0.04714066 0.061085988 -0.080741346 -0.16553573
000080 72 fb 33 bd ba 47 63 3d bb 48 aa 3d 50 99 2d 3d
       -0.04394097 0.055488326 0.083146535 0.04238254
000090 78 4e bf 3c 33 2c fe 3d c8 b3 8d bd ee 31 c7 3d
       0.023352847 0.12410774 -0.06919056 0.0972632
0000a0 cd ac 38 be a5 3d d3 3d 61 3d 11 3e 7b 04 4d 3d
       -0.18034668 0.10314492 0.1418357 0.0500531
0000b0 31 8e 72 bd e4 1b 76 3c eb 03 66 3c 90 9a b0 bb
       -0.059217636 0.015021298 0.01403902 -0.005389519
0000c0 32 d5 b1 3d 42 c6 24 bd a1 35 c7 3d 5c 68 c6 3c
       0.08683242 -0.040228136 0.09727026 0.024219684
0000d0 27 0b e9 3d aa 59 aa bd 8c 34 d6 3d f0 dd f9 bd
       0.1137908 -0.08317883 0.10459241 -0.12200534
0000e0 2d 49 4a 3d 87 cb c2 3c 4e 11 56 bd 3a 14 09 3e
       0.049386192 0.02377869 -0.052262597 0.13386622
0000f0 bb 2c 8f bd 8a 66 dd 3d 50 4c c8 3d a1 3d 4e bd
       -0.069909535 0.108105734 0.097801805 -0.050351743
000100 be 7f d4 bc d1 4f 9b bd 34 f6 13 be bb 8d f9 bd
       -0.025939818 -0.07583583 -0.14449388 -0.12185236
000110 b6 cd aa bd 38 22 fd bd 4c de 26 3d 7a eb 9e 3d
       -0.083400175 -0.12360042 0.040739343 0.07759757
000120 72 14 d0 bb fb 00 2d be f4 a4 65 3d 4d 67 80 bd
       -0.0063500935 -0.16894905 0.056065515 -0.06269703
000130 29 51 0f 3d 2a 70 c4 bd bd 8a d3 3d aa 9d cb bd
       0.03498951 -0.09591706 0.103291966 -0.099421814
000140 45 c7 c4 3c bd d6 b5 3b 60 da d6 bd a2 12 94 3c
       0.0240208 0.0055492804 -0.104908705 0.018075291
000150 7a ad 80 3c d1 55 c7 bc cf 40 0a 3d 2f 8d 87 bd
       0.01570772 -0.024332913 0.033753213 -0.066187255
000160 31 ab 51 3d 15 cc 84 3d c1 73 c2 bd 71 bc 5e be
       0.05118865 0.06484238 -0.094947346 -0.21751572
000170 87 08 5d 3e e2 f7 32 be e5 bc 7d bc 40 ac 55 bd
       0.21585284 -0.17477372 -0.0154869305 -0.052166224
000180 cb 76 51 3e 49 e4 af 3c 58 68 6c bd 92 a5 87 3d
       0.20455472 0.02147116 -0.057716697 0.06623377
000190 41 e3 36 3d 3f e2 7f 3c 8f 60 0b 3e 1e 2e 0a 3d
       0.04465032 0.015617906 0.13611053 0.033735387
0001a0 bb 4d 80 3d 94 80 14 3c 8d 58 45 3e 3e 02 c7 3b
       0.06264826 0.009063859 0.1927206 0.0060732653
0001b0 04 c9 05 3d 9b b4 b5 ba e5 9e 2c be dc e1 00 3e
       0.032662407 -0.0013863029 -0.16857488 0.12586159
0001c0 78 c2 20 be 5a 10 01 be 75 04 15 3e 1e 96 0a be
       -0.15699184 -0.12603894 0.14552481 -0.13533828
0001d0 ae 29 38 bd 6e 56 16 3d a1 17 e3 3d 9f 79 81 bc
       -0.044961624 0.03670352 0.11088491 -0.015805064
0001e0 e6 1b 75 be c6 18 b4 bd ae 82 9d bd 5a 6b 46 bd
       -0.23936424 -0.08793788 -0.07690941 -0.048442222
0001f0 be e7 d8 bd a3 a0 9e 3d df 87 d9 bd 73 37 f9 3c
       -0.10591076 0.07745483 -0.106216185 0.030421948
000200 79 52 e4 3c ef 97 81 3c 48 bc 34 bb e5 a0 30 bb
       0.027871357 0.015819518 -0.0027578045 -0.002695137
000210 1f b1 83 bd ec 97 19 3a 98 f1 2f 3c 8d 35 9c 3d
       -0.064302675 0.0005859125 0.010738753 0.076274015
000220 2b 89 67 bd ae ae e7 3d 99 7c 5a 3e e2 55 be bd
       -0.056527298 0.113126144 0.21336593 -0.092937246
000230 ef b4 99 bb 10 54 0a 3e 52 7c d8 bd 8a 06 e8 3c
       -0.0046907584 0.1350863 -0.10570587 0.02832343
000240 59 c5 5b bd fa 66 f3 3b c7 fb b0 3d a8 91 27 be
       -0.053655002 0.0074280472 0.08641773 -0.16364157
000250 e0 74 1b bc a3 f6 b3 3d af 6d d6 bd 77 f1 a6 bd
       -0.009488314 0.087872766 -0.10470139 -0.081515245
000260 19 ff 64 bd a5 45 a0 bc 88 34 42 3c d3 5e 4d 3b
       -0.055907343 -0.01956446 0.011853345 0.0031337037
000270 7f 76 86 bd b2 45 1f bc 38 63 34 bd 95 af 0c be
       -0.0656557 -0.0097212065 -0.044039935 -0.13738854
000280 5a 31 ee bd 50 aa 37 3e d3 b8 1c bd fb e0 cc 3c
       -0.11630507 0.17936063 -0.0382622 0.025009623
000290 b7 d4 5c 3d a8 65 f7 bb 22 a2 3d 3d 40 f5 16 3e
       0.0539138 -0.00754996 0.0462972 0.14741993
0002a0 4d a1 31 bd a9 01 11 be c1 54 5c bd d6 b9 46 bd
       -0.04336672 -0.1416079 -0.053791765 -0.04851707
0002b0 b5 0d 13 3e 10 2e 20 bd 09 af 31 3d db 26 cc 3c
       0.14360698 -0.03910643 0.043379817 0.024920871
0002c0 b7 dd c0 bc ce ba b1 3c 31 29 21 3d 11 5f 6c 3c
       -0.023543222 0.02169552 0.039345924 0.0144269625
0002d0 ae 42 65 bd 25 67 86 3c 4e 90 1b 3e fa 4f a6 bd
       -0.055971794 0.016406605 0.15191767 -0.08120723
0002e0 bc f3 d4 bd 35 d4 12 3d cb 70 84 bd 29 40 a1 3b
       -0.10398051 0.035846908 -0.06466826 0.0049209786
0002f0 82 db 44 be de 7d 4f 3d 43 09 d2 3c d6 99 9a 3d
       -0.1922436 0.050657146 0.025639182 0.07548873
000300 41 06 17 3c 01 f0 78 bc a6 e6 94 3d d9 88 4f be
       0.0092178 -0.01519394 0.07270555 -0.20267047
000310 92 7a b0 3d 76 d0 a7 3a 48 7f 00 be 40 5d 30 3d
       0.086171284 0.0012803215 -0.12548554 0.04305768
000320 b6 ef 91 bd b5 fd 8f 3b 87 6a fe 3c d3 65 6d bd
       -0.07125799 0.004394258 0.031056656 -0.057958435
000330 f7 cd e5 3c 84 12 22 be 48 fc ab 3d b8 aa be 3c
       0.028052313 -0.15827376 0.08397728 0.023274764
000340 54 6f ed bd 8a f9 5c bb 18 95 c4 bd 35 47 67 3d
       -0.115935 -0.0033718073 -0.0959875 0.056464393
000350 85 2f ef 3c 5a 66 db bd e4 a6 f0 3d 35 9f f8 3c
       0.029197464 -0.107128814 0.11750582 0.030349353
000360 12 a8 74 3d 1b 5e 93 3d 59 58 b5 3d 9c 15 f1 3d
       0.059730597 0.071956836 0.088547416 0.117717
000370 3b 9d c4 3c f6 dd da 3d e6 99 9d bd 2c 7b c8 bd
       0.024000755 0.10686867 -0.076953694 -0.09789118
000380 2e d8 4c 3c cd 99 13 bc 7d c0 cc 3d ad 4b c8 3d
       0.012502713 -0.009008837 0.09997652 0.09780059
000390 1e f0 c5 3d bf aa 70 bd ac 43 6c bd b0 72 83 3d
       0.09664939 -0.058756586 -0.057681724 0.06418359
0003a0 58 18 2a be 0b b1 b8 bc fd ff 2b 3d 5d ea ee 3a
       -0.16610849 -0.022545358 0.041992176 0.0018227805
0003b0 4d 81 ca 3d 4e ce cd 3d c0 63 1d bd f5 8f 23 bd
       0.098879434 0.10049115 -0.038425207 -0.03993221
0003c0 d0 02 52 3d 15 3c ce 3d 07 3b 9f 3d 0b 07 2c 3c
       0.051272213 0.100700535 0.077749304 0.010499726
0003d0 a3 19 17 3d db ad 7a bd 42 5b 1d 3e 68 a1 b6 3d
       0.036889683 -0.061200958 0.15366843 0.089175045
0003e0 81 93 ca 3c e6 72 01 bc c4 a0 6d 3c b1 49 32 be
       0.024728538 -0.007900929 0.014503662 -0.17410924
0003f0 50 4f 9b 3c ee dc a8 3c e2 02 13 be eb fa 0e be
       0.018958718 0.02061316 -0.14356568 -0.13962905

hidden_layer2.bias f4 [120]
000000 e7 03 f2 bd 02 c9 30 bd b7 7a 17 3d 6c 8e 5a 3d
       -0.118171506 -0.043160446 0.036982264 0.05335848
000010 7e 5f b4 3d e3 bd 1f ba 46 fd 08 bd 42 42 a5 3d
       0.08807276 -0.0006093664 -0.033444665 0.08069278
000020 30 e8 0a bd 6f bc bd bd 48 a7 d2 3d fa 91 96 bd
       -0.033912838 -0.092644565 0.102858126 -0.073520616
000030 a2 56 a0 bd b0 2a a9 bc 3f c8 d0 bd 8a 63 fe 3c
       -0.07829024 -0.020650238 -0.10194444 0.031053323
000040 b2 39 9c bc ed 16 1c bd ce cf 96 3d ff bc 88 3d
       -0.01907048 -0.0381078 0.07363854 0.06676673
000050 b1 83 d8 bd eb 29 6b bd d4 2a c2 bc 87 7e 77 3d
       -0.10571993 -0.057413023 -0.023702063 0.0604234
000060 d0 4d 75 3d c3 d2 fa bc e4 28 be bc 8c c7 24 3d
       0.05988866 -0.030618077 -0.023212858 0.040229365
000070 0a 8f ca bd 80 31 92 bd c5 14 18 3d 0f ba a2 bd
       -0.09890564 -0.071383476 0.037129182 -0.07945644
000080 94 9b 90 3d 9a 1b 08 3c 3d 39 3d bb 2a b6 2a bd
       0.07060924 0.008307362 -0.0028873228 -0.04167763
000090 38 fc c1 3d 27 9a 67 3d 1c 0b ab bd 86 3f 7d bb
       0.09471935 0.056543496 -0.08351728 -0.00386426
0000a0 34 20 92 bd 8b 4e ff 3c ed ef aa 3b 22 1d 6b bd
       -0.071350485 0.031165382 0.0052165897 -0.05740083
0000b0 f3 a8 bc 3d d0 18 93 bd 30 84 c2 bd d3 79 f6 bb
       0.09211912 -0.07182467 -0.09497869 -0.007521847
0000c0 58 11 36 bc 9d 80 86 3d 7b ab ca 3c 59 ea 08 be
       -0.0111125335 0.065675 0.024739971 -0.13370647
0000d0 a4 de 58 3d 55 81 86 3d a2 ca e0 bd 35 04 5e bd
       0.0529467 0.06567637 -0.10976149 -0.05420323
0000e0 cc 57 a8 3d 81 13 0a 3d dd 18 4c 3b e3 a5 5b 3d
       0.08219871 0.033710007 0.003114275 0.053625
0000f0 4b 71 45 bd 28 6c 0a 3e e0 ee ff bd 63 77 3d 3d
       -0.048203748 0.13517821 -0.12496734 0.046256434
000100 27 85 31 3d c3 a5 8b bc 86 7d 2d bd dc 80 cf 3b
       0.043339875 -0.017046815 -0.042356037 0.0063325
000110 37 2f 86 3d 3c e6 26 b9 92 63 89 3d 68 39 94 bd
       0.06551974 -0.00015916763 0.06708445 -0.07237512
000120 e2 b9 8b bd 1f ca d2 bc 10 ea a4 3c 76 4f 55 bc
       -0.06822564 -0.025731144 0.020131141 -0.013019433
000130 fb 33 fd 3b f4 86 7c bd c8 07 45 bd 9d 70 05 bd
       0.007727144 -0.06165214 -0.048103124 -0.0325781
000140 72 de e8 bd 6e 3d 0e 3e 62 60 3d bd d6 94 58 3d
       -0.11370553 0.13890621 -0.046234496 0.052876316
000150 b9 c1 9a 3d 5a aa c0 3d 26 b0 b5 bd 0c 6c ca bd
       0.07556481 0.09407492 -0.08871488 -0.098838896
000160 c6 95 96 bc 92 83 c0 3d 29 3d e2 bb c9 a1 16 3d
       -0.018381964 0.09400095 -0.0069042635 0.036775384
000170 16 b7 0a 3d 73 33 50 3d 3d 5c 00 3b e1 08 4a bd
       0.03386601 0.050830316 0.0019586228 -0.049324874
000180 8d 80 b7 3d 66 53 04 bd 27 8f 9f bc 9b 5b ea 3d
       0.08960066 -0.032306097 -0.01947744 0.114432536
000190 2a 2c 1a 3d c1 67 32 3d 33 c7 97 3c 2b a6 01 bd
       0.037639774 0.04355598 0.018527603 -0.03165261
0001a0 61 3b 0b bd f8 75 bf bd bf f0 02 3c 78 66 65 bd
       -0.033992175 -0.09348673 0.007991969 -0.056005925
0001b0 c9 f1 ff 3d dc d2 c9 3d c4 3c 78 3d ac 83 df bd
       0.12497289 0.09854671 0.060604826 -0.10913786
0001c0 26 5c 28 bd da c6 3a 3d 5b 09 9c 3d af 57 af 3c
       -0.041103505 0.045599796 0.07618972 0.021404115
0001d0 6c 05 80 bc e2 e8 bb bb 1e b3 c1 bc 02 6f af bd
       -0.015627585 -0.005734549 -0.02364498 -0.08566095

hidden_layer3.weight f4 [120, 120]
000000 2d 45 04 bd f0 f6 69 bd 74 3d 42 bd 29 22 fc 3c
       -0.032292534 -0.057120264 -0.047421888 0.030778008
000010 3a d5 68 3c 86 90 f1 bd 89 e7 ad 3d 59 96 14 bd
       0.014210993 -0.11795144 0.084914275 -0.036276195
000020 f5 3c 95 bc ae 8c d5 3d c1 ef 2a 3d 9f ce 06 3d
       -0.018217543 0.10427223 0.041732553 0.032911893
000030 30 9f ad bd c6 ae 0f be 3e fb 3d 3d b7 54 df 3d
       -0.08477628 -0.14031515 0.04638218 0.1090483
000040 a1 a2 8f bb 98 b7 85 bd 54 32 e8 bd 44 52 4d bd
       -0.0043834005 -0.06529158 -0.11337724 -0.050127283
000050 a2 2d b3 bd 52 1b 37 bd 0f 1c b5 bd da eb 97 bd
       -0.08748938 -0.04470379 -0.088432424 -0.07418032
000060 74 d3 00 be 60 d5 8f be 64 d7 ea bc b2 47 7b 3c
       -0.12580663 -0.2809248 -0.02866716 0.015336918
000070 09 ed f1 3d 72 cd be 3d 36 8c 9f 3d a0 f2 c4 bb
       0.11812789 0.09316529 0.07790415 -0.0060103685
000080 72 f9 94 bb 9f 63 dd 3b 43 62 34 3d e7 a1 b0 3d
       -0.0045463378 0.0067562605 0.044039022 0.086246304
000090 b6 09 40 3d f2 fe ca bd 39 61 2a be 4e ec a3 3d
       0.04688426 -0.09911908 -0.1663865 0.08004056
0000a0 e2 db 9a 3c aa 86 93 3d 19 3c 92 bd 32 4e f2 38
       0.018903676 0.072034195 -0.07140369 0.00011554024
0000b0 6e b1 d6 bd 02 b2 08 3e 8f 2a 18 bc 72 78 65 bd
       -0.10483061 0.13349155 -0.0092874905 -0.05602307
0000c0 93 ff 63 3d e5 3f c7 bd ab 3d 3c 3c 79 0e b4 3d
       0.055663656 -0.09728984 0.011489312 0.08791823
0000d0 2a 46 18 bd 2a 6a 05 bd 76 ae c0 3b 2a e5 07 3d
       -0.03717629 -0.03257195 0.0058801724 0.033177532
0000e0 c0 79 b4 3c 2e 99 f8 3d d4 2f da 3c 28 7a 00 be
       0.022030711 0.12138592 0.026634134 -0.12546599
0000f0 a7 00 e7 3c ef 03 f6 bd f2 b7 ac bd a7 46 80 3d
       0.028198553 -0.12012469 -0.08433522 0.06263476
000100 d2 e2 1c bd b0 1b 6a bd 90 fd 92 3d a1 de 4e bd
       -0.03830225 -0.05715531 0.071772695 -0.050505284
000110 eb fb b4 bd 0d 21 34 3d 2f 23 9f bd a6 fc e4 bd
       -0.08837112 0.043976832 -0.077703826 -0.11181001
000120 ec af 43 bd e2 1c e3 3d 66 26 6c bd 87 be 2b bd
       -0.047775194 0.11089493 -0.057653807 -0.041929748
000130 28 98 48 3e 3c d7 97 bd 47 95 0b 3d 12 01 0a 3d
       0.19589293 -0.074140996 0.03407791 0.033692427
000140 e4 16 fb 3c 91 55 1c bc 0b 8f c1 3d 10 c7 9c bb
       0.030650564 -0.009541885 0.094511114 -0.0047844723
000150 79 6c 6e bc 9c bf b2 3d 94 15 0a 3e b0 a3 01 bd
       -0.014552229 0.08727953 0.13484794 -0.031650245
000160 4a a6 0c 3d b5 ba 25 3c 00 66 c8 bd 70 09 04 3d
       0.034338273 0.010115315 -0.0978508 0.032235563
000170 8a e0 44 3c 60 f6 b3 3c 0e 4c c4 bd fd c2 8f ba
       0.012016425 0.021968067 -0.09584819 -0.0010968145
000180 2e 7a 9e bd 8f 6f 10 bd 60 0f 18 3d b2 80 d7 bd
       -0.07738148 -0.03526264 0.037124038 -0.105225936
000190 d6 a4 72 bd 24 d0 31 bd d4 b9 06 3d 7f de 18 bd
       -0.05923923 -0.04341139 0.032892063 -0.037321564
0001a0 19 2b e3 bc 29 b7 63 bd be ff 91 bd 72 b4 b0 3d
       -0.027730512 -0.055594597 -0.07128857 0.08628167
0001b0 4b c7 65 3b fa 15 bb bd b4 18 12 be 3d 06 28 3e
       0.0035061415 -0.09135051 -0.14267236 0.1640863
0001c0 75 c5 9e bc 2e 9e c2 3d 8e bb 04 3e 24 6d d9 3c
       -0.019381264 0.09502827 0.12962171 0.0265413
0001d0 91 4f 19 3c e4 7c ab bd 48 d2 23 3c b0 d8 45 3e
       0.009357349 -0.0837343 0.009998865 0.19320941
0001e0 3a b5 05 3d b3 07 9a bd 39 74 27 3d f7 3d a8 bb
       0.032643534 -0.07521 0.040882323 -0.00513434
0001f0 2f a1 8b 3d 0e 51 31 3d 80 fa cb 3d 1c fa af bd
       0.06817853 0.04329019 0.099598885 -0.085926265
000200 b2 92 f6 3d 23 42 98 bd bc ba 1b bd bf b6 28 bc
       0.12039699 -0.074344896 -0.03801988 -0.010297476
000210 d1 ec f2 3d cc ce 16 3e a6 93 0e 3d 36 28 f0 bc
       0.118615754 0.14727324 0.034808777 -0.02931605
000220 8c 94 b9 bc 50 91 7f bd bd 1d a5 bb 42 6b 9f bd
       -0.02265384 -0.06239444 -0.0050389455 -0.0778413
000230 18 9e 1d 3e 6c d5 cb 3d c9 93 ad bd 28 04 46 3e
       0.15392339 0.09952816 -0.084754534 0.19337523
000240 97 bb 0b be 62 e4 67 be 1c e3 2d be 1a 8e 33 be
       -0.13645779 -0.22645715 -0.16981167 -0.17534676
000250 68 16 18 be 41 15 eb 3d 74 29 be bc 77 6c f3 bc
       -0.14852297 0.11478663 -0.023213126 -0.029714806
000260 5f 41 ff 3c 61 ca 99 3d f8 53 a4 3d 24 03 46 3a
       0.031159101 0.07509304 0.08023828 0.00075535686
000270 8c eb 07 be 7a 97 a2 3d 1e 7b 79 be d2 d1 c4 3d
       -0.13273448 0.07939048 -0.24363372 0.096103325
000280 34 e3 01 be 50 cc 07 3e 94 3f 86 bd 61 c1 15 bc
       -0.12684327 0.13261533 -0.06555095 -0.009140343
000290 c8 a4 3c 3e 18 1f e6 bd 82 a0 32 3e c6 97 b7 3d
       0.18422234 -0.112363994 0.17444041 0.08964495
0002a0 86 b1 ca bc 3b 36 b5 3b a4 60 02 3d 81 14 96 bd
       -0.024742853 0.0055301464 0.031830445 -0.073281296
0002b0 c9 b2 18 3c b5 45 08 be 23 15 11 3e 7f d4 21 be
       0.009319969 -0.13307841 0.1416822 -0.15803717
0002c0 e2 7b 85 bc 60 0a 9b bd fa 96 93 3c 09 43 88 3d
       -0.016294423 -0.07570338 0.018016327 0.06653411
0002d0 99 68 7a 3d e7 60 5a bb 57 25 b4 3d 09 5a 8a bd
       0.06113491 -0.0033321918 0.087961845 -0.06755454
0002e0 23 bb 2f be 7a e3 83 be 24 9c 9c bc 75 da ce 3d
       -0.1716123 -0.25759488 -0.019117422 0.10100261
0002f0 d0 c9 92 3d 53 02 a7 3d e5 16 f5 bd 60 ae e5 3d
       0.07167399 0.0815474 -0.119672574 0.112149
000300 82 0c eb bc 77 f5 18 3e 6d dc 23 bd 3d 34 01 3d
       -0.028692488 0.14937387 -0.040005136 0.03154396
000310 57 1f fc bd b9 f0 c3 bd cb 0a 99 bd 77 7f ea 3d
       -0.12310665 -0.095673986 -0.07472762 0.11450093
000320 f2 5a a5 bc 25 4a 9f bd 9b 0b b9 3c 11 c0 ac bc
       -0.020184968 -0.07777814 0.022588542 -0.021087678
000330 40 c0 30 bd e9 61 09 3e 5d 3d 23 3e d4 24 1c be
       -0.043152094 0.13416256 0.15941377 -0.15248424
000340 95 25 ad 3d fa cf d9 bd 70 ea 5a 3e e4 6c c9 bd
       0.08454434 -0.106353715 0.21378493 -0.09835222
000350 e3 0e 07 3d c5 f2 0c 3d e3 3a e9 bd fc 26 3d be
       0.03297318 0.03441121 -0.11388185 -0.18471903
000360 a1 e0 5f 3e d7 ed 84 3d 0e 53 db bd f3 77 ee bd
       0.21863033 0.06490677 -0.10709201 -0.11643972
000370 a9 15 cd bd be 51 e5 3c 44 8b bf 3c b5 e3 16 be
       -0.10013897 0.02799308 0.023381837 -0.14735301
000380 58 cc e7 3d 9e b9 3d 3e 99 eb 49 3c f3 38 72 3d
       0.11318272 0.18527839 0.012324237 0.059136342
000390 1f d8 b4 3d a1 c6 00 3d 40 e0 5d bb 95 49 97 ba
       0.08830284 0.031439427 -0.0033855587 -0.0011542315
0003a0 41 5e b0 bb 25 40 01 3e 1f 03 7e bd 23 8e 48 3e
       -0.0053823297 0.12622125 -0.062014695 0.19585471
0003b0 03 09 84 3d a3 fe 04 bd 76 48 95 3d 38 3b 9c 3d
       0.06447031 -0.032469403 0.072892115 0.076284826
0003c0 36 88 8a 3c 29 be e6 3b cf 2e 02 be 8d a2 49 3e
       0.016910654 0.007041712 -0.12713169 0.19690914
0003d0 bc ab 16 3d 4c 80 b8 bd 37 67 bb 3c f2 a8 90 3d
       0.036784872 -0.09008846 0.022876365 0.07063474
0003e0 54 42 d3 3d ac b2 13 3d 08 83 5a bd 09 a7 93 3d
       0.103153855 0.036059067 -0.053347617 0.07209594
0003f0 71 1c ed 3d bf 09 44 bd 1b 5a fc 3c 4f 30 b5 bd
       0.115776904 -0.047860857 0.030804684 -0.08847105

hidden_layer3.bias f4 [120]
000000 17 63 dd bd 0a 9c e7 3c a0 47 13 bc ed 14 d0 bc
       -0.108099155 0.028272647 -0.008989245 -0.025400603
000010 5a 7a 35 3d 07 59 f7 3c 99 25 60 3d 87 68 e3 bc
       0.044306137 0.030193819 0.054723356 -0.027759803
000020 7c 62 6d bd 50 9a 98 3d a6 35 a2 3d 68 7b 40 bd
       -0.05795525 0.07451308 0.07920389 -0.04699269
000030 a3 14 18 3e 58 6b a8 bd f6 ba 5e bb 3e e4 2f 3d
       0.14851622 -0.08223599 -0.003398595 0.042942278
000040 5b 66 09 3d 82 cc fc 3d 58 73 b3 3c 71 f5 29 3b
       0.03354488 0.12343694 0.021905586 0.0025933648
000050 51 f7 81 bd 68 3e 0e 3d 08 36 23 3c 52 c1 e0 bd
       -0.06346 0.034727484 0.0099616125 -0.10974373
000060 86 d3 29 3d 1e 2c c2 3d ee 1e 88 bd ea d0 82 3c
       0.04146149 0.09481071 -0.06646524 0.015968759
000070 70 86 83 bd 0c ce e5 bc 1f 4a d3 bc 41 51 c9 bd
       -0.06422126 -0.028052352 -0.02579218 -0.09829951
000080 7e 06 bf bc ff 1d 2a bb 72 02 ac bd 1b 41 c5 3c
       -0.023318525 -0.002595782 -0.08398904 0.024078896
000090 76 48 62 bd 44 8a 75 3d f7 7e b2 bd 81 a5 81 3d
       -0.055244885 0.059946314 -0.08715623 0.063303955
0000a0 03 d2 5f bc f1 c6 2f bd 09 8b 67 3d fd a7 00 bd
       -0.013660911 -0.042914335 0.05652908 -0.031410206
0000b0 d1 cd a2 bc d2 90 16 3d e6 6e 56 3d d8 d5 20 bd
       -0.019873532 0.036759205 0.052351855 -0.039266437
0000c0 45 70 c4 3d 64 83 b3 3d 0e ad 22 bd 1f 14 aa 3d
       0.09591726 0.08765295 -0.03971582 0.08304619
0000d0 5f 45 38 3d 96 3e 60 bd f8 fd b0 3d eb db d6 bb
       0.044988032 -0.054747187 0.08642191 -0.006556978
0000e0 23 de 94 3d ad 20 07 bd ef a4 5c bd 2c d5 c9 bc
       0.07268932 -0.032990146 -0.05386823 -0.024637781
0000f0 ad 76 86 bc 45 2f 3f 3d b6 27 88 bd 57 d0 a5 bc
       -0.01641401 0.04667594 -0.06648199 -0.020240946
000100 24 c1 9f bc 3c 96 6f 3d 33 cc bd bc 60 2a 07 3d
       -0.019501276 0.058492884 -0.023168659 0.032999396
000110 41 73 6b 3d 1d 0b a6 bd 56 8c a1 bc ae 82 63 bc
       0.05748296 -0.081075884 -0.019720238 -0.013886137
000120 3c eb c6 3c 0f 31 fd bc b8 f1 9b 3c 1d b1 e4 bd
       0.02428209 -0.030907182 0.019036159 -0.11166594
000130 a6 51 81 bb f0 b3 37 3d 1a 4e d3 3d 52 67 83 3c
       -0.003946501 0.044849336 0.10317631 0.016040478
000140 05 8f 14 3d dd 46 9c bc 7b 02 83 bd 52 e8 80 3d
       0.036269207 -0.019076759 -0.063969575 0.062943116
000150 a6 c1 e6 3c a7 11 1f bd cd 34 89 bc dd ce d3 3d
       0.02816851 -0.038835194 -0.01674881 0.103421904
000160 0d b1 bd bd 25 a3 79 bc ea c3 9a bc 61 d2 fe 3c
       -0.092622854 -0.015236651 -0.018892247 0.031106176
000170 30 2b 97 3d d3 d6 1d 3d 0f 4d 6f bc 1d 0e 02 be
       0.07381284 0.03853495 -0.014605775 -0.12700696
000180 67 7c d2 3b 4e 5e 3c 3d 18 f1 13 bd 77 5b ca 3c
       0.0064235213 0.045988373 -0.036118597 0.024701817
000190 65 53 da 3d 95 c2 e4 3d f2 b2 5e 3d 3b d5 40 3c
       0.106604375 0.11169926 0.054369874 0.011769588
0001a0 61 44 87 bc 55 b3 b2 3c 81 73 80 bd c4 e0 ae bc
       -0.016512098 0.021814028 -0.062720306 -0.021347411
0001b0 5c 68 6d bd d7 e0 16 3b fb 31 a0 bd 29 b9 e2 bc
       -0.057960853 0.0023022199 -0.07822033 -0.027676182
0001c0 20 58 c3 3d 55 0d 06 3d 2d 83 6f bd f1 ce 3a 3d
       0.09538293 0.03272756 -0.05847471 0.04560751
0001d0 0a d7 b4 3b 94 3d a0 3d c0 b9 f5 bc bc 43 71 3d
       0.0055187987 0.07824245 -0.029995799 0.058902487

output_layer.weight f4 [100, 120]
000000 dc a6 63 bd 85 59 e1 bd e8 82 92 bc 10 7f 43 3d
       -0.05557905 -0.110034026 -0.017884687 0.047728598
000010 e3 e9 76 3d 58 49 b9 3c b9 33 36 bc 48 0a ca 3c
       0.060281646 0.02261798 -0.01112073 0.024663106
000020 eb 7e 89 bc 56 ed 60 bd a7 8d 1b 3e da fe 48 bd
       -0.016784152 -0.05491384 0.15190755 -0.04907117
000030 a3 e5 2f bd 57 a9 64 3b 02 d5 96 bc 6b 3d 00 3d
       -0.042943608 0.0034890973 -0.018412117 0.031308573
000040 01 6c dc 3d 4a fe 12 bd 85 02 22 be d0 45 4c bd
       0.107627876 -0.03588704 -0.15821274 -0.049871266
000050 91 44 a0 bd 5a 40 0c be e8 71 c6 3a 42 66 86 bd
       -0.07825578 -0.13696423 0.0015140148 -0.06562473
000060 42 47 c8 3c 4a 9b ee 3d 45 db 9b bd 2c 42 ec bd
       0.02444804 0.11650713 -0.07610182 -0.11536059
000070 60 99 8f bc a7 af e1 3c 8b aa 4a bd f9 92 94 bd
       -0.01752919 0.027549578 -0.04947905 -0.07254595
000080 b7 55 41 bd f7 ae ad 3e 68 bb 43 3d 07 dc 7e bb
       -0.047200885 0.3392255 0.047786146 -0.003888847
000090 42 e7 ef 3c 73 6f 1a 3d dd 95 c8 bc c7 b2 96 bc
       0.029285077 0.037703943 -0.024485523 -0.018395795
0000a0 29 03 00 bc d0 08 bb 3d 17 a7 f5 3c 5b 72 a7 3d
       -0.007813253 0.0913254 0.029986901 0.081761084
0000b0 5f dc ae bd 08 88 1f be 10 a9 34 bd 38 70 c7 3c
       -0.08538126 -0.15579236 -0.044106543 0.024345502
0000c0 df 15 b7 3d 05 96 6f bd a0 bd 30 bd d5 a7 5b 3d
       0.089397185 -0.05849268 -0.04314959 0.053626854
0000d0 22 16 a7 bd 28 43 77 3c 66 9d c1 3d 5f 16 96 bd
       -0.081585184 0.015091695 0.094538495 -0.07328486
0000e0 b1 5e ca bc 26 35 63 bd ca 1c b4 bd fa 69 25 3d
       -0.024703356 -0.05547061 -0.087945536 0.04038427
0000f0 44 60 0b bd 74 d0 97 3d a9 54 ec bd ed e5 45 3d
       -0.034027353 0.07412806 -0.11539585 0.048314977
000100 11 65 39 be 5a 79 c3 3b fc d2 6b bd f8 9e 86 3b
       -0.1810496 0.005965394 -0.057574257 0.004108306
000110 a0 2e e6 3c f9 98 3f bd cf 07 80 3d 9f cf 93 3d
       0.028098404 -0.046776745 0.06251489 0.07217335
000120 6b a8 ef bd 79 7e f2 3c 73 87 a3 bd 40 b9 41 bd
       -0.11702045 0.029601322 -0.07984819 -0.04729581
000130 1d 4d 01 3e d5 8d 71 3a 89 1a 8a bc 3b 72 0d bd
       0.12627073 0.0009214555 -0.016858356 -0.034532767
000140 85 a0 1e 3d 10 a1 86 3d 16 63 15 3e 6e e2 61 3d
       0.038727302 0.06573689 0.1458858 0.05514758
000150 2b 8d a8 be f2 58 1d 3d e1 1e ce 3a b2 4a 13 3d
       -0.32920203 0.038414903 0.0015725755 0.035959907
000160 34 6f 39 bc 82 49 f3 3d f6 9d e8 3c 16 ba 37 3e
       -0.011318017 0.11879255 0.028395634 0.1794208
000170 ab d9 8b 3c c8 0f 63 be 9c 2d 6e 3b 48 33 18 bd
       0.017071566 -0.22173989 0.0036343103 -0.03715828
000180 a6 69 a0 bd fd 40 3a 3b e8 c6 cc bd 26 df 5f bd
       -0.07832651 0.0028420084 -0.09998876 -0.05465617
000190 1b 38 9d bc 0a a2 b0 3d b1 bc e0 3c a0 65 d4 3d
       -0.019191792 0.086246565 0.027433725 0.10370946
0001a0 d7 60 e7 bd a3 bc cf bb 8d ab 0e be 20 a0 6c 3c
       -0.112977676 -0.006339626 -0.13932629 0.014442474
0001b0 0c bb 2e be 65 b2 22 be 4b 9a e1 3d 5e b0 ae 3d
       -0.1706354 -0.15888365 0.11015757 0.08529733
0001c0 32 e2 b7 bd 3f a3 e9 bc eb 33 5f 3d ad 99 34 be
       -0.0897869 -0.028520225 0.054492872 -0.17636748
0001d0 b2 96 ca bd 8d f9 0e 3e 44 99 4e 3d 44 e6 31 3d
       -0.09892024 0.13962384 0.050439134 0.04343249
0001e0 dc 36 d5 bc 1f 2a 40 be ac 8c 93 bd 71 38 86 bd
       -0.026027136 -0.18766068 -0.072045654 -0.06553734
0001f0 73 ab ae 3d 5c ba 07 bd a4 9e dc 3d d0 94 91 3c
       0.08528795 -0.03313671 0.10772446 0.017771155
000200 99 c0 6f bc 48 d2 81 bd b9 56 23 3e 85 40 96 bd
       -0.014633321 -0.06338936 0.15951051 -0.07336525
000210 a6 00 4d bd f0 31 cb 3c 0f 9f b6 3c 06 b3 a8 3c
       -0.050049447 0.024804085 0.022292642 0.020593178
000220 80 be 82 3d 81 c1 3f bc ec d6 4f be 77 8e 51 bd
       0.06383991 -0.01170385 -0.2029683 -0.051161256
000230 35 13 22 bd b8 5a 32 be 54 a1 2c 3e 08 08 ae bb
       -0.0395691 -0.17417419 0.16858417 -0.005311016
000240 a0 96 fa 3a 29 8d 22 3c 35 18 60 bc 28 cb d8 bd
       0.0019118376 0.0099213505 -0.013677646 -0.10585624
000250 ff 39 39 bd dd ee a8 3c 42 e5 58 bd 84 07 04 be
       -0.045221325 0.020621711 -0.052953012 -0.12893492
000260 34 28 95 bd 4a 8b c3 3e ea cf a4 bc 55 a9 70 bd
       -0.07283059 0.38192207 -0.020118672 -0.058755238
000270 b8 55 57 bd 81 ed fb 3c d0 5a 10 bc 9f 7c e9 b8
       -0.052571982 0.0307529 -0.008810714 -0.00011133518
000280 ca dc 2a 3c d2 25 d3 3c 0c 5a 99 3d 1e 34 a9 3d
       0.010428617 0.02577487 0.07487878 0.08261894
000290 cc 6b 38 bc e8 71 ef bd 88 db 76 bd 84 e0 45 3c
       -0.0112561695 -0.11691648 -0.060267955 0.0120774545
0002a0 c4 f4 39 3b 77 65 b3 bc ff 3e d8 3b f2 3f bb 3d
       0.0028374651 -0.021898968 0.0065993066 0.09143056
0002b0 a4 ad 10 bd 61 44 13 bd 05 97 06 3d 89 c9 b0 bd
       -0.035321847 -0.035953883 0.032858867 -0.0863219
0002c0 fd c5 87 3a a1 87 97 bd 45 8e cb bc b4 57 42 3c
       0.0010358688 -0.07398916 -0.024848113 0.01186173
0002d0 75 a4 01 bc bb 5c 09 3e 32 2f f9 bd 33 0c 02 3d
       -0.007912745 0.1341428 -0.12167205 0.031749915
0002e0 02 24 20 be 75 1c 84 bd 47 ef 9f bd 47 d6 99 3d
       -0.15638736 -0.0645074 -0.078093104 0.07511573
0002f0 54 a4 9a bd bb 9a f1 bc 33 da 8c 3d 98 68 e9 3d
       -0.07550874 -0.029492727 0.06877556 0.11396903
000300 d4 0a 21 bc 26 17 7b 3d ea 5a bb bc 60 f0 48 bd
       -0.009829242 0.061301373 -0.0228705 -0.049057364
000310 a3 4b 1c 3e 4c b1 0f bc 5f d0 3b 3c 20 58 c5 bc
       0.15263228 -0.008770298 0.011463254 -0.024089873
000320 0b 1b 96 3d 87 c1 28 3d d4 88 ab 3d 6c 60 5a 3d
       0.07329377 0.041200187 0.08375707 0.05331461
000330 2c 0a af be ca a6 a3 bd 29 b6 c1 3d 53 6a 95 3d
       -0.34187448 -0.07990797 0.094585724 0.0729567
000340 4f a9 a6 bc 54 66 9c 3c 03 0d 70 3d fb 13 18 3e
       -0.020344405 0.019091763 0.05860616 0.14851372
000350 a0 85 6a 3d 34 7e 28 be 82 84 79 bb 1b bc c3 bd
       0.05725634 -0.16454393 -0.0038073366 -0.09557363
000360 6b 52 98 bd db b5 08 3d 9a 9e aa bd f2 01 a7 bd
       -0.07437595 0.033376556 -0.08331032 -0.08154668
000370 4d d0 a1 3d 0a a9 9d 3d 98 79 85 3d 77 55 b6 3d
       0.07901058 0.07698257 0.06517333 0.0890302
000380 6b de 54 be 51 ae 06 3d d6 37 4a be 6d c5 6d bc
       -0.2078797 0.032881085 -0.19747862 -0.014512402
000390 3d d8 43 be 21 41 e3 bd a0 28 0c 3e f0 86 b0 3d
       -0.19125457 -0.11096407 0.13687372 0.08619487
0003a0 f9 17 2a be e6 32 6b 3d cc 04 0a 3d a9 d5 29 be
       -0.16610707 0.057421587 0.03369598 -0.16585411
0003b0 95 4a 94 bc 5e 20 01 3d e9 6a d8 3c 82 43 9c 3c
       -0.01810197 0.03152501 0.026418166 0.019075159
0003c0 dd e0 c7 bd d3 89 44 be b1 b1 7d bd 26 91 9b 3d
       -0.09759686 -0.19193201 -0.061937038 0.07596044
0003d0 19 e2 c4 3d ad d8 bc bc 37 af 21 3e 60 1d 31 39
       0.09613437 -0.023052538 0.15789495 0.00016890978
0003e0 80 89 17 bc 6c e9 98 bd 54 ad e6 3d 61 16 9a bd
       -0.009249091 -0.07466397 0.112635285 -0.075238
0003f0 0c d9 6d bd 19 5f 61 bc fb 22 75 bd 0b 41 12 3c
       -0.05806832 -0.013755583 -0.059847813 0.00892664

output_layer.bias f4 [100]
000000 bd ab 70 3a ad 39 57 bd 9f 39 40 bd 8c 88 cd bc
       0.00091808644 -0.05254524 -0.04692995 -0.025089525
000010 63 e9 0b 3d c2 b2 56 3d d6 c0 27 bb 74 7a 34 3d
       0.03415812 0.05241657 -0.0025597117 0.044062093
000020 60 20 83 3d a6 c2 50 bd af e2 11 3d 25 94 af bc
       0.064026594 -0.05096688 0.035616573 -0.021432946
000030 1e 2f b3 bd 60 0c bf bd 66 6d 69 bd 82 5b cc bd
       -0.08749221 -0.09328532 -0.056989096 -0.09978391
000040 a1 ed 6a 3c c0 55 be 3b f8 74 6e 3c 21 5f 11 3d
       0.014338882 0.005808562 0.014554255 0.035491113
000050 de 02 ff 3c 29 ae 7a 3c f6 75 e3 3c 5a 43 88 bd
       0.031129297 0.015300312 0.02776621 -0.06653471
000060 6a c1 e4 3c 50 73 0b bd 21 2b 42 3d 32 65 3d bd
       0.027924258 -0.034045517 0.047404412 -0.046239085
000070 66 b5 53 3c 0d 93 c9 b9 b3 12 67 bd 38 f5 22 3d
       0.012921667 -0.0003844727 -0.056414317 0.03978464
000080 9d 57 5c 3c 8b 0e 50 3d 28 0b f2 bb d7 91 0e 3d
       0.013448623 0.05079512 -0.007386584 0.034807052
000090 31 50 8b bc 8d 7b 50 bd aa f4 e2 bc 38 a4 05 3d
       -0.017006012 -0.050899077 -0.027704556 0.032627314
0000a0 85 ee 51 ba 22 36 ad bd 94 9a 5b bc af 23 79 bc
       -0.00080082595 -0.08457591 -0.0134035535 -0.015206262
0000b0 74 01 1c bd 79 5e 6a bd af 97 e0 bb b1 77 04 bd
       -0.038087323 -0.057219002 -0.0068540196 -0.03234071
0000c0 0a 99 a8 3c bb bb 63 bc 62 7e e2 bc c4 55 9e bd
       0.020580787 -0.013899739 -0.027648155 -0.07731202
0000d0 bb 90 6b 3c f7 b4 9a 3d 9f a8 91 3d 26 7a 3f bd
       0.014377768 0.075540476 0.0711224 -0.04674735
0000e0 47 77 ed 3c 0f ae d1 bb b0 b5 a8 bb 21 5d 03 3d
       0.02898754 -0.006398923 -0.005148612 0.032071237
0000f0 50 7a 81 bc 75 0a 13 bd 44 a6 d7 3c 58 da 66 3d
       -0.015805393 -0.035898644 0.026324399 0.056360573
000100 97 d3 b7 bc 1a dc 99 bc c6 49 c4 3c 8d 8b dd 3c
       -0.022439761 -0.01878171 0.02396096 0.027044082
000110 12 a4 fd bc 9b 57 2f 3d ba d5 4d 3d 22 00 08 3d
       -0.030962024 0.042808156 0.050252654 0.03320325
000120 e7 b5 b8 3d b7 d5 9a 3d e1 d9 3d 3d f6 9a c2 3b
       0.0901907 0.07560294 0.046350364 0.005938883
000130 fe 92 07 bd 6e 1b 6d bd 57 d7 d7 bc ac 73 86 bc
       -0.033099167 -0.057887487 -0.0263478 -0.016412579
000140 15 6f f3 3c a2 b9 05 bd 0c a8 5e bd 5f 3c 92 bc
       0.029716054 -0.032647736 -0.05435948 -0.017851053
000150 c5 29 a5 bc 2a c9 6d 3b 8d 2a 45 3d 63 4c 2a bd
       -0.020161519 0.0036283233 0.048136283 -0.041576754
000160 ca ea cb 3c cf 30 5f bb 78 3b 28 3d a1 f6 c0 3c
       0.02489223 -0.0034056192 0.04107234 0.023555102
000170 33 84 cd bb 67 a5 2c bd af 95 f2 3c eb b3 68 3d
       -0.006271863 -0.042149927 0.02961239 0.05681221
000180 ee 77 2d 3c ad 2c 45 3d 5b 8b 73 3d d8 c4 a3 3d
       0.0105876755 0.04813831 0.05945907 0.07996529
