Ricci_flow_autoenc_Burgers_eq/Parameters/decoder.pth (torch, 169472 bytes, 8 tensors)

hidden_layer1.weight f4 [120, 3]
00000000: f7e9 8bbe 8f12 a8be 7c97 07be 4e44 14be
00000010: f2e8 81be 5b4d a53e 9e9f b2bd f359 773e
00000020: 3a67 a0be 512b c33e 892b b2be cede b53e
00000030: 4200 4ebe 091d 0d3e 9396 cf3e 20d3 6bbe
00000040: f181 5ebe 8b46 c73d d99d a2be 53a2 c8be
00000050: 4341 6f3d efa9 ba3e c5fc d1be 0d0b 513e
00000060: 5605 883a 354c ad3e 09a2 893e d0ee 583e
00000070: ea15 2a3d 66e5 91be d890 823e 7700 abbe
00000080: 5331 683c 4d22 fcbd 8db9 913c db91 d93e
00000090: 6546 2cbe 30ae a53d dfb5 f33e 6559 5e3e
000000a0: a1db a13d 07a6 c3be 9b87 9cbe 9236 cf3e
000000b0: c22f e1bd 7773 de3e b7f6 9b3c ccd7 0e3e
000000c0: 4337 98be 23c9 293e f6b6 5dbc 74a4 dbbe
000000d0: 02c9 82bd de8b 87be 76fa 863e 981e 263c
000000e0: 0483 97be 516d a7be 4550 283e 90a0 30be
000000f0: 8336 e3bd 5c87 fb3d b431 ce3e 1562 ae3e
00000100: 1f39 ca3e 18a1 173c cec1 d0be 51e1 4fbe
00000110: c02a 5dbe 46e2 a9be 2b05 85be a831 ee3c
00000120: c449 e6be cb4e 8ebe ee25 fbbc 5ab7 cf3d
00000130: 0d59 c93e 84ee 733e 20f5 253e 8962 edbd
00000140: ac4f e2be 00d8 27be 843d 873e e89e 9bbe
00000150: d724 703e 0192 0cbf c9fe 05bc 2cf2 e8bc
00000160: 87e7 813e 113c d43e a15c d2be 1974 b3be
00000170: eaac 1b3d e735 6a3d 8dc3 883e ae3b 49be
00000180: baad b8be 0ba2 2b3e 39c8 e3bd ed4e 683e
00000190: 6ae5 c93d fbae 813e 025e 8cbe be89 643c
000001a0: 9d76 933e f308 3cbe af77 87bd 180a ef3e
000001b0: 64ab 46be 1738 afbd b182 e33e 9684 41be
000001c0: a22e e13d ae69 7fbe de57 aa3e 0562 0fbe
000001d0: 9a89 d33c 1f2b 70be 8f2a 9a3e a1cc 31be
000001e0: ae36 75be 17e6 85be da5f 9e3e 74c8 7ebd
000001f0: 0996 613e 51d7 e93e a2b1 893e 209e 0e3e
00000200: 58b9 44be 3f51 4dbb b50e c8be 714b 96be
00000210: ff04 79be 3caf 35be 9ec9 d53e 1c5f b43e
00000220: 06fe 54be 828b a93d 9e81 183e 6ed6 06be
00000230: 09d0 f2be 36ce 753e 63e3 783e 315e 23be
00000240: c59d d0be 023c bfbe fee5 9e3d fb81 d23d
00000250: b93d 663e 35bd 80be 4766 563e 4866 26be
00000260: ce0d d2be 5107 f13d 6abe bc3e 1e50 923e
00000270: 6cea 7bbd 23ff b73e c0b9 37be 9a52 1ebe
00000280: 1df0 083f f364 893e c03b 113e 47d2 bfbe
00000290: 05ed 41be 8ae8 afbe bd4c c13e c69e f9bd
000002a0: 3971 9abe 87a7 24be d0a2 923e 2d54 a9be
000002b0: de05 97be 3d0c 8f3e fb3e acbe 1968 603d
000002c0: cf96 b8bd df5c 47be c4cf aebd 6d33 c53d
000002d0: b0cb 933d 67b7 d7be fac3 e83d cde7 923e
000002e0: 8994 3f3d 8834 a5be caa7 cd3d 2fec 8f3e
000002f0: 6734 ad3e d3b3 2abe 50d5 863e d4f3 9e3d
00000300: a0e6 6bbe 21fb 8e3e 2242 6e3e 0465 c93d
00000310: 23b1 6dbe 36df 95be 8f8b f7be 3354 5b3d
00000320: 1afb 8ebe 676d 6f3e c685 38be 61ad b83e
00000330: ec90 dabe 82a3 f6bd dd24 d7bd 6977 5c3e
00000340: 7b76 353e 44db d8be f86d 613e cde7 9fbd
00000350: 30f9 a7be f6ee 3fbe e7e2 b43e e22c be3e
00000360: 3ac4 bb3e 9ec3 febd f35e a53e 9242 5bbe
00000370: 48e2 cebe 2c73 b8bc 8515 7abe e10c bd3e
00000380: a5f3 713e d0f4 953e 2544 1ebe a667 b63e
00000390: b1be 743e eeb8 ff3d 9dfc ac3d 33a5 06bf
000003a0: 2051 97bc a5f8 acbe 8b5e 73be c7e9 b9be
000003b0: 155d 4ebe 330d c5be ac26 d43d 3412 9cbe
000003c0: 2a55 e93e 3faf 1dbc e6df 453e 3b85 c0bb
000003d0: b4f5 c33e 51e1 5e3e 0d61 c53e 77a0 4a3c
000003e0: 16da d83d 7fd0 04be 7110 55be c58b b53d
000003f0: d7a3 cbbe db82 903e 7808 98be c0a9 c53e
-0.2732694 -0.3282666 -0.1324138 -0.14479181 -0.25373036 0.3228558 -0.08721851 0.24155407
-0.31328756 0.38118985 -0.3479884 0.3552155 -0.20117286 0.13780607 0.40544567 -0.23029757
-0.21729256 0.09730252 -0.31761053 -0.39186344 0.058411848 0.36457774 -0.4101316 0.20414372
0.0010377567 0.33847204 0.26881436 0.2118485 0.041524805 -0.2849533 0.25501132 -0.33398792
0.014171916 -0.1231123 0.017788673 0.4249409 -0.16823728 0.08089864 0.47599694 0.21713789
0.07903219 -0.38212606 -0.3057221 0.4047132 -0.10995437 0.43447468 0.019038541 0.13949507
-0.2972966 0.16580634 -0.013532391 -0.42898905 -0.063859954 -0.26473898 0.26362962 0.01013913
-0.29592144 -0.3270059 0.1643687 -0.1724875 -0.11094382 0.12281677 0.40272295 0.34059206
0.39496705 0.009254716 -0.4077286 -0.20300795 -0.21598339 -0.33180445 -0.25980505 0.029076412
-0.44978154 -0.2779449 -0.030657735 0.101423934 0.39325753 0.23821455 0.16206789 -0.1159106
-0.4420141 -0.16390991 0.2641412 -0.30394673 0.23451553 -0.54910284 -0.008178421 -0.028435789
0.25371954 0.41452077 -0.41086295 -0.35049513 0.0380067 0.05718031 0.26711693 -0.19651672
-0.36070043 0.16761033 -0.11122174 0.22686358 0.098582104 0.25328812 -0.27415472 0.013948856
0.28801432 -0.18362789 -0.06614625 0.46687388 -0.19401318 -0.0855562 0.44435647 -0.18898234
0.10995223 -0.24942657 0.33270162 -0.14002235 0.02582245 -0.2345395 0.30110595 -0.17363216
-0.2394664 -0.26152107 0.30932504 -0.062202886 0.2202989 0.45672086 0.26893336 0.13927507
-0.19211328 -0.0031328944 -0.3907372 -0.29354432 -0.24318312 -0.17742628 0.41755384 0.35228813
-0.20800027 0.08278562 0.14893195 -0.13167736 -0.47424343 0.24004444 0.24305491 -0.159539
-0.4074537 -0.3735047 0.07758711 0.10278698 0.22484483 -0.25144354 0.20937453 -0.16249955
-0.41026157 0.117689736 0.36864024 0.2857675 -0.06150286 0.3593684 -0.17941952 -0.15461197
0.53491384 0.2683483 0.14182949 -0.37465116 -0.18938072 -0.343571 0.3775386 -0.12188487
-0.30164507 -0.16079532 0.2863984 -0.33072034 -0.29496664 0.27939025 -0.336418 0.054786775
-0.090131395 -0.19469021 -0.08535722 0.09628949 0.07216585 -0.42132112 0.113655046 0.28692475
0.046772514 -0.3226664 0.10041769 0.2810988 0.33829042 -0.1667016 0.2633462 0.0776135
-0.23037195 0.2792597 0.23267415 0.0983372 -0.23212104 -0.2927186 -0.48348662 0.053547096
-0.2792595 0.23381577 -0.1801978 0.36069778 -0.42688692 -0.120429054 -0.10505078 0.21529926
0.17720978 -0.42354786 0.22014606 -0.07807884 -0.32807302 -0.187435 0.35329363 0.37143618
0.36673146 -0.12439655 0.32299003 -0.21412113 -0.40407014 -0.022515856 -0.24422272 0.36923888
0.236281 0.2928834 -0.15455683 0.35625952 0.23900868 0.124864444 0.0844662 -0.52595824
-0.0184713 -0.3378345 -0.23766534 -0.3631117 -0.20152695 -0.38486633 0.103589386 -0.30482638
0.45572788 -0.009624301 0.19323692 -0.0058752573 0.38273394 0.21765639 0.38550606 0.012367359
0.105884716 -0.1297016 -0.20807053 0.088645495 -0.39773437 0.28224835 -0.2969396 0.3860607

hidden_layer1.bias f4 [120]
00000000: 7a98 2c3e 4ea0 0bbd 5bc3 ae3e 8608 71be
00000010: b492 8f3e f08f b7be ded0 563e 272a d2bd
00000020: b7d1 acbe f017 d53d 5912 963e bea8 3e3e
00000030: dfe0 7a3e 16c2 91be e602 a93d e608 c23e
00000040: 2db3 c2be ab45 32be c40c a9be 180c 98be
00000050: 1f9b 713e 7b42 cebd 20fb 153d 9907 80be
00000060: 7b3b 2cbe 27d0 a5be 101a 68be 136d d13e
00000070: 62da 40bd f45a feba d413 9fbd 7496 c53e
00000080: 430f 95be 53ef 8abe 9251 963e 680b dd3c
00000090: 7456 fe3c 139b 983e 997d 783e d607 b53e
000000a0: c5de aebd ee66 6f3d f8b5 c4be a68d 933e
000000b0: 7f44 983a 6c2e ce3e 5718 6ebe b30d 9cbe
000000c0: 373a 84bd 5a08 bd3e a052 c3be 5793 b6be
000000d0: d4c6 323e 7b8b 13bd 169b a93e 5ba8 c6bd
000000e0: a706 e9bb c378 3bbc 3cce bcbe a78e 84be
000000f0: 4eac d9bd 3b81 7ebe 2720 1bbe 7e10 913e
00000100: f388 233d f23c 4b3e 57cb 9fbe 92f3 8bbe
00000110: b131 94be ff08 a43c 8e37 9dbe 80b5 443e
00000120: 12e0 5a3d 1bef a33d 179f 393e de41 43be
00000130: e70e a0be a9e7 80be ce1c a63e 603b b33c
00000140: 4e19 c93e 764c b7be 4dae 653e 6b77 88be
00000150: 0878 b33c 0370 30bc f128 4c3e 3bea b7be
00000160: e082 60be 7ca5 a7bd f5b8 933e 6b5d 0ebc
00000170: 080a 9b3e a8ad 8f3e 1d02 8a3e c6e8 af3c
00000180: 9d38 853e 5984 b13e 08af 913e 18fe 4cbd
00000190: a9de 5abe ed0d bfbe 18b2 b5be 3746 ab3e
000001a0: da5c a4be 108b 653d aae4 9bbe 3769 2cbe
000001b0: 94ec 9b3e 0bc1 b9be 0efd b4be f7da 873e
000001c0: 5be3 b1be bb87 c6be e4ef 043e 1ead 883e
000001d0: 90ea 263e 8616 b43e 6848 48be 01c7 b83e
0.1685504 -0.034088425 0.3413342 -0.23538408 0.28041613 -0.35852003 0.20978114 -0.10261946
-0.3375375 0.10404956 0.29310873 0.18619058 0.24499844 -0.28468388 0.08252506 0.37897414
-0.38027325 -0.17409389 -0.33017552 -0.29696727 0.2359433 -0.10071274 0.036616445 -0.25005797
-0.16819565 -0.3238537 -0.22666192 0.4090353 -0.047083266 -0.0019405768 -0.07767454 0.3859135
-0.29113206 -0.27135715 0.29359108 0.026982978 0.031047083 0.29805812 0.24266662 0.3535754
-0.08538584 0.05844777 -0.3842008 0.28819007 0.0011617093 0.40269792 -0.23251472 -0.30479202
-0.06456416 0.36920434 -0.38148975 -0.35659286 0.1745866 -0.03602169 0.33126134 -0.0970008
-0.0071113887 -0.011442366 -0.36876094 -0.25890085 -0.10628568 -0.24853985 -0.15148984 0.28332895
0.039925527 0.19847468 -0.31209823 -0.27334267 -0.28944162 0.02002382 -0.30706447 0.19209862
0.053436346 0.0800459 0.18127094 -0.19068095 -0.3126137 -0.25176743 0.3244385 0.021878898
0.39277118 -0.35800523 0.22429772 -0.2665361 0.021907821 -0.010768893 0.19937493 -0.3592089
-0.21924925 -0.081858605 0.2885205 -0.008689265 0.3028109 0.28062177 0.26954737 0.0214733
0.26019755 0.34671286 0.2845385 -0.05004701 -0.21374 -0.37315312 -0.35487437 0.33452007
-0.3210209 0.056040823 -0.30447894 -0.16837011 0.30453932 -0.36280093 -0.35349315 0.26534244
-0.3474377 -0.3877543 0.12982136 0.26694578 0.16300416 0.35173434 -0.19558871 0.36089328

hidden_layer2.weight f4 [120, 120]
00000000: da63 fe3b fb3b bcbc 62be 283d 3878 dcbd
00000010: 6e7d b2ba 968a c53c feb0 69bc ff02 f1bd
00000020: 2a68 bf3c 3bbd 76bc c7ea afbd 1759 a9bc
00000030: b46e 83bc 7500 843c a652 c73d 8f77 cdbd
00000040: 5fa0 a83d 4bf6 b53d 950d aeba 993e dd3d
00000050: b8b3 6ebc 3421 1d3b db4c 3d3d c3c6 f73c
00000060: 7ae6 173d e7a1 873c dfb7 223c 3fb9 443d
00000070: 153c 8cbd 2ac9 87bb 15a1 593c affe 313c
00000080: 5787 e63d 4d24 fbbc f75b dc3b 58db 3dbc
00000090: dc8e 2bbc 3508 2e3d 86d4 c0bd 0b71 813d
000000a0: 3f98 d7bb c57f 0dbc 24d3 823b 14d6 c6bc
000000b0: 6d92 14bc 6986 d7bd 9fba 6a3c d2af 813c
000000c0: 6794 d53b a4f6 403b b4e8 833b 5dc1 063c
000000d0: 2492 433d 596a 143d 5379 54bd d15c f23d
000000e0: f79a 0f3c 4968 71bb a0c3 b13d a9b1 dd3c
000000f0: 2300 4bbd b701 62bb 7caf fabb 2047 063d
00000100: 5197 1a3d 67bf c0bc 40e6 093e 501c 81bd
00000110: 34a6 9a3d c8f6 413c a746 03bb 3aed 7c3c
00000120: 2b30 e5bd 1deb 1cbc a983 103d ce87 9cbd
00000130: 43e7 93bc c2f8 f33d e28b 1aba 838b d33d
00000140: 6a4d e8bd 5edb 033d c22c c0bd 6753 953b
00000150: 619e 093e 04ae 7e3b 3dd7 49bd 85fc 8dbd
00000160: 1229 413d 2583 763c 626b 1fbc ee24 a03c
00000170: 7be4 633c 12e4 53bd 63a1 413b d623 dfbc
00000180: 5108 c33c 92ef b5bb 7f76 43bb fc03 0bbe
00000190: a113 4f3b 8de7 45bd adb0 2cbc 0757 0b3d
000001a0: 0c4a da3d 81b0 0abc f2a8 23bd c502 8fba
000001b0: fa92 3b3d ff1b 8b3b 303f 193d be85 ddbd
000001c0: 0bf9 323c 34d2 91bb cf4a c8bd 1fd5 20bd
000001d0: a692 9e3b 4a23 c8bd ef07 42bc e05e 1bbd
000001e0: 56b6 30bc 41e0 e0ba a236 d4bb 11ef aebc
000001f0: d8b4 c73b 0a9d de3c 2fab d1bb fa81 21bd
00000200: c3dc 473d cc55 cebc a535 8bbd 6444 94bb
00000210: 1445 98b9 6e8a 623c 8647 263d 7932 59bd
00000220: 7483 8a3d b339 d13c 4d7c 023b c69e 663d
00000230: aaa9 b43a e0d5 bb3a 688a ca3b 18e3 b23c
00000240: 74f5 af3c 0c94 1d3d 015b 89bb f173 5fbb
00000250: 2db5 23bd 75b0 9d3c 29fd 583c 589e 83bc
00000260: 56aa 813d 5677 bb3b 5192 413b 42af d83b
00000270: b492 b83b 3489 daba f844 75bd 9fe8 ff3b
00000280: 3d62 0e3c 5210 7d3c cd48 383c ab8b 40bd
00000290: 4236 b43b b412 99bd 59b8 90bb 53b6 633c
000002a0: 60aa 493c 1544 b4bc c71a be39 94ce 1d3d
000002b0: 7909 153c 8949 243d 0450 86bd 2b9b 693d
000002c0: 016d 723c e576 fe3b e3ed 633d 82a7 ed3c
000002d0: 15f4 86bc e459 3cba 2ef3 b63c b1ec 653c
000002e0: 3f54 123d ae6a 2cbd 60b6 4d3d c557 5fba
000002f0: 77ae 163d e8f9 97bb 646d 2abb 6bb8 b73c
00000300: 8f3f dcbc a6d0 16bc 2c72 d23c 612b 08bc
00000310: b216 723b d4e4 0d3d e1c7 c1bc 6ba9 cb3c
00000320: ee3a 63bd 329c 593d 6053 2dbd c07f 613c
00000330: cb2f 173d 2c1f f8bb bd5e 67bd b5bb 7dbc
00000340: 7839 0f3d 61f0 2e3b 3eca 30bc 3e00 053d
00000350: 0ca0 9ebc 2e0c 00bd a993 91bc 7a99 12bd
00000360: e397 07bc 8764 b3bc bc73 57bc 549c 0bbd
00000370: b89b f33a 7706 97bc 0d58 9e3c b76f 243c
00000380: 7592 383d 2578 5e3b 28f6 fb3b 4514 9e3b
00000390: 599c 103c cfa6 2d3c 4b84 083d 77aa 31bd
000003a0: 633f 173d ce34 aa3c dbdf c5bc fea7 f5bc
000003b0: 6db5 07bc cc39 85bd afe0 81bc 4aa2 19bd
000003c0: 0f17 07be 9051 ea3c cbf0 b6bd e78b ba3d
000003d0: 4e17 243d 41d6 103d 5430 98bd 5b92 653d
000003e0: fc85 4f3e 4393 22bd d1d9 84bd adad 343d
000003f0: 1bb0 723d 9eaa 403a a332 10bd 9cb2 643c
0.007763368 -0.02297782 0.04119719 -0.107651174 -0.0013617703 0.024113934 -0.01426339 -0.117681496
0.023365099 -0.0150597645 -0.08589702 -0.020672364 -0.016043998 0.0161135 0.09732561 -0.100325696
0.08233713 0.08884867 -0.0013279194 0.10802955 -0.0145692155 0.002397609 0.046215873 0.030246144
0.037085034 0.016556693 0.009931534 0.048028227 -0.06847397 -0.0041438537 0.013283034 0.010863944
0.11256283 -0.030656958 0.0067248303 -0.01158794 -0.010471072 0.042488296 -0.09415536 0.06320389
-0.0065794284 -0.00863642 0.003992455 -0.024272002 -0.009068114 -0.105236836 0.0143267205 0.015830908
0.006517935 0.0029443884 0.004025543 0.008224812 0.047746792 0.036234234 -0.051873516 0.118341096
0.008764974 -0.003683584 0.08679891 0.027062254 -0.049560677 -0.0034485885 -0.007650314 0.032782674
0.037741963 -0.023528768 0.1346674 -0.06304228 0.07551232 0.011838622 -0.0020031126 0.015437419
-0.11190828 -0.00957754 0.03528181 -0.0764309 -0.01805461 0.11912681 -0.0005895478 0.10329344
-0.113428906 0.032191627 -0.09383537 0.0045570615 0.13439323 0.0038861046 -0.049277533 -0.0693293
0.04715831 0.015045916 -0.009730192 0.01954886 0.013909454 -0.051731177 0.0029545657 -0.027238768
0.023807677 -0.0055522406 -0.0029825268 -0.13575739 0.0031597393 -0.048316527 -0.01054017 0.034018543
0.106586546 -0.008464933 -0.03995604 -0.001091086 0.045794465 0.0042452808 0.037413776 -0.10816525
0.010923634 -0.004450107 -0.097798936 -0.039265748 0.004839259 -0.09772356 -0.011842712 -0.037932277
-0.01078566 -0.0017156677 -0.0064762393 -0.02135423 0.0060945563 0.027174491 -0.0063985805 -0.039430596
0.04879452 -0.025187396 -0.06797341 -0.0045247544 -0.00029043166 0.0138269495 0.040595554 -0.05302665
0.06763354 0.025540208 0.0019910515 0.056303762 0.0013783474 0.0014330707 0.00618105 0.021836802
0.021479346 0.038471267 -0.0041917567 -0.0034096206 -0.039967705 0.01924918 0.013243952 -0.016066715
0.06331317 0.005721013 0.0029536674 0.0066126892 0.0056327228 -0.001667297 -0.059880227 0.007809713
0.008690414 0.015445786 0.011247826 -0.047008198 0.005499632 -0.074742705 -0.004416507 0.01389845
0.012308687 -0.02200512 0.00036259575 0.038527086 0.009096497 0.04010919 -0.065582305 0.057032745
0.014796496 0.007765638 0.05564679 0.029010538 -0.01647381 -0.00071850256 0.022332754 0.014033482
0.035724875 -0.042093925 0.050222754 -0.00085198536 0.036787476 -0.0046379454 -0.0026005143 0.022426805
-0.026885776 -0.009205019 0.025689207 -0.008311124 0.0036939797 0.034642056 -0.02365488 0.024861058
-0.05547612 0.053127475 -0.04231584 0.013763368 0.036910813 -0.0075720754 -0.056486834 -0.015486647
0.034966916 0.002669357 -0.010790406 0.032470934 -0.019363426 -0.031261615 -0.017770605 -0.035790898
-0.008275959 -0.021898521 -0.013150152 -0.034084633 0.0018585837 -0.0184357 0.019329095 0.0100364005
0.045061547 0.0033946123 0.007689256 0.0048241937 0.008826339 0.010598852 0.03332929 -0.04337546
0.036925685 0.020777132 -0.024154594 -0.029987331 -0.008283001 -0.065051645 -0.015854208 -0.037508287
-0.1319239 0.028603345 -0.08932646 0.091087155 0.040061288 0.03536058 -0.07431093 0.05604778
0.20265955 -0.03969122 -0.06486858 0.044110943 0.05924998 0.00073496427 -0.03520454 0.013958599

hidden_layer2.bias f4 [120]
00000000: 8c95 11bd 9e90 21bd 181c 60be 2696 553d
00000010: 2917 92bd 6007 f1bd 59d8 3c3e d8d2 60be
00000020: b162 86bc 1679 92bd a431 9cbd c394 a1bd
00000030: 1776 c2bd 8931 b5bd 7b33 643d a155 1dbb
00000040: ec33 93bd 4b83 093e a8b7 cb3d 602d 783c
00000050: 550a e63b 0632 debd 5025 b43d e28d b43c
00000060: 69a9 a1bd ab6f 05bd 9643 50be 19f0 0ebe
00000070: d07f c5bd 893c db3d 4961 b8bd da95 ee3d
00000080: ff84 e53c bee2 c73d 2ff9 f33d b73d f03d
00000090: cfa0 273d 5ff1 d23d 8f78 473d 9b4b fb3d
000000a0: 2e9f 3c3e 9840 ac3d fa5a cbbc 8bdc b9bd
000000b0: fc4f 41be 8289 be3d aa1d 33be 025a 033d
000000c0: 4784 8e3d c004 76be 21cf d0bd c436 abbc
000000d0: 6cf5 56bc f313 c13d 3d35 fc3d 9020 53bd
000000e0: 7b75 22bc fe17 57be 6566 a53d c871 e73d
000000f0: 65b8 edbd d747 09be 2be1 42be 709f b43c
00000100: a47c d73d bdfe 753b b77c e5bd 6736 e53d
00000110: 72d3 953b c879 393e 8774 82bd dade cfbd
00000120: 9c46 213d e8f8 efbd b947 9dbd 92c1 a5bd
00000130: 172a 5e3d 5e30 893d f473 f23d d307 df3d
00000140: c68c fa3c 6fb8 a43c cdb5 8a3d 84a3 b9bd
00000150: fb48 0bbd 4fa4 4fbd 0798 42bd eadf afbd
00000160: 4139 d2bd e953 c23d da33 353e 3c72 9ebd
00000170: 40cf 053c 435e df3b 290d 333d 3a26 c73d
00000180: 4381 97bd 90ff b33d 39be a9bd a058 6abd
00000190: 9bc0 cbbd c7b3 6f3c 717d b4bd 8c64 80bb
000001a0: 0610 b1bd 4052 acbd 3c3d ec3d 9be9 c63d
000001b0: 0ac3 dfbd 86d9 acbd 5aef 82bd 23d8 583d
000001c0: 84a1 f7bd 2170 dbbd 25e3 d8bd 52d1 e7bd
000001d0: 3085 263e 8f06 d63c ea7a a0bd 3c94 61bd
-0.03554301 -0.03944456 -0.21885717 0.052145146 -0.07133324 -0.11768985 0.18441905 -0.2195543
-0.016404482 -0.071520016 -0.07626656 -0.07889702 -0.0949518 -0.08847339 0.055713158 -0.0024007338
-0.07187638 0.1342899 0.09947139 0.015147537 0.0070202746 -0.10849385 0.08796179 0.022040311
-0.078936405 -0.032577198 -0.20338282 -0.13958777 -0.09643519 0.107049055 -0.09002931 0.11649676
0.028017519 0.097600445 0.119127624 0.11730521 0.040924843 0.10299944 0.048698958 0.1227028
0.18420097 0.08410758 -0.024823654 -0.09075268 -0.18878168 0.09303571 -0.17491785 0.03206826
0.06958824 -0.2402525 -0.10195757 -0.020900138 -0.013120037 0.09427633 0.12314842 -0.051544726
-0.009915705 -0.21005246 0.08076171 0.11300999 -0.11607436 -0.13406311 -0.19031207 0.022048682
0.1052182 0.003753587 -0.11205428 0.11192017 0.0045723254 0.18112862 -0.06369882 -0.101499274
0.03937398 -0.11717397 -0.07679696 -0.08093561 0.05423936 0.066986784 0.118385226 0.10890164
0.030584704 0.020107476 0.06772957 -0.09064391 -0.034005146 -0.050693806 -0.047508266 -0.0858763
-0.102648266 0.09488661 0.17695561 -0.07736632 0.008167088 0.006816657 0.043713722 0.09724088
-0.073977016 0.08788979 -0.08288235 -0.057213426 -0.09948846 0.014630265 -0.088129885 -0.003918236
-0.08645634 -0.084141254 0.11535117 0.097125255 -0.109258726 -0.08439927 -0.06393309 0.0529405
-0.120913535 -0.10714746 -0.105901994 -0.113192216 0.16261744 0.026126174 -0.07835944 -0.055073008

hidden_layer3.weight f4 [120, 120]
00000000: b2ab 163d fddb 343d 3140 3d3e 8d7d 72bd
00000010: f858 9cbd 00ea 4d3d 9739 4c3d 6a5b 1fbe
00000020: fbc9 393d 2f57 2fbd 7e05 163d b822 24bd
00000030: 03de 3bbd ee43 d7bb 81e6 fe3c cc20 943d
00000040: 7e02 323e 371c 26bd 5d71 3cbd 07f8 493d
00000050: 6c4d 043c d41f debd eb4b b33b 4a77 54bd
00000060: 42b4 26bd ec54 97bd a5aa 813d 9b03 063d
00000070: 6b80 293d 9954 0fbd b63e 9dbc ef80 5dbc
00000080: 0e90 ccbc 509a cf3d 07cf a2bc c7e3 81bc
00000090: 1781 bfbc 102d 5ebd 4558 b63c 3a26 8bbd
000000a0: bcbc 903d 2821 813c 3c44 84bc 6778 233c
000000b0: f535 1a3d 36ac cfbc 7ed3 afbd c4eb 513d
000000c0: 47c8 673d b582 b73d 8375 5abb 6437 3a3d
000000d0: 5998 ecbd 8487 b7ba c017 b0bc 26fc a93c
000000e0: a975 3cbd 8e03 573d 8856 2f3d be71 00bd
000000f0: 8371 c8bb 35aa d03c 3694 a83d 17d6 4f3c
00000100: ce05 75bb d7cf 28bd cd6e 653c e769 88bc
00000110: 9f8d d6bd 57e1 1c3d 1b8b b9bd f6da 0c3d
00000120: e89f babd b74b 9b3c 6d00 53bb 74ec 0dbd
00000130: 4625 e13a fc05 afbc 636c 5cbc a5ae 4fbd
00000140: 023c 9bbc e4ac 4b3c 143d 14bd 94be 7cbd
00000150: e80d 91bb 93bb 8cbc 83e6 b5bc db30 84bd
00000160: a06f 46bb a536 63bc 6cab adbd 8b3f d03c
00000170: d877 1f3d cc98 96bd 0784 6c3d 8481 e43a
00000180: ff55 c13b d6fa 9fbc d513 523d fd1c 5cbc
00000190: eec3 0abb 45cf c43c cd3f 57b9 021c 3fbd
000001a0: c827 af3c 3d42 b0bb 9b34 5a3e 27ea 63bd
000001b0: 1764 193d e30a 3dbe 3d6f 073d 3717 8dbc
000001c0: 4154 0cbb 504a e23c 4e20 2d3c 7455 ee3c
000001d0: c91e 82bd b13c 993d 7691 213d 05c6 8fbd
000001e0: 2ab1 0ebd baa3 503c 67e5 97bd ee4e 2bbe
000001f0: b2f2 383d 7535 013e edc8 50be 2bcf 273e
00000200: b514 94bc 0b41 e8bc c039 303d 0aff a9bc
00000210: 25df 113e 21e8 823d 9d00 123c 1a92 bcbc
00000220: efc6 e63d b1ce 04be 3378 b6bd f49d 80bd
00000230: fb63 f7bd edfb 0b3e 8097 f2bd bf56 afbc
00000240: 8544 6e3b 1b00 96bd d815 033e e813 bd3c
00000250: 55e3 733d 4210 c3bc aeb6 e73d 4766 f9bc
00000260: 170a 843d 441c 51ba 402d c6bd c7b6 f93b
00000270: 5dfd 5e3a a86d b8bd 90ac 44bd 32d8 213d
00000280: 0732 c7bc ca69 5abd d0c5 6c3d 1f6d 453d
00000290: 12c8 77bd d313 643c 1f0f 52bd d422 79ba
000002a0: 604d 01bd 1955 1c3e 97c4 26bc 011e 733d
000002b0: 567e babd 9716 c4bd d93c cebd 7b20 573d
000002c0: ab17 a13d a855 08bd b95f debc 56bb e7bd
000002d0: 63a4 833d e152 f03d ed11 1cbd e216 373d
000002e0: 4412 8dbc 6ef1 3a3d f949 d03d afcd 91ba
000002f0: 9c2d aa3d 3e9d 1ebe 92b0 41bc 12ad 4cbd
00000300: 3ac8 80bc af86 cd3d 64bf 7a3d c41a 303d
00000310: e1be 8abd 2ed7 07bc f200 acbb bfde ee3d
00000320: ee80 90bd 590d 683d bed0 83bb 3a86 7a3d
00000330: f7b8 773d e88d 27bd 3ee0 4a3d 6d63 093c
00000340: 7b5e 0bbc 9928 92bd 2ac3 eabd e984 ac3c
00000350: d20c 113d 5608 083d 30b0 f13c 6ada e5bd
00000360: 769f a03d d48d a7bd f229 543d 16d8 dcbc
00000370: 86c2 9c3c bb95 2b3c ac15 923c 66c1 babc
00000380: c474 4ab9 58e6 843d f5d7 ff3b 3b9c 42bd
00000390: 240a cd3d fff6 32bd 2b61 26bb 36f8 d0bd
000003a0: c3c7 163d 3b05 643d 811b 83bc 4d84 c63d
000003b0: 0f75 783c 86fd 173e f7e8 513d 5482 9bbc
000003c0: 761e d73c 9b0d 743d 02ea 373e 47e1 883d
000003d0: e208 edbd d30d 5f3d 0fb5 6c3e 0376 eb3c
000003e0: cb61 dd3d 4a65 05bd 0ff9 653d 012d 30bd
000003f0: fa5e 8ebd da7e 16ba 5ec3 7b3b 69e9 cb3d
0.036784835 0.04415511 0.18481518 -0.059201766 -0.07634157 0.050271988 0.04985961 -0.15562215
0.04535864 -0.042807754 0.03662633 -0.040072173 -0.045866024 -0.006569377 0.031115772 0.07232818
0.17383763 -0.04055425 -0.04600655 0.049308803 0.008075099 -0.108459145 0.0054716966 -0.051871575
-0.04069925 -0.073892444 0.06331376 0.032718282 0.041382235 -0.034992788 -0.019194942 -0.01351951
-0.024971034 0.10136855 -0.019874109 -0.015855683 -0.023376985 -0.054242194 0.022258887 -0.067944005
0.07067248 0.01576288 -0.016145818 0.009977437 0.037649114 -0.025350671 -0.08585261 0.051250234
0.056587484 0.08960477 -0.0033334203 0.04546298 -0.115524955 -0.0014002179 -0.0214957 0.020750117
-0.046010647 0.052493624 0.042807132 -0.031358473 -0.0061170473 0.025471786 0.08231394 0.01268532
-0.0037387493 -0.041213837 0.014003468 -0.01665206 -0.10476231 0.03830084 -0.090597354 0.034388505
-0.09112531 0.018957002 -0.0032196299 -0.034649327 0.0017177246 -0.021365158 -0.013453576 -0.050703663
-0.018949512 0.012431357 -0.03619106 -0.061705187 -0.0044267066 -0.017179286 -0.022204643 -0.06454631
-0.0030278936 -0.013868009 -0.08479962 0.025420925 0.03893265 -0.073533624 0.0577431 0.0017433618
0.005900144 -0.019528788 0.051288445 -0.013434646 -0.0021173912 0.024024615 -0.00020527765 -0.04665757
0.021381274 -0.00537899 0.2130913 -0.055643227 0.03744897 -0.18461184 0.03306507 -0.017222984
-0.0021412524 0.027623326 0.010566784 0.029093482 -0.06353528 0.07482279 0.039445363 -0.07020191
-0.034836926 0.012734348 -0.07416802 -0.16729328 0.045153327 0.12618048 -0.20389147 0.16387622
-0.01807628 -0.028351327 0.043023825 -0.020751495 0.14245279 0.06391931 0.008911279 -0.023018885
0.11268412 -0.12969472 -0.08909645 -0.06280127 -0.12079617 0.13670321 -0.118453026 -0.021403668
0.0036356759 -0.07324239 0.12801301 0.023080781 0.059542973 -0.023811463 0.1131414 -0.030444277
0.06447237 -0.0007976929 -0.096765995 0.0076206657 0.0008506382 -0.0900529 -0.04801613 0.03951282
-0.024315847 -0.053323545 0.057805836 0.04819977 -0.060493536 0.013920742 -0.05128395 -0.0009503786
-0.03156793 0.15266837 -0.010178707 0.059354786 -0.09106128 -0.09574621 -0.100701995 0.05252121
0.078658424 -0.033284813 -0.027145253 -0.11315028 0.06427839 0.11734558 -0.038103033 0.044699557
-0.017220624 0.0456404 0.10170359 -0.001112392 0.083094805 -0.1548967 -0.011821883 -0.04996974
-0.015720475 0.100354545 0.06121768 0.042994276 -0.067746885 -0.008291049 -0.005249136 0.11663579
-0.070558414 0.056653354 -0.0040226867 0.061163165 0.06047913 -0.040906817 0.04953026 0.008385521
-0.008506413 -0.0713665 -0.11463006 0.02105947 0.035412617 0.033211075 0.029502958 -0.112233
0.07842915 -0.081813484 0.051797815 -0.026958507 0.019135725 0.01047271 0.0178326 -0.022797298
-0.0001930772 0.06489247 0.0078077265 -0.047512274 0.100117 -0.043692585 -0.0025387506 -0.102035925
0.0368116 0.05566905 -0.016004326 0.09693203 0.015164628 0.14842805 0.051247563 -0.018983044
0.026259642 0.059583288 0.1796036 0.06683593 -0.1157396 0.054456543 0.23115943 0.028742796
0.10809668 -0.0325673 0.056145724 -0.04301167 -0.06951709 -0.0005740948 0.0038416008 0.09956629

hidden_layer3.bias f4 [120]
00000000: ee14 83bc 7e41 9fbc 9fa2 a0bd a3d1 323d
00000010: de13 aebd a34e 473c 36b4 91bc c11e fdbc
00000020: ca2d 9b3d 2ae9 913b c983 013d 5550 3c3c
00000030: 2940 aa3c b030 a23d 6a4b 76bd 6cbf c7bd
00000040: cccd afbd ccc5 8f3d 3436 8e3d ef04 263d
00000050: 782e 4abd 1c1c 3a3d 0f36 723b 8ec5 323d
00000060: b123 37bd 01cb 0e3e 5947 3cbd 5f98 14bc
00000070: 2229 4a3d 4074 5cbc a989 b53d 8141 773d
00000080: ea34 8fbd e5a7 363d 8b5f 5ebd ed55 913c
00000090: f991 c9bd ef26 a53d 31d1 cc3d e493 a03a
000000a0: 18c3 943d 7f5f 2a3d 1aa3 babb 17e9 5dbd
000000b0: 68bf dbbd e5b8 7dbd 0175 043d 75a6 19bd
000000c0: e0bc 8abd cb99 b0bd 12cf 253d c4a5 3fbd
000000d0: 87dd abbd 4eea 363d e0b6 66bb 2a95 bbbb
000000e0: 2942 183d 56f8 87bc 9287 a7bc 8e3d 953c
000000f0: 2d14 86bd 6171 fa3c 8531 cdbc 3b64 e83d
00000100: 98f9 b7bc 8308 17bd db42 9abd aca6 75bd
00000110: 0e92 103d ca99 8bbd 4dc7 983d e97f bdbc
00000120: 1442 c23c 5c33 613d 2763 e1bb 4ad5 9c3c
00000130: ed81 503d 86cd 223d d585 373d decd f0bc
00000140: 9732 01bd c927 783c 2851 893d 2210 0fbd
00000150: 5ccd a43c 47f9 353a 7c41 50bd f03e d7bc
00000160: 7289 08bb dd04 b03c 312b a73c 9147 ad3c
00000170: 34d5 483c 076d 643d ad63 a4bd b796 85bd
00000180: cd0b a03c f4d3 d3bb c0d4 80ba e6b1 74bd
00000190: 71e9 dbbc f4db 9d3d 0f3d 6cbc d56f 13bd
000001a0: 9d3e 823d 0e9e f8bc b9a6 a2bc c362 8f3d
000001b0: 55de 853d 82bc 26bd 2c12 c3bc 67aa ecbd
000001c0: 9bfb 28bd 2a93 d53c 8d18 e53d 3f6b f8bd
000001d0: 8a93 9a3d dba3 53bc 4d4c b2bb 0267 40bc
-0.016001191 -0.019440409 -0.078435175 0.043656956 -0.08499883 0.012164745 -0.017786127 -0.030898454
0.07577093 0.004452844 0.03161982 0.011493762 0.020782547 0.07919443 -0.060130514 -0.09753308
-0.085841745 0.07020149 0.06943932 0.04053205 -0.049360722 0.045436963 0.003695849 0.043645434
-0.044711772 0.13944627 -0.04596648 -0.009069531 0.049355634 -0.013455451 0.08864147 0.060365204
-0.069925144 0.04459371 -0.054290336 0.017741168 -0.09842295 0.080640666 0.100008376 0.0012251106
0.07263774 0.04159498 -0.0056957128 -0.05417737 -0.10729867 -0.061943907 0.032338146 -0.03751226
-0.06774306 -0.08623084 0.04048068 -0.046788946 -0.08391862 0.044657044 -0.0035204217 -0.005724569
0.03717247 -0.016597908 -0.020450387 0.018217828 -0.06546817 0.030571641 -0.025048027 0.113472424
-0.022457883 -0.03687335 -0.07532283 -0.059973404 0.03529554 -0.06816442 0.074598886 -0.023132281
0.02371315 0.05498062 -0.006878275 0.019144673 0.050905157 0.039746784 0.044805367 -0.02939504
-0.031542387 0.015146204 0.067049325 -0.034927495 0.020117454 0.0006941747 -0.0508437 -0.026275128
-0.0020833877 0.021486694 0.020406337 0.02115229 0.012257863 0.05576804 -0.08026824 -0.06522887
0.019536877 -0.0064644758 -0.000982903 -0.05973997 -0.026844712 0.07707968 -0.014418854 -0.035995323
0.06359599 -0.030348804 -0.01985489 0.07001259 0.06536547 -0.04070712 -0.023812376 -0.11555939
-0.041255575 0.02607115 0.11186323 -0.121298306 0.07547672 -0.012917484 -0.0054412247 -0.011743309

output_layer.weight f4 [100, 120]
00000000: f1da 863d 4560 14be e107 8bbd fe67 9dbb
00000010: 2d1b 24bd 2721 083c 9102 993d 05da 61bd
00000020: 912c 053c ae04 2d3d 2999 51be b909 9e3d
00000030: d2e8 fbbc c13c adbd 9543 4fbd aa24 c33d
00000040: d101 b23c d386 f13c 6fda c6bb 70cb 7abd
00000050: f4d2 de3c 11fc 753d 774d c4bc 0a1c ac3d
00000060: 4b55 273c 3ce3 543c 436e 9b3c 6b75 88bc
00000070: c1ed 08bd 84ba 84bc 37bb 2b3d 704d 96bd
00000080: d1ff 563c 235d edbc a2a2 08bd 3cc6 b8bb
00000090: 7b08 913d 74c4 d1bd 4f62 82be 4646 d33d
000000a0: 2fd2 a0bd 5f21 363c 486e f63d a164 a8bc
000000b0: 3c26 b53c 1a9e 59bc ea16 53bd dd57 3e3d
000000c0: 174a c63d 82a5 e2bd f731 183d 6f3c 863c
000000d0: 20b7 0c3e a635 3a3d 0aa7 92bd f70b c63d
000000e0: 080e 1b3c 3f8a 9cbc dec9 96bd c200 99bb
000000f0: fc40 cf3d 4cff afbd 9c41 bb3d 625d 443d
00000100: c16f 8e3b be9a a03c aeb4 2c3c 4ef1 0f3d
00000110: 379d 16bd d947 89bd dff0 1cbc 8631 0cbe
00000120: eef8 a03d ef77 13bd f67b c9bc 2fb2 22bd
00000130: f6e1 a33c 1cff 813d 6632 5b3d 5439 6f3d
00000140: 6a52 cc3d 2509 92bb cc2e 993d de12 05bd
00000150: 049f d5bd 8fc4 03bd 1aef 853d c4f7 d3bd
00000160: 37c0 e3bc de09 533d ddfc 833c 9125 0a3d
00000170: 9a7a 2e3d 0674 6d3d 9a54 e53d d818 153b
00000180: 5275 3bbc 154a 003d fcc0 0e3b 6d39 03bd
00000190: 2e77 4cbc 3328 df3d e509 0d3e 002d 193c
000001a0: 182b 6f3d 895d 573d 1d00 78bc 88a0 e63d
000001b0: 7129 20bd e3be 5abc 33c7 ee3b 5919 2abe
000001c0: 1322 d7bc a25a 8e3d 2445 b0bc bab4 a3bd
000001d0: c5d4 d43c 18e4 99bd d34e 0f3c 5746 0cbc
000001e0: 6b77 4d3d bec2 07be 616a 77bd 1944 8ebb
000001f0: 9e2f c8bc 8c77 a1bc eb70 513d 5a44 55bd
00000200: 0496 983c 2a26 ab3c 88aa 6bbe 5691 9a3d
00000210: bbf4 00bd 137e b0bd ac3a 61bd 958e 9a3d
00000220: c029 fd3b 0a78 ae3c 004c 263b 9548 37bd
00000230: a487 cd3c 2248 6b3d 7fea b2bc 5f15 9b3d
00000240: 3616 143c dc01 593c 28ac 5f3c 5c97 c6bc
00000250: a4e9 26bd 356e 3c3a ecec 2b3d 8a5e 8cbd
00000260: b21e 4f3c d4ed 23bd d3c4 05bd 1921 11bd
00000270: 8aa0 533d f5af bbbd d495 8ebe b84a c83d
00000280: cf66 9fbd 1427 6bbb 02df ca3d 2494 b4bc
00000290: 7e0c 813c 6537 d63c 1431 84bd 2cbe 283d
000002a0: 4bc9 cd3d a009 d9bd fdbe 3b3d e984 89bd
000002b0: 0af0 0a3e c5f9 e13c a801 a6bd c0a5 b43c
000002c0: fa14 4b3c 4bbe f73c 47a3 7abd 1ceb 0a3d
000002d0: c021 fa3c 0cbb 8ebd 5ad6 c23d 90c2 433d
000002e0: 3241 823b 8f1c da3c ca25 553c 8a33 e43c
000002f0: 2b60 3abc 6b38 56bd f4e9 2dbd 8a34 f9bd
00000300: 9c77 2d3d e82e e3bc ca62 6b3a 3a85 1abd
00000310: 1120 983c 74af 5f3d a382 533d 73bc 6e3d
00000320: d6f1 c23d 6207 d3bc 1e90 803d 5ddc 01bd
00000330: 211d 54be cc7b 1cbd f394 7b3d 5643 c9bd
00000340: 785d 1abd 8252 5c3d ef97 9b3b 82e7 4e3d
00000350: 5c52 1d3d 8c6c 943d 5366 9b3d b543 973b
00000360: 2814 28bc b463 a73c 215a 00bc 6856 593c
00000370: 9d8a 07bc 01ca d03d 1efb ea3d f416 0b3d
00000380: cdb1 4c3d 2901 2c3d c880 523b 9c6d 533e
00000390: 2572 b4bd 9bda 52bc 5b11 7bbc ef49 4dbe
000003a0: d68f 68bc 1324 8b3d 0627 ffbb ad48 a3bd
000003b0: 9ef4 e73c 5d66 4cbd fac3 efbc 1190 cabc
000003c0: c1b8 9b3c 434f ecbd 08fa 45bd 3d3f b2bb
000003d0: 57ee 0ebc abc9 20bd 72ec b53c 674d f5bc
000003e0: 9be7 bb3c 9da1 083b e431 6ebe 688a 803d
000003f0: 5f4b cbbc 9bbf a4bd b67d 80bd e816 483d
0.065847285 -0.14489849 -0.06788612 -0.0048036566 -0.04006498 0.008308685 0.07471193 -0.05513956
0.008128301 0.04224079 -0.20468582 0.07716698 -0.030750666 -0.084588535 -0.05060156 0.095284775
0.021729382 0.029483235 -0.00606852 -0.06122917 0.0272002 0.060054842 -0.02396272 0.084037855
0.0102132065 0.01299363 0.018973475 -0.016657552 -0.033429865 -0.016202219 0.04192659 -0.07338989
0.013122515 -0.028975075 -0.033358224 -0.0056388658 0.07081696 -0.102425486 -0.25465629 0.10316138
-0.07852589 0.011116355 0.12032753 -0.020555796 0.022112958 -0.013282323 -0.051535524 0.04647051
0.096821 -0.11066724 0.037157025 0.016386239 0.13741732 0.04546132 -0.071607664 0.09670251
0.0094637945 -0.01910889 -0.07362722 -0.00466928 0.10119817 -0.08593616 0.09143373 0.04794062
0.004346818 0.019605037 0.010541124 0.035142235 -0.036771026 -0.06703157 -0.0095789125 -0.13690767
0.078599796 -0.03600305 -0.024595242 -0.03972071 0.020005208 0.063474864 0.05351486 0.05840428
0.09976657 -0.0044566565 0.07479629 -0.032488696 -0.104307204 -0.032169875 0.06539746 -0.10349992
-0.027801616 0.051523082 0.016111786 0.033727232 0.04259739 0.057971977 0.11197777 0.0022750404
-0.011441546 0.03132065 0.0021782508 -0.032037187 -0.0124795865 0.10896339 0.13773306 0.009349108
0.058390707 0.052579436 -0.015136746 0.11261088 -0.03910202 -0.013351175 0.00728693 -0.16611232
-0.026261365 0.069508806 -0.021517344 -0.07993455 0.025980363 -0.075142086 0.0087468205 -0.008561692
0.050162714 -0.13257882 -0.060404185 -0.004341614 -0.024436768 -0.019710325 0.051133078 -0.05206714
0.01862622 0.020892221 -0.23014271 0.07547252 -0.031483393 -0.08617797 -0.054987594 0.075467266
0.0077259243 0.021297473 0.002537489 -0.044746954 0.025089093 0.057441838 -0.021840332 0.075724356
0.009038499 0.013245072 0.013651885 -0.024242096 -0.04075016 0.0007188053 0.041973993 -0.068539694
0.012641596 -0.040021732 -0.03265841 -0.035431955 0.051666774 -0.091644205 -0.27848685 0.097798765
-0.07783281 -0.0035881447 0.099058166 -0.022043295 0.015753027 0.026149461 -0.064546734 0.041196987
0.10048159 -0.10597539 0.045836437 -0.06714804 0.1356813 0.02758492 -0.08105785 0.022051692
0.012395138 0.030242106 -0.06119087 0.033915624 0.030533671 -0.0696927 0.095135406 0.04779297
0.003975057 0.026624946 0.013009498 0.027856607 -0.011375467 -0.052299898 -0.042459443 -0.12168224
0.042350397 -0.027732328 0.00089792593 -0.03772471 0.018569978 0.054610685 0.051638257 0.058285188
0.09518783 -0.025760356 0.06277488 -0.031704295 -0.20714237 -0.038204 0.061421346 -0.098272964
-0.037686795 0.053789623 0.0047483365 0.05051375 0.038408622 0.07247266 0.07587876 0.0046162256
-0.010258712 0.020433284 -0.007833988 0.01326523 -0.008272794 0.10194779 0.11473678 0.033957437
0.04997425 0.041993294 0.0032120217 0.20647281 -0.08810834 -0.012869502 -0.015323962 -0.20047735
-0.014194449 0.0679399 -0.0077866344 -0.07972846 0.028314885 -0.04990231 -0.029268254 -0.0247269
0.019008996 -0.115385555 -0.04833415 -0.0054396675 -0.008723817 -0.039254826 0.022207472 -0.029944135
0.022937587 0.0020848282 -0.2326122 0.06276399 -0.024816213 -0.08044358 -0.062739775 0.04884997

output_layer.bias f4 [100]
00000000: 0c59 803c a613 4f3b 42fd 99bc b79b 1abd
00000010: 5e7c 40bd d854 1fbd 49cd f6bc 0c95 a4bc
00000020: 34c8 6ebc 1806 c9bc c71b 2cbd 0894 4bbd
00000030: 2e0f 29bd 6d87 cabc c5d2 39bc 24c1 223b
00000040: 107a ec3b 6499 463c f5eb 833c 2132 a03c
00000050: 1d09 bd3c b90a ba3c ff95 dc3c 38ac a63c
00000060: 0108 8b3c 9271 0f3c c416 8c3b 4327 f2b9
00000070: c07e 3fbb aac9 62bb 07aa 95bb e033 abbb
00000080: 327e c2bb 11f3 10bc 351b 59bc 32ae 37bc
00000090: 075b 5e3b 3a32 8f3c c82a 123d 40bd 1f3d
000000a0: 3038 013d 9c9d 9d3c ee36 b43b 7acf 7abb
000000b0: ae96 8cba 8dba 93bb 1346 4abb 2fe6 c13a
000000c0: 25c2 763b 0aff a03b 7329 813a 0825 afba
000000d0: 8771 0abb ef5e f0bb d0e3 24bc 9f5e 87bc
000000e0: 1364 84bc d00b 61bb 53c8 2d3c 90e0 353c
000000f0: 9f62 4cba ab7c 91bc 067b a3bc 7432 5cbc
00000100: dda9 74bb 8d05 c63b a879 2e3c b3cd 703c
00000110: 3c21 5f3c 2090 1a3c a572 2e3c 5090 2c3c
00000120: 109f 893c c9db ac3c edc4 b83c b24c f03c
00000130: 02ab e63c f3cc eb3c 4710 af3c 2ec9 8e3c
00000140: 5c51 2b3c 8f17 183b 3c9e c6bb 8acb 4cbc
00000150: b3c2 6dbc d812 7bbc e118 7bbc ad2f 7dbc
00000160: 73f1 22bc 183d acbc 5c42 00bd c303 2cbd
00000170: 6e1c 3ebd f813 1abd 19c4 f0bc 36ea b8bc
00000180: 3fd1 28bc f57f 823b 1b14 9e3c cb87 f33c
0.01566746 0.0031597405 -0.01879752 -0.037746157 -0.046993606 -0.038899273 -0.030127184 -0.020090602
-0.014574099 -0.024539039 -0.042018678 -0.04970172 -0.041274242 -0.02472278 -0.011341755 0.002483436
0.0072166994 0.012121532 0.016103724 0.019555153 0.023075635 0.022710191 0.026926992 0.020345792
0.01697159 0.008755105 0.004275175 -0.0004618709 -0.0029219836 -0.0034605064 -0.004567388 -0.00522469
-0.005935454 -0.008847014 -0.013251116 -0.011210965 0.0033928768 0.017480005 0.03568533 0.038998842
0.031547725 0.019240193 0.005499712 -0.0038270638 -0.0010726058 -0.0045083226 -0.0030864521 0.0014793332
0.003765234 0.0049132155 0.0009854272 -0.0013362477 -0.0021124796 -0.0073355357 -0.01006408 -0.016524611
-0.016161 -0.0034339316 0.010606843 0.011100903 -0.0007796678 -0.017759642 -0.019956123 -0.013439763
-0.0037332692 0.006043142 0.010649122 0.01469748 0.013618764 0.009433776 0.010647451 0.010532454
0.01679948 0.021100895 0.022554839 0.029333446 0.028157715 0.02878425 0.021370066 0.017429914
0.010456409 0.0023207401 -0.0060613435 -0.012499699 -0.014511752 -0.015324317 -0.015325756 -0.015453261
-0.009945261 -0.021025226 -0.031313285 -0.041995775 -0.04641383 -0.0376167 -0.029390382 -0.022572618
-0.010303794 0.003982539 0.019296696 0.029727837
