Ricci_flow_autoenc_Burgers_eq/Parameters/encoder.pth (torch, 122560 bytes, 8 tensors)

hidden_layer1.weight f4 [120, 3]
000000 fb ea 02 be 13 74 46 bd 49 82 24 3f aa 45 f7 3d
       -0.1278495 -0.04845054 0.642613 0.12073834
000010 49 aa 85 3d b9 d3 36 3e 7e db b6 be 8d 00 d0 be
       0.0652662 0.17854203 -0.35714334 -0.4062542
000020 c1 c9 70 3e 33 a2 52 be 20 3b 83 3d 24 b8 58 be
       0.23514463 -0.20569687 0.064077616 -0.21163994
000030 55 6e c6 3e 7e 8e c6 be 78 e9 b7 be d1 0f 8e 3d
       0.38756052 -0.38780588 -0.3592031 0.069366105
000040 fc 89 78 be c4 29 b3 3e f5 d5 df bc 8f e4 35 3d
       -0.24271387 0.34992802 -0.027323702 0.044407424
000050 f0 ba 3a 3e 34 d4 9f 3d c4 15 b8 3d 78 da 1c 3d
       0.18235373 0.078041464 0.089885265 0.038294286
000060 e5 37 b0 be 75 27 44 be 09 3b b4 be c1 f8 a8 be
       -0.34417644 -0.19155677 -0.3520129 -0.33002284
000070 a7 6c 56 bd 98 bd a2 3e f9 3d e0 3e 0c 92 a5 3e
       -0.052349713 0.31785274 0.4379728 0.32337987
000080 9f 3c 1a be 1c a8 2d bc db 55 8d bd ef fc 1d bf
       -0.15062188 -0.010599162 -0.06901141 -0.6171407
000090 84 6e 7d be 7a ef fe bd ac 8a 7a 3e 30 74 05 bf
       -0.2474919 -0.1244802 0.24466962 -0.52130413
0000a0 0d 96 a0 3e 67 5a a3 3e 87 53 ab be 4d 50 50 3e
       0.3136448 0.3190491 -0.33462164 0.20343132
0000b0 d1 3e 22 3e 7b 5f 6b be f1 18 11 3e 38 a6 7d bd
       0.15844275 -0.22985642 0.1416967 -0.061926097
0000c0 f0 38 87 3e 0b f1 7d bd e1 a4 87 be 26 b8 0b be
       0.26410627 -0.061997455 -0.2649298 -0.13644466
0000d0 57 82 a9 3c 60 b6 b0 3d 90 15 7a bd f8 e9 d8 3d
       0.020692034 0.08628535 -0.06105572 0.10591501
0000e0 f2 a0 c6 3c 0b b0 e7 3c a3 22 ac be e3 fc b8 3d
       0.024246667 0.028282186 -0.33620176 0.09032609
0000f0 9b 07 9b bb 06 36 85 be 7c 42 7e 3e a4 78 a2 3e
       -0.0047311313 -0.2601778 0.2483005 0.31732666
000100 44 6e 2f 3e 39 c2 c9 be 58 cb a0 3e bd 2b c0 bd
       0.17131907 -0.39405993 0.3140514 -0.093833424
000110 a0 20 65 be c6 dc 68 3e c5 27 d8 bc 9a 2a 8b be
       -0.22375727 0.22740468 -0.026386151 -0.2718094
000120 f4 51 e6 3c be de 46 3e ea 3f 2e bf 5d c6 c8 bd
       0.02811525 0.19420907 -0.68066275 -0.0980346
000130 6e 0a e2 3c 71 c2 6a be 19 fc 7b be ec 44 ee be
       0.027592864 -0.22925736 -0.24607886 -0.46536958
000140 a8 b6 a3 be 01 d0 40 3e c6 ef d9 be b9 82 74 be
       -0.31975293 0.18829347 -0.42565745 -0.23877992
000150 89 92 16 3d 75 95 d4 3e bd db ba be ac 32 a5 3e
       0.03676084 0.41520277 -0.36495772 0.32265222
000160 f7 74 92 3e 0d 02 c6 3d c1 c9 31 3d bb d7 a0 3e
       0.28604862 0.0966836 0.0434053 0.3141459
000170 f1 79 ac 3e 11 88 0e 3d a0 40 b1 3e e8 11 61 3e
       0.33686784 0.03479773 0.34619617 0.21979487
000180 64 16 d8 bd 0a 1c a6 3e a1 65 7f 3e 26 7f a9 bd
       -0.10551146 0.32443267 0.24941112 -0.08276205
000190 e4 1b 45 3e cc 45 fd bd 06 64 ec be 0b 4a b7 be
       0.1924892 -0.12366828 -0.46170062 -0.35798678
0001a0 7c 57 78 3e 32 fa b6 bd 43 75 b5 be 3b 21 71 3e
       0.24252123 -0.0893444 -0.35441026 0.23547833
0001b0 ac 52 87 ba 7a 81 4b ba 52 7b ad 3f dc d8 e9 3e
       -0.0010324321 -0.0007763129 1.3553259 0.45673263
0001c0 ae d4 a2 be db 89 34 3e 73 e5 b2 3c 89 03 7d 3e
       -0.31802887 0.17630713 0.021837926 0.2470838
0001d0 4c 32 9d 3d f5 2c b8 be 8d 84 21 be c9 c1 fc be
       0.07675609 -0.359718 -0.1577322 -0.49366596
0001e0 32 c0 f0 bd 92 81 ce be 6b 53 59 3e 0f e2 ef bd
       -0.11755408 -0.4033323 0.21223228 -0.11713039
0001f0 14 71 67 bd c5 a1 b7 bd fd f5 82 3d dc 7b 8c 3d
       -0.056504324 -0.08966402 0.06394575 0.06859562
000200 45 bc 43 3e c9 ac 61 bd d8 5b a9 be 60 10 9b be
       0.19114788 -0.05509642 -0.33077884 -0.3028593
000210 41 bd 51 3e cc 5c c4 3e 18 66 0b 3e 94 ef 63 3e
       0.20482351 0.38352048 0.13613164 0.2225936
000220 33 19 36 be e3 ec 0a 3a 9e 5d e2 bd e2 6b 28 be
       -0.1778305 0.0005299581 -0.11053012 -0.16447404
000230 36 b9 8d be 4b 3a ca be 97 26 af 3d 9c 57 91 3e
       -0.27680367 -0.394976 0.08552282 0.28387153
000240 9a 1e ae 3e 06 ae 7d 3e e4 73 6b 3e f1 2a a5 3e
       0.34007722 0.24773416 0.22993428 0.32259324
000250 3f 54 22 3e 70 4b e5 3e 1f af d4 be 05 e8 84 bd
       0.1585245 0.44784117 -0.41539857 -0.06489567
000260 67 28 5b be 9b f2 15 be 65 40 d5 bc d4 eb e5 3b
       -0.21402131 -0.14643328 -0.026031682 0.0070166383
000270 2e 5f 87 be db 3c 1a 3e 9a b0 34 3e 6d 58 62 be
       -0.26439804 0.15062277 0.17645493 -0.22104044
000280 12 14 54 be 0c 37 09 be 74 23 25 be 41 49 38 3e
       -0.20710781 -0.13399905 -0.16126806 0.17996694
000290 c1 c9 83 3e 56 4e 01 3e 29 7d b9 bc 31 79 99 3e
       0.25739864 0.12627539 -0.022642689 0.29975274
0002a0 0e 71 94 bb 08 a4 28 bb d0 80 01 bf c8 1b e0 bb
       -0.0045300787 -0.0025732536 -0.5058718 -0.0068392493
0002b0 b3 3f 67 3e b1 a4 b0 3e 98 69 de be 06 be a8 3d
       0.22582893 0.3450065 -0.43439937 0.08239369
0002c0 b7 a0 a6 be 1f 94 3e be cf a1 a0 be 96 54 d4 3e
       -0.3254449 -0.18611191 -0.3137345 0.41470784
0002d0 45 59 16 3e 98 db 9b 3e aa 28 64 3e 11 4a a1 ba
       0.14682491 0.30440974 0.22281137 -0.0012305399
0002e0 d7 62 6f ba 88 13 89 3f cf 3a 07 3d 61 45 de be
       -0.0009131855 1.0709085 0.03301507 -0.43412307
0002f0 c3 89 71 be f5 65 95 be 17 01 54 3c ec 5b cd bd
       -0.23587708 -0.2917935 0.012939713 -0.10027298
000300 78 f0 31 3c 67 24 ca 3d c8 12 10 bf 45 4c 6d ba
       0.010860555 0.098702244 -0.5627866 -0.00090521976
000310 65 10 b8 bd 75 1d 0e 3f 53 8e b9 3e bc db df 3e
       -0.08987502 0.555137 0.36241397 0.43722332
000320 a7 33 82 be e9 ba de 3d 41 f1 85 be e0 b3 03 3f
       -0.25430033 0.10875494 -0.26160625 0.5144634
000330 03 4e c3 3d fe e0 7e 3e 2b 41 c2 3c 92 28 57 be
       0.09536364 0.24890515 0.023712715 -0.2101157
000340 c3 92 09 be 4d da 22 bd 61 00 f4 bd 3d fa 23 be
       -0.13434891 -0.03975897 -0.11914135 -0.16013427
000350 a2 e5 88 3e 0c b6 7c bd b2 cf 97 be 20 cb ba bd
       0.26737696 -0.06169705 -0.29650646 -0.09120774
000360 9b 7d 02 be 6e 44 91 3c fe d3 9c 3e c4 ef a7 3e
       -0.12743227 0.017732825 0.30630487 0.32800114
000370 88 ae c8 3d 87 0e 42 bd 7d 82 d7 be 5f 9f 84 3e
       0.09798914 -0.047377136 -0.42091742 0.2590284
000380 12 b3 ca be 3e 93 ac 3e 6a 9c c7 be 14 80 65 3e
       -0.39589745 0.33706087 -0.38986522 0.22412139
000390 60 4c a4 be d2 3f 28 3e 74 99 3e 3e 4e 4d c7 3e
       -0.3208952 0.16430596 0.18613225 0.38926166
0003a0 8a f6 d2 3e 1a 1d 03 be ea 2f 00 3f c7 cd b1 be
       0.4120372 -0.1280407 0.5007311 -0.34727308
0003b0 89 9d 8f be 7b 81 9e 3e f4 fa f8 3e af 37 cc be
       -0.28049877 0.3095816 0.48628962 -0.39886233
0003c0 11 3a 0b bd ee fb 19 be 92 fe 42 be 0c bd 1d 3e
       -0.033990923 -0.1503751 -0.19042423 0.15404147
0003d0 11 7a ae be 9e 07 f5 3d f2 8a b4 be a7 40 0d be
       -0.34077504 0.119643435 -0.35262257 -0.13794194
0003e0 0d 21 8e 3d 33 7b 8d 3d 81 23 bf 3e 57 c3 72 bd
       0.06939898 0.06908264 0.37331775 -0.05926832
0003f0 12 4a 60 3c 00 c7 9c 3e 64 2e 89 3e 2c 0a 19 be
       0.013689535 0.30620575 0.26793206 -0.14945287

hidden_layer1.bias f4 [120]
000000 cc e8 d2 bd 67 e5 f6 3b 9c 0d 42 be bd 03 0b 3d
       -0.10298309 0.007534671 -0.18950504 0.033939112
000010 59 0d f1 bc 0c 15 19 be c7 ed 9f bd c2 f4 dc bd
       -0.02942531 -0.14949435 -0.07809024 -0.10788871
000020 0d b7 2e 3e db cb c2 bd 02 1b 36 ba 11 4f 00 3e
       0.17062016 -0.095115386 -0.00069467735 0.12530161
000030 b5 28 5d be bb a3 45 bd 9f 41 d4 3d 61 b0 2f 3e
       -0.2159756 -0.04825185 0.10364079 0.17157127
000040 bb da 35 3d b4 35 ec bb 02 0b 87 3d 1e 2a 08 be
       0.04439805 -0.0072085503 0.065938964 -0.13297316
000050 8c 80 01 bd 0f e3 89 bc e8 ae d2 bd 83 1d 57 3e
       -0.031616732 -0.016831903 -0.10287267 0.21007352
000060 c2 7c 6c 3e b6 1f 85 bd 54 37 6a 3e 1f f5 04 bd
       0.23094466 -0.06500189 0.22872669 -0.03246033
000070 f7 14 33 bd 83 5b 2b be 15 25 29 bc df 01 91 bd
       -0.043721166 -0.16734128 -0.010323782 -0.07080435
000080 aa d0 26 be d6 bf a9 3d 1f cf e8 bd 83 0e 2a be
       -0.16290537 0.08288543 -0.1136763 -0.16607098
000090 42 df 02 3f 77 bc f4 bc 65 f1 c1 bd 4b 69 5b 3e
       0.51121914 -0.029875023 -0.094698705 0.21426885
0000a0 2b 26 2f 3d 6f 09 5e 3e e9 3e 04 be bf 36 57 bd
       0.04276101 0.21683286 -0.12914623 -0.052542444
0000b0 db 89 67 3d bc f9 e3 bc 25 bd b2 bd 16 cc 56 be
       0.056527954 -0.027829044 -0.08727483 -0.2097629
0000c0 63 98 38 be 6f 95 a5 bd fa d0 5e bd 4d 0f 17 be
       -0.18026881 -0.08085143 -0.054398514 -0.1475193
0000d0 27 87 a4 bb a6 b5 44 3d f4 d8 98 bd 30 f3 5b be
       -0.005020994 0.048024796 -0.074632555 -0.21479487
0000e0 a7 04 c8 3e 1a b3 ee bd b0 6e a7 ba 5f 86 63 be
       0.3906605 -0.11655255 -0.0012774076 -0.22219227
0000f0 64 8e 52 bd cf b3 cd 3e 66 31 95 bd 09 01 5f bd
       -0.051405326 0.40176246 -0.07284813 -0.054444347
000100 83 b2 31 3e 48 5f d5 ba 9e 88 d1 3b 5f 8a 38 be
       0.17353253 -0.0016279006 0.00639446 -0.18021534
000110 19 3d d1 3d 54 47 dc bc 05 3e 4b bd 7c 8c 16 3d
       0.102167316 -0.02688948 -0.049619693 0.03675507
000120 4f 26 8d 3c 70 4d e5 bc d4 e4 56 3e 1f 33 0a 3e
       0.017230181 -0.027991027 0.20985729 0.13496064
000130 58 d6 21 bd f2 12 f5 3d 83 e0 15 bd 56 72 7d 3d
       -0.039511055 0.11966504 -0.036591064 0.061876617
000140 67 2a 04 3d d0 44 aa 3c 14 ba 2e be 3e 07 26 3e
       0.032267 0.020784765 -0.1706317 0.162137
000150 b9 ae 69 3d cb e6 0a be f6 e8 43 bd cd ad 3c 3d
       0.057051394 -0.13564603 -0.04782959 0.046064187
000160 73 a0 1c 3e e4 a1 6d be c6 4b 2d be 11 2f 19 3d
       0.15295582 -0.23206288 -0.16923437 0.0373984
000170 f8 ab f2 bd e3 e9 00 be cb 22 83 be 42 7b 19 bb
       -0.11849207 -0.1258922 -0.25612482 -0.0023419415
000180 46 52 90 3e d8 22 b8 bd f2 21 f5 bd 16 2f 81 be
       0.2818777 -0.08991021 -0.11969365 -0.25231236
000190 bc 5f fb 3d 19 b1 df 3d 0f af c1 bd f0 1c e7 bd
       0.12274119 0.109224506 -0.09457218 -0.11284816
0001a0 f6 9b 8d 3d 7b 89 81 3c da 4f af 3d b4 e0 2c 3e
       0.06914513 0.015812626 0.08560152 0.16882592
0001b0 7e 80 b5 bd 0a ba e3 3d e0 55 1e bd 6f b9 9f bd
       -0.088623986 0.111194685 -0.038656116 -0.077990405
0001c0 eb 4d b3 3d a4 64 4a bd e0 49 85 bd da 72 89 bd
       0.08755096 -0.049412385 -0.06508231 -0.06711359
0001d0 8c 4f 4e 3c aa 19 8b bd 7d dc 00 3d b8 ba 25 bd
       0.012592208 -0.067920044 0.031460274 -0.040461272

hidden_layer2.weight f4 [120, 120]
000000 ad c0 6e 3d be 45 50 3c a3 6f 01 bd 5f 9f 0a bb
       0.05828922 0.01271194 -0.031600606 -0.0021152121
000010 b6 a2 77 bd ec 17 70 3d be d4 0a 3d 38 05 74 3c
       -0.060457908 0.058616564 0.033894293 0.014893822
000020 91 ff 72 bc 02 5e 17 bc 24 19 45 bd 45 2d 44 bd
       -0.01483144 -0.009238722 -0.04811968 -0.047894735
000030 9d b3 70 3d 3e a3 38 3d b6 c4 5a bd 78 9d c6 bc
       0.058765043 0.045077555 -0.053410254 -0.024245009
000040 a8 2f 5b bd 0f 40 91 3c 10 4d bf ba c5 d2 2f 3d
       -0.053512245 0.01773074 -0.001459511 0.042925615
000050 77 e9 6b 3c 5e 7f 11 bc 52 89 85 bc af 2b 4a bd
       0.014398924 -0.008880464 -0.016300831 -0.049358066
000060 9f eb 14 bd e4 e5 3a 3c b3 50 f1 bc f3 a0 37 bd
       -0.03635752 0.011407349 -0.029457426 -0.044831228
000070 86 39 c7 3c 47 41 34 3c 96 22 89 3b b9 09 e8 3c
       0.024319421 0.011001891 0.004185031 0.028324949
000080 32 6b 35 3d 5a 3a 73 3c c1 74 6c 3d 8f c7 47 3d
       0.044291683 0.014845455 0.057728533 0.0487743
000090 a6 70 12 3e 39 00 45 3d b2 29 1b 3c b3 08 14 bd
       0.14300784 0.048095915 0.00947039 -0.03614111
0000a0 0e cb 6e bb 13 cc f2 bc e3 14 57 3d 77 d1 73 bd
       -0.0036436948 -0.029638326 0.052510154 -0.059525933
0000b0 60 af 85 3c 1d fd cf 3c df 88 3e bc 40 f3 cb bc
       0.016318977 0.025389249 -0.011629312 -0.024896264
0000c0 d1 e9 ba 3c f9 20 a2 3d 3a fe e6 bb 36 36 1b 3d
       0.02281657 0.07916445 -0.007049349 0.037893496
0000d0 99 08 5b 3c 27 24 d2 bc c5 b7 07 3d 14 75 6c 3d
       0.013368749 -0.025652004 0.03313424 0.057728842
0000e0 9c 5b 22 be c6 bd 18 3d 56 c4 32 bd 93 9a 43 3d
       -0.15855259 0.037290357 -0.04364427 0.047754835
0000f0 b2 9b a3 3c 09 59 eb 3d 26 b0 d6 bc 2c ba 1e 3d
       0.019971702 0.114915915 -0.026207041 0.038751766
000100 8d d4 2f bd d6 2c 7e 3d 3c ec 66 bd a5 3d 93 3d
       -0.042927314 0.062054478 -0.056377634 0.07189492
000110 63 22 8e 3c 21 3f b7 bc 7f c7 77 3d c1 b8 80 bc
       0.017350381 -0.02236897 0.06049299 -0.015713098
000120 15 16 04 3d 77 96 88 3c 26 c4 aa bc b8 12 75 3d
       0.03224762 0.01667331 -0.020845484 0.059832305
000130 46 d4 dc bc 17 be 9c 3c d7 4e 54 bd fa 89 8a bc
       -0.026956689 0.01913361 -0.051833 -0.016911495
000140 9e 4b e4 bb 22 05 b5 3c 6e d4 2b 3c 70 4d 02 bd
       -0.006967022 0.022097174 0.010487659 -0.03181213
000150 90 92 99 bc fc c2 eb 3c 42 91 18 3c 6b 59 09 bd
       -0.018746644 0.0287795 0.009311976 -0.03353254
000160 6e b5 09 bd 05 8a b4 3d ee 94 2c 3d 0b 1e 4a bd
       -0.03362029 0.08815388 0.042134218 -0.049345057
000170 ef eb 2c 3d d3 51 2f 3d a1 5f fa 3c 85 69 f0 bc
       0.04221719 0.042802643 0.030563178 -0.02934719
000180 57 3f 4a bc 29 9f b1 3d 72 ef 7e 3d 50 bb 8b 3d
       -0.012344203 0.086729355 0.06224007 0.068228364
000190 91 29 bb bc 77 73 3f 3c f2 44 3d 3d 18 26 21 3d
       -0.022846969 0.011685244 0.04620833 0.03934297
0001a0 6d 83 89 bd 69 15 03 3b ed 1b 8e 3d 14 b8 a5 bc
       -0.067145206 0.0020001775 0.0693892 -0.020229377
0001b0 99 22 16 3d 3c 02 78 3c 4d cc 1b bd 3b 96 fb 3c
       0.03665409 0.0151372515 -0.038036633 0.030711284
0001c0 85 16 86 3c 33 4b 96 bb c2 c5 34 3b 3e 34 49 bd
       0.01636816 -0.004586601 0.0027583693 -0.049122088
0001d0 f7 c9 1c 3b 93 7f 7b 3c 91 d8 4f 3c 3e 59 63 39
       0.0023924091 0.01535024 0.012685911 0.00021681652
0001e0 fd 84 16 bc 54 ff 31 bc 0d 16 16 bc 66 9c d1 3c
       -0.00918698 -0.010864098 -0.009160531 0.025587272
0001f0 fb 06 11 3d 15 3b 64 3b c6 3c 6a 39 f3 c6 e7 3a
       0.035407048 0.0034825255 0.00022338619 0.0017683193
000200 ee bd b0 bc 2d 0a d6 bc fc 5b a9 bc 01 13 66 3c
       -0.02157494 -0.026127899 -0.020673744 0.014042617
000210 cf ba ab bc 9c 7e 8f bd 4c b3 6b b8 e8 90 70 bc
       -0.0209631 -0.07006571 -5.619535e-05 -0.014682986
000220 ea e1 af 3c 38 1b f1 3b 25 d5 2f 3c e2 91 2c ba
       0.021470029 0.007357981 0.01073197 -0.00065830175
000230 02 d8 de ba 60 ed 84 3c 38 26 44 3c 0d 76 ea 3c
       -0.0017001631 0.01622647 0.011972003 0.028620744
000240 54 46 98 3c f1 16 f5 ba 17 4c 80 bb a2 7b 0f 3d
       0.018588223 -0.0018698854 -0.0039153206 0.035030015
000250 f2 1d 06 3c 70 99 fa bc 03 09 9a 3c 73 67 97 3c
       0.00818585 -0.030590743 0.018803125 0.018481946
000260 aa fd 86 3c 73 33 e7 3c bf 2e 0a bd 5f 5c cf ba
       0.016478378 0.028222775 -0.033735987 -0.0015820375
000270 78 76 52 bc 64 bd e7 bd c0 00 40 b9 cf 57 8b bc
       -0.012845628 -0.1131542 -0.00018310826 -0.017009644
000280 0e c2 98 3a e4 65 41 3b 0a 5b 14 bb f0 f8 c2 39
       0.0011654512 0.0029510194 -0.0022637271 0.00037188036
000290 84 69 1d 3b e0 8b 8f bc 09 ea 27 bc 73 cd 56 ba
       0.002401919 -0.017522752 -0.010248669 -0.00081940665
0002a0 92 2a dd bc 10 91 1a bc 72 01 0c bd 1b 3b e9 bc
       -0.026997838 -0.009434 -0.034181066 -0.028470566
0002b0 6f 20 03 3c 8d 40 2d bc aa 65 68 3c d9 c2 45 bc
       0.008003338 -0.010574472 0.014184395 -0.012070381
0002c0 d0 f3 99 3c f5 21 59 3b dc ed 60 3c 57 fb 44 bc
       0.018793017 0.0033131812 0.013728585 -0.012022815
0002d0 b8 e6 97 3c ab b5 05 bc 8d 45 33 3b c8 8e ea ba
       0.018542632 -0.008160989 0.0027354688 -0.0017895335
0002e0 b0 bd 44 3c 88 6c 13 bc 2d f5 dc bc 87 51 89 3c
       0.012008116 -0.008998044 -0.026972378 0.016762508
0002f0 25 77 a7 3c ab 86 a9 bc 15 39 43 bc de f2 c2 ba
       0.020442555 -0.020694098 -0.011915465 -0.0014873405
000300 96 95 a3 3b 0b 13 85 bc ae 8f 9c bd 16 89 4d 3d
       0.0049921973 -0.016244432 -0.07644592 0.050179563
000310 2e 00 0e 3d 08 1b b5 3b ab 37 95 bd 95 92 83 3c
       0.03466814 0.005526904 -0.072860084 0.016061107
000320 22 ba 69 bb f6 07 8a 3c bd 09 ad bc 64 d4 b6 3c
       -0.0035663922 0.0168495 -0.021122808 0.022318073
000330 f5 b9 8a 3c ec 5f 22 3c 0f db d2 3c d0 5d c0 3a
       0.016934374 0.009910565 0.02573922 0.0014676396
000340 7e 7f c2 3c c9 5f a1 bc 8a e5 8c bc 30 26 83 3b
       0.023742434 -0.019698994 -0.017199297 0.004002355
000350 36 aa 9c 3c f6 52 95 3b f8 37 54 bb a8 16 03 bc
       0.019124132 0.004557009 -0.0032381993 -0.008001007
000360 45 a2 ba bc 66 68 10 bc 79 d7 01 3c 78 e7 e7 bc
       -0.022782454 -0.008813953 0.007924908 -0.028308615
000370 9a db ff bc 02 49 ac 3c 5a 1f ed bc ab c8 fe bc
       -0.031232644 0.021030907 -0.028945614 -0.031101545
000380 15 07 b2 bc e1 96 0b 3c f9 85 e7 3b 55 1b f8 3c
       -0.021731893 0.008519859 0.0070655313 0.03028647
000390 e0 8a 93 bb 36 3e e4 3b c6 97 00 3d 85 5c 2a bc
       -0.004502639 0.006965424 0.031394742 -0.010398035
0003a0 9c ca ad 3c 7c 32 cb bd 88 d2 02 3c 4d 9d 94 3c
       0.021214776 -0.099217385 0.007984765 0.018141413
0003b0 98 94 14 bc 73 75 26 3c 1d 71 22 bc 2d 9f 08 3c
       -0.009068631 0.010159838 -0.009914664 0.008338732
0003c0 92 79 5c 3b 46 fb 45 3c 46 89 2c 3d 9b 74 e8 bb
       0.0033641797 0.012083834 0.0421231 -0.0070939786
0003d0 13 87 47 3d b5 76 9a ba a1 bf 55 bb bd 80 3e 3c
       0.0487128 -0.0011784645 -0.003261544 0.011627373
0003e0 f2 63 1f 3d 51 da 29 bc e1 0a 15 bc 5d f6 36 bc
       0.038913675 -0.010366992 -0.009096832 -0.011167136
0003f0 d5 6a 1b 3d c4 67 c8 3c 95 17 0d bc d6 6f 51 3c
       0.03794368 0.024463542 -0.008611579 0.012783011

hidden_layer2.bias f4 [120]
000000 77 31 29 be cf 41 65 3d 66 11 11 3b 78 cf 87 bd
       -0.16522776 0.055970963 0.0022135614 -0.066313684
000010 e8 79 a4 3d 25 1c 25 3d a4 fb 77 bd e6 07 86 3d
       0.08031064 0.040310044 -0.060542718 0.06544475
000020 60 da 53 be c0 25 6d 3c 6f ea 88 3d 1b e7 f6 3c
       -0.20688772 0.014474332 0.0668534 0.030139497
000030 86 0b 9e 3c 22 21 4b bd da 80 e5 3c df b3 49 bd
       0.019292604 -0.049592145 0.028015543 -0.049243804
000040 41 91 07 3c 23 a5 ec 3c 29 a5 99 3c 5f 7c a6 3c
       0.008274377 0.028887337 0.018755512 0.020322977
000050 c1 c5 cf bc c0 e4 04 be d2 c1 79 3c 75 d2 85 bc
       -0.025362851 -0.12977886 0.015243964 -0.016335705
000060 cd a9 1f bd 6f 9e 29 3d 5d 26 93 3c 1f 06 03 3d
       -0.038980294 0.04141086 0.017962629 0.03198826
000070 8a 6e 82 3c ce c6 3a bc 0c a0 d8 3b b1 3b 57 3d
       0.01592185 -0.011399938 0.006610876 0.05254716
000080 5d 4e 19 bd db 55 c4 3c 55 07 63 3a 40 1c ac bd
       -0.03742825 0.02396672 0.00086604554 -0.08403826
000090 36 94 86 3c 2b 92 9f 3d 69 fc d8 bd 92 b6 ff ba
       0.016428094 0.07791551 -0.105950184 -0.0019509366
0000a0 10 ce 4d 3c 6c 85 96 bc ba 59 30 3d 76 b2 5b bd
       0.012561336 -0.018374167 0.04305432 -0.05363699
0000b0 2a eb 88 b8 bb 74 5b 3c af e2 bd 3d 3d b1 0e 3e
       -6.528788e-05 0.01339453 0.09271752 0.13934799
0000c0 56 f7 25 bb 3d 6e d7 3c c6 3d a7 3e 25 d2 06 bd
       -0.0025324426 0.026297683 0.32664317 -0.032915253
0000d0 ab f2 d5 b9 4c 79 99 bb 48 4b a4 3d 9d af a3 bc
       -0.00040807328 -0.004683649 0.08022171 -0.0199812
0000e0 e5 aa 04 bd 32 84 a2 3d 56 f9 cc bc 2b c8 06 bd
       -0.03238954 0.079353705 -0.025021236 -0.03290574
0000f0 8f f9 2e b9 bf e0 e8 3d 1b b2 f2 bc bc 83 82 be
       -0.00016686901 0.11370992 -0.029625943 -0.2549113
000100 fb 59 80 3d ed 5e 74 3b 60 15 f1 bd da 36 18 3d
       0.062671624 0.0037288025 -0.11771655 0.037161686
000110 ea e7 1b 3d 2d 7a 87 3d fc e5 90 3d a9 ee 54 bc
       0.038062967 0.066151 0.07075116 -0.012996354
000120 82 d4 59 3d 43 70 b6 bd 34 67 51 3d 96 7e 18 bd
       0.05318118 -0.08908131 0.051123813 -0.037230097
000130 c4 d5 09 3a f7 d4 94 3c b9 d1 8a 3d 17 c9 a8 3d
       0.0005257989 0.018167956 0.06778283 0.0824148
000140 02 c3 f8 ba f0 6d f4 bd f7 ab f7 bc 22 03 bd 3c
       -0.0018979015 -0.119350314 -0.030233366 0.023072783
000150 ce a9 ff 3d 07 11 23 3d a2 1d 03 be d3 69 83 3d
       0.124835595 0.03981116 -0.12804273 0.06416669
000160 cd 76 55 3d d4 d4 b7 bd 7e 6c 7e 3d 66 4d ce bc
       0.05211525 -0.089761406 0.062115185 -0.02518339
000170 0f 6e 78 3d 89 33 3d 3d b3 72 1a bc 0a 28 ca bd
       0.060651835 0.046191726 -0.0094267605 -0.09870918
000180 38 ab a8 3b c5 a0 8a 3d 0b 90 5f 3d 1c ae 5b bb
       0.005147364 0.067689456 0.05458073 -0.0033520525
000190 60 a4 5c 3c 2a 68 f6 3a 80 16 d4 3d 9b a8 b5 bd
       0.013466924 0.0018799354 0.10355854 -0.088700496
0001a0 97 7d 33 bc 4d da d9 bd 65 89 5a 3d 55 5d 55 3e
       -0.010955236 -0.10637341 0.053353686 0.20836385
0001b0 8a 4d 3c bd 40 f9 df bd 82 5e 45 3d 3f 1a ad bc
       -0.045972385 -0.109362125 0.048185833 -0.02113068
0001c0 13 dd a1 3c 06 79 b6 bd cf cd 93 bc 3f 1a 75 3d
       0.019758737 -0.08909802 -0.018042473 0.059839483
0001d0 ec 0f 6b bd 51 16 c4 bb 46 6c 66 bc 9e 74 bf 3b
       -0.05738823 -0.0059841056 -0.0140639 0.0058427593

hidden_layer3.weight f4 [120, 120]
000000 b0 8c a5 bc 2e 9f fe bc b4 c1 88 3d 13 c1 de bb
       -0.020208687 -0.031081762 0.06677571 -0.0067979186
000010 9a 0b 7e bc 21 e5 eb bc 18 f3 d4 3b fd 33 0b 3c
       -0.015505696 -0.02879578 0.0064987056 0.008496282
000020 15 0f 53 3c f0 fb d1 bc 27 42 cb 3b 89 2c 0d 3d
       0.012882014 -0.025632828 0.0062029543 0.0344663
000030 b8 7b 65 3c 88 6d b8 39 51 64 d4 3c 3f a7 d1 3c
       0.014006548 0.00035176822 0.02592674 0.025592444
000040 96 d9 17 bd 39 22 b7 3b 8d 9b 86 bd 62 4b b7 3b
       -0.03707274 0.0055887965 -0.06572638 0.005593703
000050 f2 e8 51 3d 33 db ae 3c dd 29 17 bc eb 1e c0 3c
       0.051247545 0.021344757 -0.00922629 0.023452243
000060 64 0f bf 3b 66 17 b2 3b c2 8e 80 bc 20 17 e2 bb
       0.005830692 0.005434918 -0.015693072 -0.0068997294
000070 a6 94 47 3b aa c9 c1 bc 3e 15 cb 3b c2 75 81 3d
       0.0030453592 -0.023655731 0.0061976006 0.06321289
000080 a5 d5 d0 3c 42 be bb bc fe 6b e5 3b 9f 73 51 bc
       0.025492499 -0.02291787 0.007001399 -0.012783914
000090 db 1d 9d bb 73 dc 0c 3c a2 a0 e5 3c b1 b9 0e 3c
       -0.004794819 0.008597481 0.028030697 0.0087112645
0000a0 5b 55 87 3b f2 7d 78 bc ed 81 59 3c 41 50 4a 3c
       0.004130048 -0.015166746 0.013275606 0.012348236
0000b0 bc 5a f9 ba 64 6f 62 3c 77 d5 9b 3a cd 8a 0b 3c
       -0.0019024233 0.013820503 0.0011889179 0.008516979
0000c0 6a 80 fa 3c 38 94 16 bc b7 e6 29 bc 87 2f 88 3d
       0.03057881 -0.009190612 -0.010369948 0.0664969
0000d0 75 f1 8b bd 53 e8 e6 b9 58 11 d1 3b bc 2b f1 3b
       -0.06833164 -0.00044042114 0.0063802414 0.00735995
0000e0 7d c7 90 bd 79 4c 80 bd 08 23 16 3c c0 59 5d 3c
       -0.07069299 -0.06264586 0.009163626 0.013510168
0000f0 6a 8c 97 bb db 19 27 bc fc ed 9a 3b 63 bc 91 3d
       -0.004624893 -0.0101990355 0.004728077 0.0711601
000100 96 22 64 3c 21 8f 94 bc de b1 3c 3d 89 04 96 3c
       0.013924262 -0.018134655 0.046068065 0.01831271
000110 63 22 0e 3c 8c 62 b6 3b 73 c0 d7 3b 90 0f d8 3a
       0.008675191 0.005565947 0.006584221 0.001648413
000120 98 03 88 3c 34 b7 6d bd 54 ab 13 3c 6d 77 1b bc
       0.016603276 -0.058036044 0.009013016 -0.009488923
000130 28 a3 05 3d e1 90 22 3c 18 9f 0e 3c 14 94 51 bc
       0.0326263 0.009922237 0.008704923 -0.012791652
000140 db 1e c4 bc f6 25 12 ba 4b db 5c 3d ff 22 9a bd
       -0.023940494 -0.00055751146 0.05392007 -0.07526206
000150 d6 c3 33 3c 66 09 be 3b 8b db 80 bc da bb 1d 3c
       0.010971984 0.00579946 -0.015729686 0.009627307
000160 c5 7b 00 ba a9 bc c9 3c fd 80 cc 3b 23 c6 0b 3c
       -0.00049012556 0.024626093 0.0062409625 0.008531126
000170 45 d3 2f 3d 6a be 6f 3c c5 a2 9e 3c fb e8 65 bd
       0.04292609 0.014632801 0.019364724 -0.05613039
000180 29 46 5b bc 60 c5 71 3c c7 9b 38 3c e1 1e 15 bd
       -0.013383427 0.0147565305 0.011267609 -0.0364064
000190 ad ae 01 3b 1a 2c 90 3b 6b 37 35 bb 89 25 93 bc
       0.0019787953 0.0043997886 -0.002765144 -0.017962234
0001a0 13 88 2e bd 24 12 da 3a ec 5e ad 3b 23 7d 3d 3d
       -0.04261024 0.0016637486 0.0052908566 0.046261918
0001b0 9e 20 b6 3a 16 df 26 bd 64 50 b5 3b 82 59 22 3d
       0.0013895219 -0.040740095 0.005533265 0.039636143
0001c0 65 41 ce 3c 41 86 00 bb 64 18 fd 3c f6 58 91 3c
       0.025177667 -0.0019611272 0.03089542 0.017742615
0001d0 be 9c 23 3d 91 d7 f4 3c fc a8 9f ba b3 b2 de 3c
       0.039944403 0.029887946 -0.0012181099 0.02718482
0001e0 4c c8 2b bd 01 97 44 bc b4 c2 c7 3c b7 f6 1e bc
       -0.041939065 -0.011998893 0.024384834 -0.009702376
0001f0 4c 63 bc bc 79 28 d1 3b f2 04 81 3c d6 c2 eb ba
       -0.022996567 0.0063829985 0.015749428 -0.0017987143
000200 34 b6 b4 bd 3e 7d cb 3c 31 e6 95 bb 86 23 68 bc
       -0.08823815 0.024839994 -0.00457456 -0.014168626
000210 e8 12 81 39 e7 c5 47 bc 61 31 08 3c 82 f3 49 bc
       0.00024618884 -0.01219318 0.008312554 -0.012326123
000220 a5 97 57 3d 3e 6a ad 3b 10 d8 ed 3b 18 33 de bb
       0.052634854 0.005292206 0.0072584227 -0.006780993
000230 91 22 cb bc d2 85 17 3d 22 e5 d1 3c 78 f9 63 bc
       -0.024796756 0.036992855 0.025621954 -0.013914458
000240 f4 da c0 bc b7 af 52 3a 25 c9 ad 3c fe 34 11 3c
       -0.023541905 0.0008037048 0.021214077 0.008862732
000250 c6 a5 b1 3a 9a 05 90 bb e5 f5 e1 3a 88 ac 5e 3d
       0.0013553433 -0.004395199 0.001723942 0.054363757
000260 71 88 8e 3c 3c 7d e7 bc 6e c3 41 bb 34 5d 4c bd
       0.017399045 -0.028257959 -0.0029565948 -0.049893573
000270 77 7d 1b bb 67 c9 5e bb c3 c7 31 bd df 63 ef 3c
       -0.0023725906 -0.0033994557 -0.0434034 0.029222427
000280 a2 68 ca bc a2 ac 01 3b b4 1f 81 3b 05 ed 05 bd
       -0.024708096 0.0019786735 0.003940547 -0.032696743
000290 cd 55 f8 3b 9a 3e 7f 3b 56 47 87 3b f4 a0 12 3d
       0.0075785876 0.0038947226 0.004128377 0.035798028
0002a0 7a f0 22 3d 48 59 3d bc f3 5f 4b bd af a9 84 bb
       0.039780118 -0.011556931 -0.04965205 -0.004048548
0002b0 01 94 11 ba e8 04 80 bc 0d 9d 62 bb 2b b0 2d 3c
       -0.00055533653 -0.01562734 -0.0034578473 0.010601084
0002c0 86 9b 12 bd 53 15 50 3d 96 75 34 bb 8d 22 0c 3d
       -0.03579285 0.050801586 -0.0027535907 0.034212638
0002d0 f5 a5 30 3b 33 35 8c bc b5 70 8a bc b2 93 8b 3c
       0.0026954387 -0.017115211 -0.016899446 0.0170382
0002e0 7d 8b 8b bc e9 fa 64 bb 41 ea 34 b9 fa 12 27 ba
       -0.017034287 -0.0034939593 -0.00017253404 -0.0006373372
0002f0 72 f2 8f b9 f9 fc a4 3b af bf 79 bb e2 89 2a bc
       -0.0002745572 0.0050350395 -0.0038108637 -0.01040885
000300 6b ec 01 3d f4 8a fa bb 27 d9 af b9 09 7a e1 3b
       0.031719606 -0.007645959 -0.00033540392 0.006881003
000310 85 e2 5c bc d5 5b 84 3c aa 22 41 bb 98 0f 53 3c
       -0.013481741 0.01615707 -0.0029470124 0.012882136
000320 c2 38 0d bc 8a ba d0 bc 79 75 4d 3d 07 b8 af 3c
       -0.008619489 -0.025479574 0.05016086 0.021450056
000330 ed fe 21 bc ef da 51 3c 18 a1 90 bc 9f 07 32 3a
       -0.009887439 0.0128085455 -0.01765494 0.0006791297
000340 b1 52 98 3a fc 66 8c 3b 8d 2f 11 bb 69 90 fa bc
       0.0011621324 0.0042847376 -0.0022153587 -0.030586438
000350 fa eb 18 3d d5 e0 04 bc 0f 6c ad 3c dc 97 05 bd
       0.03733442 -0.008110245 0.02116969 -0.032615528
000360 6b ed 9e bc e5 e4 32 3c a7 73 20 3b d9 7c c5 bc
       -0.01940032 0.0109188305 0.0024482997 -0.024107384
000370 49 dd 2a bc cb f5 17 bb 45 3f a2 3c d9 56 0f bd
       -0.010428735 -0.0023187276 0.01980556 -0.034994934
000380 ee 69 e2 bc 15 a9 dd bc 84 7d 44 ba 15 6d 23 3c
       -0.027638402 -0.027058164 -0.000749551 0.009974738
000390 72 5e 6d 3a a5 43 07 bc e0 e3 f2 ba 71 ca af 39
       0.0009054906 -0.008255874 -0.0018531047 0.00033529432
0003a0 54 6a 3c bc a8 3f 54 3b a0 4a 52 3c b4 b2 ba 3b
       -0.01149996 0.0032386575 0.012835175 0.0056975726
0003b0 c9 c0 e1 3c 66 b0 9f 3b a3 c2 0a 3d 43 4f a8 3c
       0.027557747 0.0048733233 0.033877026 0.020545607
0003c0 ad 1f 1e bd f7 29 6b 3d d2 19 05 3c d7 35 41 3c
       -0.038604427 0.057413068 0.008123832 0.011792622
0003d0 9c 94 cb 3c e5 a2 5a bc 87 35 9c 3c 1c 1b 15 bc
       0.024851136 -0.013344501 0.019068493 -0.009100702
0003e0 42 d6 cf bd 8b 6e c4 bb 9f fc f0 bb 62 0e b1 3c
       -0.10148288 -0.005994623 -0.0073543335 0.021613304
0003f0 d2 c6 04 3a 2b fc 7b 3b d5 f0 41 3c 54 dc c3 3c
       0.0005065027 0.0038449864 0.011837204 0.023908772

hidden_layer3.bias f4 [120]
000000 75 18 b6 3a eb 41 47 3d a6 6c 44 3d 7a 46 43 bc
       0.0013892787 0.04864685 0.047955178 -0.011918658
000010 a9 fe 05 bb e7 ef 8d ba b3 33 16 bd ba 61 86 3b
       -0.0020445979 -0.0010828943 -0.036670398 0.0041010054
000020 e8 ae 62 bb b5 09 eb 3c cb 06 2a 3d 28 4c 05 ba
       -0.0034589116 0.028691152 0.041510385 -0.00050848955
000030 ac 96 88 3d 4f 43 8e 3d 7b 3a 2b 3c 41 ab ff bb
       0.066693634 0.06946432 0.010450955 -0.0078023975
000040 e4 f8 47 bb d4 e8 18 3b 5e d6 b3 3c ef 00 cb bc
       -0.003051334 0.0023332136 0.021952804 -0.024780719
000050 e1 ab 56 ba 03 26 4b bb e0 7a 31 3c 9c 84 b4 3c
       -0.0008189064 -0.0030997999 0.010832518 0.02203589
000060 61 b5 e3 3d 86 a9 4a bd 8b 3a e1 3b e3 44 2f 3d
       0.1111858 -0.049478076 0.006873434 0.042790305
000070 cd 3f 5a 3d 2e fb 44 bb 4e c5 3c bd e2 18 f3 bb
       0.0532835 -0.0030056941 -0.046086602 -0.0074187377
000080 a4 40 b2 3d 6a 6d a9 3c f8 9b 49 3d 1b c0 b4 3c
       0.087037355 0.020682056 0.04922101 0.02206426
000090 44 57 cf bc 67 16 1c 3c ed d2 31 3b 41 e4 be 3d
       -0.025310166 0.0095268255 0.0027133778 0.0932088
0000a0 06 ef 48 3d 55 12 19 3d 68 79 5a 3c 9b c8 91 bc
       0.049056076 0.037371 0.01333461 -0.017795851
0000b0 10 1c 49 bd ef b8 64 bc b6 b7 93 3c 1a 64 25 bd
       -0.049099028 -0.013960107 0.018031936 -0.040378667
0000c0 de af a8 bc a4 76 02 3d ac bc 2b bb 6f 1d 5b bc
       -0.020591673 0.031851426 -0.0026204986 -0.013373717
0000d0 0d 23 93 3d 7b 1d 8b bc 85 47 01 3c ec ee 26 bd
       0.0718442 -0.01698183 0.007890587 -0.040755197
0000e0 5b a6 e5 bc 6d 2d bb bb e7 e1 b7 3c 12 ca 26 bd
       -0.028033426 -0.0057122023 0.022446586 -0.040720053
0000f0 c0 5d 9b 3b 4c c6 35 bd ad d7 3b 3d 4b 36 d2 3c
       0.0047414005 -0.044378564 0.04585998 0.025660655
000100 f3 88 3c 3d 85 80 19 3d 2b db 6b 3d 3e 87 04 3d
       0.046029042 0.03747608 0.05758206 0.03235554
000110 0d 10 9d 3d 24 bd b4 3d 4c 6d 9c 3d 45 6d 2e 3c
       0.07669077 0.08825138 0.07638034 0.010646169
000120 ff 93 24 3d 44 1d a5 3a 42 50 50 3c e1 ac 19 3c
       0.040180203 0.0012597223 0.012714447 0.009379596
000130 b3 97 5d bd 7c 21 0c bd 0e ca 55 3c 46 85 3d bc
       -0.05409975 -0.03421162 0.013048662 -0.011567419
000140 0d 29 b0 3b b5 88 e4 bb 7e a6 2c 3d 77 a9 19 3d
       0.0053759874 -0.0069743046 0.042150967 0.03751513
000150 73 a8 ad bc 90 e8 44 bc a8 20 49 bc 1c 23 95 bb
       -0.021198487 -0.012018338 -0.012275852 -0.0045513045
000160 59 76 2b 3d 43 53 2d 3c 30 02 67 3c 22 86 20 3a
       0.041860912 0.010578933 0.014099643 0.0006123503
000170 ca 07 1e bd ed 98 e1 ba 44 c3 bc 3c d0 f9 e7 3c
       -0.038581647 -0.0017211713 0.023042329 0.028317362
000180 84 3a 7c bc 2a 6c 10 3b ca 0d 94 3c d7 cd 3c 3d
       -0.015394811 0.0022037127 0.018072981 0.04609474
000190 78 5d 66 bd 2c 85 a2 3c e4 98 52 3a c1 ec f5 bc
       -0.056241482 0.019838892 0.0008033647 -0.03002012
0001a0 10 d5 39 3d b1 3b 2c 3d fc b0 9a 3c 22 09 aa 3c
       0.045369208 0.042049114 0.01888322 0.020756308
0001b0 60 30 24 3d dd 4a 1d 3c 79 ba 95 3d ef a0 2f bc
       0.040085196 0.009600368 0.073109575 -0.010719522
0001c0 bf ec bb 3c c2 27 aa 3c dc a5 43 3c e5 af 3e 3d
       0.022940038 0.020770911 0.011941399 0.046554465
0001d0 ec 22 c9 b9 82 5e c7 bd de 3a dc 3c d0 63 a2 3b
       -0.00038363726 -0.09734823 0.026883539 0.0049557462

output_layer.weight f4 [3, 120]
000000 a6 7c dd bd 8e 27 90 3d 64 0b 0d 3e a3 11 cd 3d
       -0.108147904 0.070387945 0.13773876 0.100131296
000010 0f ae 64 bd 43 92 87 3b b1 f6 b2 3d b1 b1 7d 3c
       -0.055830058 0.004137309 0.08738459 0.015484259
000020 38 64 02 be 10 53 28 bd ef 58 00 bd 7a cd 7d bd
       -0.12733543 -0.04109484 -0.031334814 -0.061963536
000030 af e3 df bd 41 6b f3 3d b3 11 2d 3c 7b 69 bb bc
       -0.10932099 0.118856914 0.010563302 -0.022877445
000040 40 54 ef 3d 43 29 fe bd 81 35 a8 3d 21 3e 9e bd
       0.11685991 -0.12410214 0.0821333 -0.07726694
000050 e0 15 c7 bc ef d4 81 be 30 eb 91 bd 21 c1 10 3d
       -0.024302423 -0.25357768 -0.071249366 0.035340432
000060 e2 b5 f5 3d 75 4c 95 bd b8 11 da 3d 85 85 9c 3d
       0.11997582 -0.07289974 0.10647911 0.07642654
000070 d1 c5 b3 be 7c 49 cd bd a7 c5 a1 3d e5 46 5e bd
       -0.3511186 -0.10023782 0.07899027 -0.05426683
000080 65 35 30 be b5 96 bc 3d 39 0b ea 3d 37 c5 eb bd
       -0.17207868 0.092084326 0.11427922 -0.11512225
000090 68 6b b2 bd 0e 47 50 be 1e 18 9c 3d 80 cf 05 3e
       -0.08711892 -0.20339605 0.076217875 0.13067436
0000a0 73 e3 a6 3c 9b 65 fb 3d 1b 1b c8 3d af 92 61 bd
       0.020372128 0.12275239 0.09770795 -0.05507153
0000b0 27 3b 92 3d 63 5f 47 bc c9 a1 b4 bd 57 00 a7 bd
       0.07140189 -0.012168738 -0.088199206 -0.08154362
0000c0 b9 82 08 3d ef 08 88 bc 06 92 9b 3c c6 43 07 3e
       0.03332779 -0.016605822 0.018990528 0.13209447
0000d0 40 93 fb bd 60 43 03 bd 7b 5e ef bc 4b 49 ae bd
       -0.12283945 -0.032046676 -0.029219856 -0.08510073
0000e0 fe 6b 5e bd e1 0b cf 3d 51 f6 8f bc dc cf 7c 3d
       -0.054302208 0.101096876 -0.017573508 0.061721668
0000f0 9c 8b 90 3d 2b 51 a6 3d 17 f9 ef bd 68 b9 eb bd
       0.070578784 0.0812095 -0.11717432 -0.11509973
000100 bc fd 0c 3e d9 43 b7 3c e3 40 28 3e f4 22 05 3f
       0.13768667 0.02237122 0.16431002 0.5200646
000110 90 a4 06 be 59 a6 b5 be 8c ab 58 3e 7c 8b 10 3e
       -0.13148713 -0.35478476 0.2115919 0.14115709
000120 81 95 88 3d 72 54 31 3d 63 85 67 3e dc 0c 8b bd
       0.066691406 0.043293424 0.22609477 -0.06789562
000130 71 4b e4 bd a6 d3 c5 bd ff e1 31 bd 91 f7 74 bd
       -0.11147202 -0.09659509 -0.043428417 -0.05980641
000140 46 52 46 bd 3e 91 c1 bd 34 c9 9a 3c d4 00 6b bd
       -0.048418306 -0.09451531 0.01889477 -0.057373837
000150 26 c4 d6 bd e9 29 9a 3d 8d 41 0e 3e a9 8e 0c 3d
       -0.10486631 0.07527525 0.13892193 0.03431574
000160 90 ff 97 bd 53 97 dc 3a 9c 3b 3d bd 53 a2 b9 3e
       -0.074217916 0.0016829766 -0.046199426 0.36256656
000170 9c 2d d6 3d 53 27 ce 3d e4 f9 43 bd b2 9b 07 bd
       0.10457918 0.10066094 -0.047845736 -0.033107467
000180 54 51 c4 3c 85 2f 9c 3d e4 fa ce bd b1 e8 0e 3e
       0.023964562 0.07626251 -0.10106447 0.13955952
000190 1c 5a 4f 3d b3 f1 16 3d 40 fc 09 3e 0e 69 84 bc
       0.050623044 0.036851596 0.13475132 -0.016163375
0001a0 13 f2 a0 bd 62 60 84 be d4 7a 06 be 72 63 49 bd
       -0.07858672 -0.25854784 -0.13132793 -0.049167104
0001b0 d3 bc b3 bd 85 cc 04 3c 05 45 b5 3c fa dd cc bd
       -0.0877625 0.008105402 0.022127638 -0.10003276
0001c0 ea aa 48 3d 66 fe 0a bd cb e7 26 3d 96 9b bd 3d
       0.04899112 -0.03393402 0.0407484 0.09258191
0001d0 e7 aa 4e bd e8 dd 1f 3e dc 1e 42 3d 51 e1 f1 bc
       -0.050455954 0.15611994 0.04739271 -0.029526385
0001e0 1c 21 6b bc 78 78 0e 3e 63 ba aa bc 52 8e af 3c
       -0.014351156 0.13913143 -0.02084083 0.021430168
0001f0 12 a1 91 3c 20 34 8c 3c 1f 96 9f bd 5b 21 22 bc
       0.017777 0.017114699 -0.07792305 -0.009895648
000200 9b 87 59 3c c1 84 b2 bd 94 13 e1 3d 2c 48 f8 3d
       0.01327696 -0.08716727 0.10990062 0.12123141
000210 8b 5c 7a 3e 7c 9a a8 be 2a dd 80 bd 31 cc 83 bc
       0.24449365 -0.32930362 -0.06292184 -0.016088577
000220 13 8f 69 3d a1 87 7f 3d 5d e6 03 bd 64 7c 66 3c
       0.05702121 0.062385205 -0.032202113 0.014067743
000230 71 c1 64 bc b6 05 7b bc f5 73 d4 3b 84 87 fc bc
       -0.013962136 -0.015321186 0.0064835497 -0.030826338
000240 c3 8e a9 3d 6a 9f 84 3d 13 0f e3 bc 8a d0 bd bd
       0.08279183 0.06475718 -0.027717149 -0.09268291
000250 77 0f 30 be 39 57 35 3c fa 0f 1c bd 49 26 71 3d
       -0.171934 0.011068159 -0.038101174 0.058874402
000260 09 18 a7 3d 9b 2a 60 be 0e a9 e4 3c 2a 65 01 3d
       0.08158881 -0.21891253 0.027912643 0.03159062
000270 dd 75 2c bd 7f 42 0e be 65 3e 0c 3d 1c c0 4d 3d
       -0.04210459 -0.13892554 0.03423919 0.050232038
000280 ae 8d 3f 3e ee 02 0f 3d 34 a4 90 38 bf d8 83 3b
       0.1870639 0.034914903 6.89704e-05 0.004023641
000290 75 07 8a 3d 27 7d 3b 3d b6 06 21 3d ff fd 02 3d
       0.067397036 0.04577365 0.03931304 0.03198051
0002a0 0a 18 14 3d c8 59 a7 bd 78 f3 bb bb 14 7d 57 bd
       0.036155738 -0.08171421 -0.005735811 -0.05260952
0002b0 bb 2a 94 3e 57 b0 e5 bb d8 68 85 3d 4e 41 16 3d
       0.2893885 -0.0070095467 0.06514138 0.036683373
0002c0 9b 35 d9 3c e1 10 3f be 86 e2 55 be f8 72 ba 3e
       0.026514819 -0.18658783 -0.20887193 0.3641584
0002d0 46 e8 98 bd d7 31 12 3c 9c e8 83 bd 27 47 fd bd
       -0.07466178 0.008923016 -0.06440851 -0.12367087
0002e0 2c 5b b1 3d 62 ae b0 bd 09 c3 11 3e af e1 46 be
       0.08659968 -0.08627011 0.14234556 -0.19422029
0002f0 61 0c b5 3d ac ee e0 3e 65 fa 7b 3e 66 f7 8f be
       0.08840252 0.43932092 0.24607237 -0.28118438
000300 98 17 c7 3d 5e 47 a5 bc 93 d6 4d be 17 d4 83 bc
       0.09721297 -0.020175632 -0.20101385 -0.016092343
000310 c6 17 f0 bd dc 8f 49 bc 3e 43 c4 3d a6 24 96 39
       -0.117232844 -0.012302365 0.09583138 0.00028637535
000320 21 59 2d 3e 51 9f e0 3d 6c 8c b8 bd d3 f0 ef bd
       0.16928531 0.10967887 -0.09011158 -0.117158554
000330 b6 04 40 3b 34 df 04 bc 2d f0 6e 3e 14 87 26 bc
       0.0029299683 -0.008109856 0.23333807 -0.010164041
000340 52 38 4a bc c5 0d a4 3d 0c b7 9a 3d 62 4a bf 3e
       -0.012342529 0.08010439 0.07554445 0.37361437
000350 6a 66 01 bd b6 08 6d bd 4f 52 fb bd c8 11 a0 bd
       -0.03159181 -0.057869636 -0.122715585 -0.078158915
000360 f9 7d a3 bc 5c 1a c6 3d 18 6c 87 bc 29 7c 33 bd
       -0.01995753 0.096729964 -0.016531035 -0.04381958
000370 54 6e 1b bc 33 ec b3 bd bb 11 59 3e f2 20 86 bd
       -0.0094867535 -0.08785286 0.2119817 -0.065492526
000380 55 2e a1 bd 3e 7e 99 be 35 8b ab bd fa b1 8d 3d
       -0.07870165 -0.29979128 -0.08376161 0.06918712
000390 0e 40 ce 3d 82 4d 98 3d 3e a3 83 3d 59 ba 27 bd
       0.10070811 0.074366584 0.0642762 -0.0409492
0003a0 cf 5c 59 bd c4 83 be ba 51 01 1d be 9b a1 9d bd
       -0.053067025 -0.0014535119 -0.15332533 -0.076968394
0003b0 13 3c ff 3c 8f 24 b6 bd ec 18 98 3d f8 10 10 3d
       0.031156575 -0.08893692 0.074266285 0.035172433
0003c0 c8 59 08 bb 64 3f eb bc 35 20 ac bd f2 5e a4 3d
       -0.0020805467 -0.02871675 -0.084045805 0.08025922
0003d0 63 b5 f8 bc b4 b9 5c 39 6e 5c 2a be 3c 62 bc bd
       -0.03035993 0.00021050015 -0.16636822 -0.09198424
0003e0 32 b2 d9 3d 3f e7 4a 3d 43 f7 2b 3d 16 2b fc 3c
       0.10629691 0.04953694 0.041983854 0.030782264
0003f0 c2 78 d5 bd 44 d0 ab 3c 5c 68 b1 3d 64 b4 1b bd
       -0.10423423 0.020973332 0.08662483 -0.03801383

output_layer.bias f4 [3]
000000 8f bf 39 3c d5 0e 24 bc 44 44 a9 bc
       0.011337175 -0.010013302 -0.020662434
