Ricci_flow_autoenc_Burgers_eq/Parameters/encoder.pth (torch, 122560 bytes, 8 tensors)

hidden_layer1.weight f4 [120, 3]
00000000: 6a9b ed3e 8f67 18be 0105 ddbe b73e b1be
00000010: e33d 54bd fbac 173f 55d2 93bb 2b4a a8bc
00000020: 2295 61bf 69c4 a6be 4b02 e2be 9a8c 263f
00000030: 4169 f7bd 7c8b 363e 0566 093f 2fb4 cdbe
00000040: fd2d 50be 2e88 433f e48a 13be 240b 39be
00000050: 098e aebe 7e0b d9be e1f5 083f b8ec a6be
00000060: e43e 32bd fa06 bfbe 0763 abbe bb05 843e
00000070: 949d cebd 4dfc 603e 4e99 7c3d 7abf e33e
00000080: 2c35 a73e d012 823e d549 093f 0339 dfbc
00000090: 8733 34bd ec43 b6be 28e2 8e3e 39d9 0dbf
000000a0: 9df2 88be 2351 703f d33c febd ee21 28be
000000b0: 0945 a93e 741a c23e 3b6a f93e f015 59bd
000000c0: 351f a5be 0965 63be f01d 513e 0c10 ef3d
000000d0: 3ab9 dcbe 522a 59bf 7ea9 13be e8ed 51bd
000000e0: ef25 413e 48e6 9f3c ed0f 123e fd91 3d3f
000000f0: 966f 64bf 6159 1c3d b451 d63e 8457 94be
00000100: d4d8 f1be 7d1d ffbe 5ab3 aa3e 03ae e6be
00000110: 3c6e 67be 29d5 913e cee7 9a3e c5af 57bf
00000120: 15f2 fe3e 8c6b 55be 308f 883e ecc1 9bbe
00000130: ea86 0fbe 8c8e 463f 76cd a4bd 15a7 02be
00000140: 6e9c 43be b97e 8dbe 1a5a e53e 5382 f03e
00000150: b91c 26bf af95 d23e d727 5a3e 7825 de3e
00000160: d707 f1be 9e2f 0abe 8336 1dbe e220 abbd
00000170: f82a 99bd a6f0 cfba e7c5 993d eec9 e6be
00000180: 2aa0 babe 98c9 013f 3659 143f 7f80 4fbd
00000190: 8ee7 bb3e 69e4 393e 40dd b1be 9bbc 9fbe
000001a0: 425e e4bd c412 c93e e790 a33e 7b7a 403e
000001b0: ff0a 163e d94a 4f3e a717 043f ccd9 623e
000001c0: 08c7 073f 33da 723e 55e5 d13d 8245 013e
000001d0: d703 44bf 6793 9b3e 9c0e c8be 182c 0b3f
000001e0: cb43 27bf e04e f23e 3b1a 5dbe 6f6e ef3e
000001f0: 73bc f33d 88c1 9dbe 38e9 9ebe aa78 60bf
00000200: 010b 7abf e523 4abe ecd7 873e 3f34 e2be
00000210: 1bb6 36bd 1608 583e 2c0c 2fbf e339 193d
00000220: 7a82 9bbe fb79 c13e 06da e93e 78bc 11be
00000230: 0bfe 023f 51a7 b3be 0df9 50be 620c 963e
00000240: a8ad fe3e 7191 ea3e 8bc5 01be f579 14be
00000250: a771 633e cebc ef3e 2ff2 bd3e 8691 14bd
00000260: 40a9 833e 3fc1 5fbd 16d9 153e 9e6f d73e
00000270: e626 0abf 6f07 83be c53e a73e 35b3 00be
00000280: c64e c4be 1a75 d43d be91 9fbe 73a5 0c3f
00000290: cfb2 eabe c745 dc3e 84f2 9f3d f5aa 1ebf
000002a0: d58f 213e 1f83 943e c90d 123f b63e fbbe
000002b0: 2af4 f33e 73ed ca3d a824 18bf 2bd4 bcbe
000002c0: 84e2 e9bc a4fe b23e 1978 01bf 666f 21bf
000002d0: 312a b3be 0cc6 39be a4e5 2b3f 9bae c33e
000002e0: 2331 11bf dc0f ab3e 2d37 ae3e 0832 fd3d
000002f0: d01b 2a3f 2da0 0ebf b385 5dbe 74d5 06bf
00000300: fa60 283e 2216 b73d 12bb ed3d ad87 9b3e
00000310: ac50 103f 013b 1dbf 60bf af3e c9a4 1ebf
00000320: 3312 f5be 6f62 cebe 36a6 f0bd 8f85 abbe
00000330: bfc1 9f3e 3440 1d3c 7ec5 1e3e ce0e 8ebe
00000340: 0cbb d43e 54bf de3e 5728 52be a7e5 603e
00000350: 51eb 373f cbbe 0abf 5af1 143f d00c 463e
00000360: 01a3 dabe a85a c1be b685 a3bd 2ea5 60be
00000370: ef79 a0bd 2582 163f e71d fe3e f7dc 14bf
00000380: 9683 15bf e7d5 d5be 40f7 85be 22fe 223f
00000390: bc3e 113e cc21 953e 8d58 f1be 6f33 5a3e
000003a0: ec30 bcbe 3694 b13e 4975 a73e e4e9 a7be
000003b0: f7a8 59be 29bd 9abe 002d e33e 1b94 663e
000003c0: 9ed2 4ebe 2ba8 d9bd dc91 583d 7b45 2dbe
000003d0: ee15 27be ce78 753d c862 cfbe 3401 933e
000003e0: b3a3 0bbf 8218 3cbe 057e adbd e2ad 953e
000003f0: 0f82 25be db26 70be 50dc 603f ab28 19be
0.46407634 -0.14883254 -0.4316788 -0.3461816 -0.051816832 0.5924832 -0.0045111575 -0.020543179
-0.88118184 -0.32571724 -0.44142374 0.6505829 -0.120806225 0.17826647 0.53671294 -0.40176532
-0.20330043 0.7637967 -0.14408451 -0.18070656 -0.3409274 -0.4239158 0.5350018 -0.32602477
-0.04351701 -0.3731001 -0.3347399 0.25785622 -0.100886494 0.21971245 0.06166964 0.44482023
0.32657754 0.25404978 0.53628284 -0.027248865 -0.043994453 -0.35598695 0.2790692 -0.5540958
-0.267476 0.93873805 -0.12413945 -0.16419193 0.33060482 0.37910807 0.4871386 -0.052999437
-0.32250372 -0.2220651 0.20421576 0.116729826 -0.43110067 -0.848302 -0.14420125 -0.051252276
0.18862127 0.019518986 0.14263888 0.74050885 -0.89232767 0.038171176 0.4185921 -0.2897302
-0.4723574 -0.49827185 0.3333996 -0.45054635 -0.22600645 0.2848294 0.30254978 -0.8425258
0.4979407 -0.20841807 0.26671743 -0.30421388 -0.1401631 0.7756126 -0.08047001 -0.12759049
-0.19102642 -0.27635744 0.44795305 0.4697443 -0.6488758 0.41129825 0.2130426 0.4338796
-0.47076294 -0.13494727 -0.15352826 -0.08355881 -0.07478899 -0.0015864566 0.0750845 -0.45075935
-0.3645032 0.5069823 0.57948625 -0.050659653 0.367001 0.18153538 -0.34739113 -0.31198582
-0.11150791 0.3927213 0.3194649 0.18796723 0.14652632 0.20243396 0.5159859 0.22153395
0.5303807 0.23716049 0.1024882 0.12624171 -0.7656836 0.30385897 -0.39073646 0.54364157
-0.6533782 0.47325802 -0.21592037 0.46763942 0.11901178 -0.30811715 -0.31037307 -0.8768412
-0.9767304 -0.19740255 0.26531923 -0.44180486 -0.044607263 0.21096835 -0.6837795 0.03740872
-0.30372983 0.37788376 0.4567415 -0.14232051 0.5116889 -0.3508859 -0.20407505 0.29306322
0.49741864 0.45814088 -0.12673013 -0.14499648 0.22211324 0.46823734 0.37098834 -0.036271594
0.25715065 -0.054627653 0.14633593 0.42077345 -0.53965604 -0.2559161 0.32665077 -0.12568362
-0.3834135 0.10373898 -0.3116588 0.54939955 -0.45839545 0.43021986 0.07809928 -0.6197961
0.15777524 0.29006287 0.57052284 -0.49071282 0.4764722 0.09908571 -0.59430933 -0.3688062
-0.028550394 0.349599 -0.5057388 -0.63060606 -0.34993127 -0.18141955 0.6714728 0.3821915
-0.567156 0.33410537 0.3402647 0.12363058 0.6644869 -0.5571316 -0.21633033 -0.52669454
0.16443244 0.089397684 0.116079465 0.3037695 0.56373096 -0.6141816 0.34325695 -0.6197019
-0.47865447 -0.40309474 -0.11750452 -0.33500335 0.31202504 0.009597827 0.15505025 -0.2774567
0.41548955 0.43505347 -0.20523201 0.21962605 0.7184344 -0.54197377 0.58180773 0.19340825
-0.42702487 -0.37764478 -0.07984488 -0.21938011 -0.07835757 0.58792335 0.4963219 -0.58149666
-0.5840391 -0.41764757 -0.261652 0.63669026 0.14184088 0.29127347 -0.4713787 0.21308683
-0.36756074 0.34683388 0.3270667 -0.32795632 -0.21255861 -0.30222443 0.4437027 0.22517435
-0.20197532 -0.106277786 0.052873477 -0.16921036 -0.1631696 0.05992966 -0.40505052 0.28711855
-0.5454666 -0.18368724 -0.08471302 0.29234225 -0.16162895 -0.23452322 0.8783617 -0.1495692

hidden_layer1.bias f4 [120]
00000000: 0187 c43d 93b6 2abe a82f 243f a243 c53e
00000010: 1635 963e 6065 8dbd 373e c1be 7281 b1be
00000020: e800 84be 1e0c e1bd 2e18 413e a2aa febe
00000030: 5b88 afbd db46 1d3f 7d2d babe ec8a f23c
00000040: 4ea0 2e3d 99e7 053d 6448 cfbe 0b6e b4bd
00000050: 2266 12bd 08ec f8be 7cd4 cfbe 8a08 63be
00000060: d1e1 f43e a65b 6abe e4dd adbe c441 f9be
00000070: 19d3 12be a4a7 8d3e b24b 7dbe 30a3 813d
00000080: a154 c83e 6524 8c3e d9e2 223d 0e3c d3bd
00000090: 84fa f33e 0160 94be cd82 b7be 8248 f03e
000000a0: 3180 df3d dd28 febe fb85 9ebe 1418 70be
000000b0: bc28 763e 4641 323e b66f a63e 296d 183f
000000c0: 7deb 0c3f 3822 b8bd 4d8d 46be e5b7 8f3e
000000d0: bc0b a3be 9c2e 60be 9d41 c9bc 2934 ddbd
000000e0: fb3c 44be fb15 983d a966 e43e f92f b1bd
000000f0: 6b0d b93d 37a6 90be 5b47 f0be 70c9 3cbe
00000100: d4b0 073f 8316 9abe 5bed 0d3f 6072 9f3b
00000110: dab2 ab3c 27a4 ccbe b8d4 c33e 7032 ecbe
00000120: ee69 bf3e 21e1 b5be b01b ddbe 8559 863e
00000130: b776 0abf a321 e1be 2bdf f5be 3db8 efbe
00000140: 2e01 e3bd 83f4 c8bd 7689 96be a0bd aebe
00000150: 1750 aabd 0bac 5cbc d69f 633e a26d 1cbf
00000160: 36d9 85be 2fa2 6c3e 5ab5 d6be 0355 eabd
00000170: 9e06 f03e f70b 86be 1652 873e 2a85 803d
00000180: 8047 f93e 929c 0ebf 5cbb 253f 045b d2be
00000190: dd9b 073d e95f f7be 4c06 8fbd 1d36 7f3e
000001a0: d2c8 a0be fc35 0fbf 28ac ea3e ac1f cb3b
000001b0: bb85 0c3f d248 cebe 545e 2c3f a0c5 c4be
000001c0: d788 0fbe 0518 7dbe 3563 f43e 1d99 8c3d
000001d0: 4b8b e6be 3046 fc3e 0fcd d5bd e8cd d9bd
0.095960625 -0.16671209 0.6413522 0.38528162 0.29337376 -0.06904101 -0.3774278 -0.3466907
-0.2578194 -0.10988639 0.1885688 -0.49739558 -0.085709296 0.6143624 -0.3636283 0.029607259
0.042633347 0.03269157 -0.40484917 -0.088100515 -0.035741933 -0.48617578 -0.405918 -0.22171226
0.47828534 -0.22886524 -0.33958352 -0.48682988 -0.1433834 0.27666962 -0.24735907 0.06329954
0.39127067 0.27371517 0.03976712 -0.10314189 0.47652066 -0.28979495 -0.3584198 0.4693032
0.109131224 -0.4964055 -0.30961594 -0.23446685 0.24038976 0.17407712 0.32507104 0.59541565
0.55046827 -0.08990902 -0.1938984 0.28069988 -0.3184489 -0.2189278 -0.02456742 -0.108009644
-0.19163887 0.074260674 0.44609573 -0.08651728 0.090357624 -0.28251812 -0.4692944 -0.18436217
0.53004193 -0.300953 0.554403 0.0048659295 0.020959307 -0.39968988 0.3824823 -0.4613223
0.37385505 -0.35523322 -0.43185186 0.26240173 -0.54087394 -0.43970975 -0.48021826 -0.4682025
-0.110842094 -0.09812262 -0.2940175 -0.34129047 -0.08316057 -0.013468753 0.22228941 -0.61104786
-0.2614228 0.23108743 -0.41935235 -0.11441996 0.4688005 -0.26181003 0.26429814 0.06275399
0.48687363 -0.5570766 0.6473901 -0.41085064 0.033107627 -0.4831536 -0.06983623 0.24922986
-0.31403214 -0.5594175 0.4583447 0.006198844 0.54891557 -0.40289932 0.67331433 -0.38432026
-0.14017044 -0.24716194 0.4773194 0.068651415 -0.45028147 0.492723 -0.104395024 -0.106349766

hidden_layer2.weight f4 [120, 120]
00000000: 2aee abbd 9757 843d d8c5 96bd ca12 b5bd
00000010: 41d3 01bd 64be b7bd 75c0 be3c d010 053d
00000020: 9d3e 3cbd bf05 843d 050a b53d 927f 383b
00000030: d4a5 c8bd ddeb 23be 333b 8fbd b47b 813d
00000040: a45e 4fbc 249b 9fbd 144d b1bd 12b4 f1bb
00000050: 7fc8 adbd dc59 f4bb 7c82 fcbc 1cb6 93bb
00000060: 49ad f13c 9e7d bebd f24b 74bd 1e3f d73c
00000070: c49a 48bd 13db 83bd a15e 0abd 2ed2 1e3c
00000080: 8e1e 5b3d 5a92 c8bb 8a83 4bbd cd12 563d
00000090: 68c5 84bd b00b 963d 5f98 a2bd db8f 613c
000000a0: 0f48 c73d 86be 5fbd 0873 0d3d 7802 d03c
000000b0: f53d e7bc 797d 653d 4d06 68bc 6715 d8bb
000000c0: 1942 f5bc 21f8 aabd fc1f 8cbd 1b67 0bbd
000000d0: a634 ce3d b71d 093d 58c3 57bd 691e 71bd
000000e0: dee8 5fbd 4080 033c 2342 1b3c bb13 b43a
000000f0: 8fce a6bd 8871 9fbb 03ba 77bd e49e 4abd
00000100: 27d0 a83c ed6b c5bb 3f17 a4bc c3c3 f13c
00000110: 3279 d1bd 2bd0 a43c 2e0b cebc 7ddf b63d
00000120: 6189 f03b 2c27 663d 6aa7 9b3d f591 d8bd
00000130: 1050 a23d 8c25 74bc a6bb fc3c 6288 083d
00000140: 3642 8fbd b71d a23d 78d3 8c3d 1205 96bd
00000150: f2af af3d 1cdb 25bc 11d7 433c 4c6c a5bd
00000160: 7adb 96bd ca7b 8a3c 89b2 2f3c 1424 133d
00000170: 6f1e 27bd 28c7 8e3d d29c 863d 3091 593c
00000180: f998 093d b649 dabc 0be6 b2bd 160d 05bd
00000190: d817 4f3d 6e9a 983c 507d 5fbd 7fac ccbc
000001a0: f9f3 12bd f196 6a3d a83b 863c 7e77 43bd
000001b0: 2146 8aba a0db e9bc b845 43bc ed26 89bc
000001c0: 3c85 37bd 8b36 863d 724d 313d 4ed6 033d
000001d0: c2b3 e4bb 553d b93d 7575 79bd cd9c 813d
000001e0: a80f a13c b493 cabc 56ad 5cbd 54f7 bf3d
000001f0: 81d2 12bd ce12 47bd c4cb c33c 6458 2c3d
00000200: e505 96bc 1463 d1bc c602 593d 5780 343d
00000210: 3672 37bd 8813 a93d 38a7 4fbd e27e fd3c
00000220: c365 0dbd 6c8b 1e3d ad42 02bd 52b6 d43c
00000230: 356c 01bd f369 0fbd 54c3 66bc 225d a53d
00000240: 7319 503b 340f fc3c e8ed d6bc f832 63bd
00000250: 4607 86bd b250 5ebd 5b6a ba3d 5277 b53d
00000260: 68eb bebd a1cc 753d 12c0 9b3d fbb8 b23c
00000270: 806c 28bd 3328 263d b9ae b63d 9258 3abd
00000280: 713d 743d 25e6 abbd eb63 2ebd 3a57 b93c
00000290: ba55 ab3d be91 8fbc a8b1 823d 6269 3cbd
000002a0: fd5f b83b b26f dcbd e07b 34bd ab2e 92bd
000002b0: 70e5 2fbd 7859 90bc 0d16 25bd d09d bb3d
000002c0: e9a3 b1bc 7360 bc3c 44b5 ab3d 1c99 d23d
000002d0: 6d90 c3bb 163e 9cbd 37ea 703c 6b73 d43d
000002e0: 9cb4 e83b 00c2 88bd fc47 8b3d 29c1 8d3d
000002f0: 0074 343c 2e73 9abb b0f4 8abd 080c 003c
00000300: d6f4 8c3a 1147 3ebb 1e3e 293d faa1 1b3d
00000310: 5aa6 093d bc5d 23bd b6d6 29bd b94a 47bd
00000320: 0a24 da3c d33d 9f3d 8866 77bc 9ee4 5e3c
00000330: bf8e 993d b1c1 be3a c103 adbd 8267 723c
00000340: 298e 383d ccb6 bc3d 0494 483d 6b5f 63bc
00000350: 375c 113d 5c35 083d 7cf5 c9bc 0be3 633d
00000360: 2e63 5e3d 9f2c 76bd dced 46bd 0dd1 833d
00000370: 8e9c 753d 4228 b03d 5791 213d 0f49 be3c
00000380: d100 13bd 7599 3a3d 44ae 89bc 40a7 5d3d
00000390: 2ffa 213e 1df2 cbbc 5b74 65bd 351d b03d
000003a0: 9aac b73d b006 a53d d9bb 383d 55cb b43c
000003b0: ef49 b1bc cc7c 5b3d 3e72 dbbd 8b61 623b
000003c0: d90a 763d bc37 1cbe 393e 893e 6741 913e
000003d0: a044 88bd 5f39 263c faa1 9fbd 78f6 9d3d
000003e0: 9f72 813b 8d05 c1bc f13b 75bd 7a4e 47bd
000003f0: d284 5fbd 6b9b 16be f83d aa3c 7838 87bb
-0.083950356 0.06462019 -0.073619545 -0.08841474 -0.031695608 -0.08971861 0.02328513 0.032486737
-0.04595815 0.064464085 0.08839802 0.002815221 -0.09797254 -0.16007943 -0.06993713 0.063224226
-0.012656841 -0.077932626 -0.086572796 -0.0073762024 -0.08485507 -0.007457001 -0.030823939 -0.004507793
0.029501574 -0.09301303 -0.05964274 0.026275214 -0.04897572 -0.064382695 -0.03378165 0.009693665
0.053495936 -0.006120962 -0.049685992 0.052264024 -0.06482965 0.07326448 -0.07939219 0.013767208
0.09730541 -0.054625057 0.03453353 0.025391802 -0.028227786 0.056027863 -0.0141616585 -0.0065943482
-0.029938744 -0.08348108 -0.06842038 -0.034033876 0.10068636 0.033475604 -0.05267653 -0.058866892
-0.05466544 0.008026183 0.009476217 0.001373879 -0.08144867 -0.004865829 -0.06048013 -0.049467936
0.020607067 -0.0060248286 -0.020030616 0.029512292 -0.10228194 0.020118793 -0.025151815 0.08929346
0.0073405956 0.0561897 0.07600291 -0.10574714 0.07925427 -0.01490153 0.030851196 0.03333319
-0.069950506 0.07915824 0.06876272 -0.07325186 0.08578481 -0.0101230405 0.011953131 -0.080772966
-0.073660806 0.01690473 0.010723718 0.03592308 -0.040800508 0.0697158 0.0657288 0.013279244
0.03359315 -0.026646476 -0.087352835 -0.032483183 0.05055985 0.018628325 -0.054562867 -0.024984596
-0.0358772 0.057272855 0.016385868 -0.04772138 -0.0010549464 -0.028547108 -0.011918478 -0.016742194
-0.044804797 0.06553372 0.04328675 0.0321868 -0.0069794366 0.09044901 -0.06090303 0.063287355
0.019660786 -0.024728633 -0.053876244 0.09373346 -0.035845283 -0.048601918 0.023900874 0.042076483
-0.018313358 -0.02555994 0.05298116 0.044067707 -0.044786654 0.082556784 -0.05069658 0.030944292
-0.034520876 0.03870718 -0.03180187 0.025965843 -0.031597335 -0.03501315 -0.014084656 0.08074404
0.003175345 0.030768968 -0.02623649 -0.05546853 -0.06544356 -0.054276176 0.09102317 0.08860649
-0.09322244 0.060009602 0.07604994 0.021816721 -0.0411191 0.04056568 0.089200445 -0.045494623
0.059628908 -0.08393506 -0.042575758 0.0226246 0.083659604 -0.01752555 0.063815415 -0.04599894
0.005626677 -0.10763492 -0.04406345 -0.071378075 -0.042943418 -0.017620787 -0.040304232 0.0916096
-0.021684604 0.02299521 0.08384183 0.102831095 -0.0059681446 -0.076290295 0.014704279 0.10373577
0.0071016084 -0.066776276 0.06800839 0.06921608 0.011013985 -0.0047134375 -0.06784952 0.0078153685
0.0010754119 -0.0029034058 0.041319005 0.03799627 0.03360591 -0.039884314 -0.04146453 -0.048655245
0.026628513 0.07775464 -0.015100129 0.013604311 0.0749793 0.0014553574 -0.084479816 0.014795186
0.04505745 0.09214553 0.048969284 -0.01387773 0.035488334 0.033254012 -0.024653189 0.055636447
0.054293804 -0.060101148 -0.048566684 0.06436358 0.059963755 0.086014286 0.039445248 0.023228196
-0.03588945 0.045556504 -0.01680673 0.05411458 0.15818094 -0.024895722 -0.05601917 0.08599321
0.08968468 0.08057916 0.04510102 0.022069613 -0.0216417 0.053585812 -0.10715149 0.0034543003
0.06006894 -0.15255636 0.26805285 0.2837021 -0.06653714 0.010145514 -0.077945665 0.07713026
0.0039504315 -0.023562217 -0.059871618 -0.048658825 -0.054570027 -0.14707725 0.020781502 -0.0041266046

hidden_layer2.bias f4 [120]
00000000: fd56 2a3d 9276 53bc 460d 79bd d0bb 273d
00000010: ca0b d43b fbcf d33d d069 ea3b 12db 5dbb
00000020: 87de 353c 45cb c03d 50e0 6d3d a592 b0bd
00000030: a311 bfbd 8f2e 2f3d f6db 833d bcb1 b13c
00000040: 16b8 3a3d 73ec 20bd 5e08 dbbd 714f 8ebc
00000050: 879a 30bd 74f5 38bd 6983 e63c 9735 cabd
00000060: d2f3 413d 4a86 41bd b53a 56bd f1da 643d
00000070: 5aab 903d f861 88bd 27ec 17bd 1786 003d
00000080: 59d3 913c 4dff 103d b9ea be3d 6b89 bd3d
00000090: 409c 5cbd 6ce9 5cbd a707 e93b 91de a13c
000000a0: bd0d 583d 3ec5 8dbb f99a 0d3d 93e7 be3d
000000b0: ffeb e23d 1a8b 883d 0410 9c3d 5c8c a13d
000000c0: af44 833c 99f3 0bbd fee6 563c 731a 9cbb
000000d0: dcb5 eabd 9673 4b3d 0c0a a6bd b977 5ebc
000000e0: 2a80 fbbc 1f6d 863c e3f6 bfbb 58e6 b3bd
000000f0: ad15 82bd 8ec2 afbd 4391 aebd 5fb3 82bd
00000100: 98d7 503d 93cf a3bc 2403 f3bc d513 1b3d
00000110: f5fd 963d 7a9f 753d 63fd 4cbd 1d3c e33c
00000120: 3d46 0e3e 8119 8c3c 5b83 57bc 04dc a5bd
00000130: 1d24 b6bd 1a74 1a3a fcc5 923c eb61 0abd
00000140: ac5e a9bb d678 86bc 3527 74bc 4555 973d
00000150: d7bb 09bd 90f3 c7bc 452c bbbc 6b87 1f3d
00000160: 062d a3bd e5f9 953d a28a a4bd 236f 5ebd
00000170: cce8 aa3d 3fa8 7bbc c3ac 163e c5b5 573d
00000180: 9788 4f3b dc2c 39bd 267d 09bc 3290 1d3d
00000190: 51c6 bd3d 8de6 a23d 89db b1ba 2265 84bc
000001a0: f750 2bbd 2655 41bd 68fa 423d 1104 503d
000001b0: ba7e ce3d 4a9a bdbc 36a6 bc3d 3225 253e
000001c0: 5035 aebc 0520 a8bd 1d00 c1bc d2e8 28bd
000001d0: 0fa6 c63d 613c 9fbd 16d6 4dbd 4b1e 61bd
0.041586865 -0.012906687 -0.060803674 0.040950596 0.006471132 0.103424035 0.007153727 -0.00338525
0.011100418 0.094137706 0.05807525 -0.0862172 -0.09329536 0.04276901 0.064384386 0.021691196
0.045585714 -0.039287996 -0.10694955 -0.017371865 -0.04311612 -0.045155957 0.028138833 -0.09873503
0.047351666 -0.04724721 -0.05230208 0.05587286 0.07063933 -0.06659311 -0.037090447 0.031377878
0.017800974 0.035399724 0.093221135 0.09254726 -0.05385995 -0.053933546 0.007111508 0.019759448
0.052747477 -0.0043264916 0.03457162 0.09321513 0.11080169 0.066671565 0.07620242 0.078880996
0.016023962 -0.03416786 0.013116596 -0.004763895 -0.11460468 0.04967078 -0.08107385 -0.013578349
-0.030700762 0.016409455 -0.0058582886 -0.08784169 -0.063517906 -0.0858203 -0.085238 -0.063818686
0.050986856 -0.01999644 -0.029664584 0.03786071 0.07372657 0.05996654 -0.050046336 0.027738625
0.13893981 0.017102005 -0.013153876 -0.08098605 -0.08893607 0.0005891934 0.017916672 -0.033784788
-0.0051687565 -0.016415041 -0.014901926 0.07389311 -0.033626404 -0.024408132 -0.022848258 0.038947504
-0.07967572 0.07323054 -0.080342546 -0.054305207 0.08345184 -0.015359937 0.14714341 0.052663583
0.0031667107 -0.045208797 -0.008391654 0.038467593 0.092663415 0.0795413 -0.0013569455 -0.016161505
-0.04182526 -0.047200345 0.047602087 0.050785128 0.10082765 -0.02314486 0.0921139 0.1612747
-0.021265656 -0.08209232 -0.023559624 -0.04123766 0.09699642 -0.07775188 -0.050252996 -0.05496053

hidden_layer3.weight f4 [120, 120]
00000000: d85e b7bd c50c 6a3d d979 fb3c ce2e 8dbd
00000010: c38b e93c 857c 273d be46 293d 6a43 58bd
00000020: 7ea9 9a3d f15a 173d 670b 943d c233 90bc
00000030: 43bc b83d 0e2c 613d f91d a4bd 4158 bbbd
00000040: afb8 1a3d 3572 403c 4df1 a73a cb20 743c
00000050: 0931 7cbd e1b7 4c3c 808a 9dbd f0fb 6b3d
00000060: 255c 303d 8653 febb a575 97bd 7fbe a7bd
00000070: 2002 dd3c 56d9 fa3c bfc2 223b be4e 913d
00000080: 983b b7bd 3e3c c8bb f261 aabd 17f5 373d
00000090: 8503 5fbd 86de 1a3c de03 adbc 41f3 37bc
000000a0: a131 5dbd fa6d 983d 75f1 183d 0cd7 7ebd
000000b0: 4214 783d d0ee 983d 5068 c53c 5ce3 25bc
000000c0: bf0a 7f3c f21c 6c3d c446 a13d 6afe 9f3b
000000d0: 6199 903d 1da2 a13c 27d9 463d d002 adba
000000e0: f435 00bd 0c00 913d b9b8 323b 3b3e 9a3d
000000f0: a1e3 92bd fc5c 5bbd 4ed2 a7bd 40f1 2b3d
00000100: 5c90 b43d 61f7 80bd 7d50 ce3c e10c 83bd
00000110: a1ce e13c c952 7abd 0187 823c ab38 813d
00000120: 3f28 01be 12de 733d e5f2 b9bd 08ec 193c
00000130: 3e61 76bc 6fa4 4fbd 7264 b2bc 3f91 9cbc
00000140: a132 833d 0e82 273d a1b4 e7bc c23c 1bbd
00000150: c87d 483d 07bc 0e3d badd ebbd 3cda 91bd
00000160: 9a4a 93bd 4544 6b3d 23b5 5d3d 420c 5a3d
00000170: 2d94 b83d f229 6d3d 8c38 16bd 9207 6b3d
00000180: 51e6 b53d a774 343c 5e06 53bd 2c20 c1bd
00000190: ba0a 0e3d 8c41 16bb 510c 8ebd 8893 1bbd
000001a0: e7e5 91bd 319c 8d3b 248e 893a 8bee c4bd
000001b0: 0217 4cbc bd9a c73d cf06 53bd 6916 e03c
000001c0: 13d1 c63d 37b2 fd3c d210 6b3c dd92 ba3b
000001d0: e6a8 093d 4462 ae3d 440e e4bc c25b 85bd
000001e0: aaa1 e1bc 5edf 453d f489 db3c d996 acbc
000001f0: 56bd 64bd dafe 8fbc 7b33 1e3c 0f83 5e3d
00000200: 37cf b93d 87c6 8737 9742 67bd 66cc 7b3d
00000210: 0eac fa3c cad6 7dbc d471 a43c 5d3e 8e3c
00000220: 53e9 6b3b 2241 4c3d 1d0f 683d 0531 23bd
00000230: 3327 a93d 56f4 1d3d d684 0e3d dc9c a0bc
00000240: 5037 97bd 3fe5 44bd af4b 1abc 21f0 323d
00000250: c999 bfbd 4885 803d 4d22 643c 5119 7c3d
00000260: d9a4 853d 9196 6e3d 8f3e 49bd 2c3c 72bd
00000270: b501 fd3c 083f 753c 6b21 813c 80ed 013c
00000280: 2ac7 23bc d3d5 8f3d 1b55 bebc 04e9 243a
00000290: aede 8ebc 2158 72bd f7d9 b23b 7543 2d3d
000002a0: 3594 7ebc 06dd ebbc ec2d 8fbd 7017 97bd
000002b0: 6a6c 633d 8d59 513d 3348 27bc 1409 b23d
000002c0: 5b36 863c 1b67 3cbd c35f 86bb b1d2 463c
000002d0: 7635 1b3d eee8 db3c f28c 993c 52f3 8cbc
000002e0: 4d14 d7bb b7a9 473c 5cdc 713d bd49 c8bd
000002f0: 4a8a 60bc c562 37bd 4ee7 be3d bc95 673d
00000300: f76c 083e 73d1 8ebd 04d5 633d b6ce bb3d
00000310: ce68 b13d a249 923d b38d 993c 5d13 cbba
00000320: f51c 70bd f1e2 49bd de2d b43d c511 1fbd
00000330: 7727 873d c8ca 873d 8197 8ebc 1cb1 57bd
00000340: 36af 903c 173e 8b3d 9251 b93c 3292 903c
00000350: 2ee3 33bd d396 9ebd 76bb 053c 8942 72bd
00000360: 8dd0 653d 2758 8a3d c8e4 8c3c 0ddf d73c
00000370: 8d09 96bc 5a0e 0c3c f2a6 303c 95fa a5bd
00000380: 003f 60bd e3f0 c7bc 4682 303d 92d2 213e
00000390: df70 9ebd 15d7 cb3c c042 373d 3575 353e
000003a0: ae41 983d 80c4 fa3b e3ae 81bd 85d7 23bd
000003b0: e0f7 4d3c 26ea 52bd 3403 82bd e975 613d
000003c0: 2e48 923d 213a 71bd d8d2 bfbd 37a2 88bd
000003d0: c008 42bd fcaa 853d 73f2 213d 7446 80bd
000003e0: 4911 f4bd 7e8d d3bb 84d4 6a3c 51ec f0bc
000003f0: aeb8 32bd 6c6f 1bbb 8eeb e6bc dab1 debd
-0.08953637 0.057141084 0.03069775 -0.06893693 0.028509026 0.040890235 0.04132723 -0.052798666
0.07551859 0.036951963 0.07228737 -0.017602805 0.09020283 0.054973654 -0.08013529 -0.091476925
0.037773784 0.011745979 0.0012813002 0.014900397 -0.0615702 0.012495012 -0.076924324 0.057613313
0.043056626 -0.0077614216 -0.07395486 -0.08190631 0.026978552 0.030621212 0.0024835316 0.07095097
-0.089469135 -0.006110697 -0.08319463 0.04491147 -0.054446716 0.009452468 -0.021120008 -0.01122743
-0.054002408 0.07442851 0.037339646 -0.062216803 0.060566194 0.07467425 0.024097592 -0.0101250075
0.015566527 0.057644792 0.078748256 0.0048826234 0.07060505 0.019730622 0.048546936 -0.0013199691
-0.031301454 0.07080087 0.0027270748 0.07531401 -0.07172323 -0.053555474 -0.08194409 0.04197812
0.08816597 -0.06297184 0.025184864 -0.06398941 0.027564349 -0.061114106 0.015933516 0.06309637
-0.12613009 0.059537955 -0.090795316 0.009394653 -0.015037833 -0.050693925 -0.021776412 -0.019112227
0.06406141 0.040895514 -0.028284373 -0.03789974 0.04894808 0.034847286 -0.115169 -0.07121703
-0.071919635 0.057438154 0.054127824 0.053234346 0.09012637 0.05790133 -0.03667502 0.057380266
0.0888182 0.01101414 -0.051519744 -0.094299644 0.0346782 -0.0022927253 -0.06935943 -0.037982494
-0.071239285 0.004321598 0.0010494632 -0.09615811 -0.012456657 0.09746311 -0.051520165 0.027354436
0.097078465 0.030968769 0.014347272 0.005693777 0.03360834 0.085148364 -0.027838834 -0.06511642
-0.027542908 0.048308723 0.02679918 -0.021068024 -0.055844627 -0.017577577 0.009655829 0.054324206
0.09072726 1.61857e-05 -0.05645999 0.061474226 0.03059962 -0.015493104 0.020073809 0.017363722
0.0035997226 0.049866803 0.05665504 -0.03984167 0.0825943 0.038563095 0.03479465 -0.019606046
-0.07383597 -0.04807019 -0.009417458 0.043686036 -0.09355504 0.062754214 0.013924194 0.06154758
0.06525583 0.05824906 -0.049131926 -0.059139416 0.030884603 0.014968641 0.015763005 0.00793016
-0.009996215 0.070232056 -0.02323394 0.00062908255 -0.017440166 -0.059166078 0.0054581123 0.04230066
-0.015538265 -0.028791916 -0.06991181 -0.07377517 0.055523314 0.051110793 -0.010210085 0.08693138
0.01638334 -0.045996767 -0.004100771 0.012135194 0.03789278 0.026844468 0.018743966 -0.017205868
-0.0065636993 0.012186459 0.05904804 -0.097796895 -0.013704846 -0.04477193 0.093214616 0.056539282
0.13322817 -0.06973543 0.05562307 0.09170286 0.08662568 0.071429506 0.018744325 -0.0015493442
-0.058621366 -0.049288694 0.08797811 -0.038835306 0.06599324 0.06630474 -0.017406227 -0.05265914
0.017661672 0.06798952 0.022621904 0.017647836 -0.043917827 -0.07743611 0.00816237 -0.059145484
0.056107093 0.06755095 0.017198935 0.026351476 -0.018315101 0.008548344 0.01078199 -0.08104435
-0.05474758 -0.024406856 0.04309299 0.15802982 -0.07736372 0.024882833 0.044741392 0.17720492
0.074344024 0.007652819 -0.06332185 -0.040000457 0.012571305 -0.051492833 -0.06348267 0.05504409
0.071426734 -0.058893327 -0.09366387 -0.06671565 -0.047371626 0.06526753 0.03953786 -0.06263438
-0.119173594 -0.006456076 0.014332894 -0.02940956 -0.043633156 -0.0023717536 -0.028188493 -0.10873766

hidden_layer3.bias f4 [120]
00000000: ca5b 68bd 50ca 183d 7567 023d d4c2 da3d
00000010: f5b7 353d 783e 39bd d3bc c33d cbbf 9a3d
00000020: ec96 213d c56b b33d 816f b43d 91c7 bcbd
00000030: f45e a73d 6fbd dc3c 8d11 bcbd b5b4 f83b
00000040: 24b7 1e3d b853 e6bc e2f3 b7bd 25ff 87bd
00000050: f6fe 67bc 719f 9bbd 6a21 6a3c e231 c5bc
00000060: f667 e2bc 3415 403d 38de 09bd 5be3 073d
00000070: 6cfd fdbc 2484 723d 0749 493d 4f3f 933d
00000080: 418f 313d 4a59 8bbd 49e1 603d a24f 423d
00000090: 9979 80bd 1fb3 a43d 2ab9 1a3d 35b4 cbbb
000000a0: 9fce bd3d 9c81 8d3d 12e3 0fbb 5220 2b3d
000000b0: 8b59 ce3d 5afd 1b3d 8677 dfbb 73d9 bcbc
000000c0: 8e31 073d 58bf 503d f255 9c3d 0062 963d
000000d0: 9575 123c 85f1 aabd c6da 4e3d c353 2c3d
000000e0: 5135 8b3b 750b 52bd f40b 8e3d 1785 84bc
000000f0: 2f7f 2d3d 95b0 6c3d 0685 de3d 06e4 ccbc
00000100: a84b eb3c 8a08 7e3b d39f 4d3d a649 5f3d
00000110: d84f 8e3c 8405 21bd dc6f a63d 00cd b23d
00000120: ba23 3abd 9513 703c 6743 e4bd e241 d03c
00000130: 9c48 953d 7662 123d d40f 84bc f546 423d
00000140: ead5 b53d 883e 86bd dc32 7dbd 60ed 91bd
00000150: 94b6 fa3c 8fad 5abd 96ad e8ba 1a3c 83bd
00000160: 8d80 4e3d 5105 38bd 31f9 c23c 61cb 9e3d
00000170: bdda 58bd c829 ac3d 61f7 4dbd 1aaa 17bc
00000180: 08ea 743d f8a8 30bd f771 843d e9e0 243b
00000190: 388f 93bd 9e31 9a3c ebf6 a3bc 34cb 4e3d
000001a0: 0834 48bc 89ac 393d 381f 023b 3bd0 6d3c
000001b0: 640f 303d f4a6 a33d 49fc c83c 6e1c 29bc
000001c0: a9ac 253d 503a 37bd bcfb 183d f48c a0bd
000001d0: 0823 a1bd f608 d83d 1721 94bd 9178 3c3d
-0.056728162 0.037302315 0.031836946 0.10681692 0.04436489 -0.04522559 0.095575 0.07556113
0.03945057 0.0876079 0.0881033 -0.09217752 0.08172408 0.026945798 -0.09183035 0.0075899013
0.038748875 -0.028116092 -0.08982064 -0.06640462 -0.0141599085 -0.075987704 0.014290193 -0.024071638
-0.027637463 0.04689522 -0.03365919 0.033175807 -0.03100463 0.05920805 0.04914191 0.071898095
0.04334951 -0.0680414 0.05490235 0.047439225 -0.06273193 0.08041977 0.037774242 -0.0062165507
0.092679255 0.06909487 -0.0021955413 0.04177887 0.10075673 0.03808341 -0.006819668 -0.023052907
0.033006243 0.05096373 0.0763358 0.07342911 0.008939167 -0.083468474 0.050501607 0.04207207
0.004248299 -0.051280458 0.06935874 -0.016176743 0.04235762 0.05778559 0.10865216 -0.025011074
0.0287226 0.0038762414 0.05020125 0.054513596 0.017372057 -0.0393119 0.08126804 0.08730507
-0.045444228 0.014653106 -0.111456685 0.02542204 0.0728924 0.03573843 -0.016120829 0.04743095
0.088786915 -0.06554896 -0.06181608 -0.07125354 0.030604638 -0.053388175 -0.0017751928 -0.06407948
0.050415564 -0.044926945 0.023800464 0.07753635 -0.05294298 0.08406407 -0.050284747 -0.009256864
0.059793502 -0.04312989 0.064670496 0.002515847 -0.07205051 0.018822487 -0.0200152 0.05048676
-0.0122194365 0.045330558 0.0019855034 0.014514978 0.042983428 0.07990828 0.024534361 -0.01032172
0.040447865 -0.044733346 0.037349448 -0.07839385 -0.0786801 0.10548584 -0.07232874 0.04601342

output_layer.weight f4 [3, 120]
00000000: c154 97bd 8383 4cbd 7d08 d53c 109f ea3d
00000010: c82a adbd 2ff4 adbc 7500 283e 6fe7 943d
00000020: f4b0 ca3d 32cc 58bd cd6a e9bd 232f 7b3c
00000030: 6915 af3c 4902 273e a289 01bd a50e 5f3c
00000040: 2563 a5bd 6a75 af3d e721 30bb 6f0a 593c
00000050: d80a c33d 6bd3 d2bd 0137 42bd ac75 023e
00000060: eea6 0a3d a41c 5d3d a227 f5bd 02f8 d53d
00000070: 769c 873d 69ce ec3c 5161 58bd 0546 2e3c
00000080: 20ae 0d3e 4081 b63d a92d f9bc dcd0 3f3d
00000090: 698b 843c 75a5 923d b0a7 db3b 4f95 2f3c
000000a0: 6fca be3b 86cd 4d3c 6405 3abc 6554 733d
000000b0: d6d6 c2bd 5bca 8d3d be1f 31bd 24a7 6fbd
000000c0: 86d9 4b3d db4d 83bd ac74 263d 43b3 2f3e
000000d0: b2e2 753d b667 c8bd a3c8 bbbb d692 a2bd
000000e0: c811 7c3b b6a4 3d3c 8211 6a3d 0a6c 5c3d
000000f0: 2d46 ea3c 7ec5 143c 5c9b dc3d c284 acbd
00000100: 2ce7 3d3d b0f8 1b3d 30f4 c33c 07fe 13bd
00000110: 9672 323d d528 9dbd 25a8 dbbd e4f2 9b3d
00000120: 2b09 de3d 6a08 39bc bc77 eb3d 01d6 033e
00000130: fd3f 013e c831 673d 3091 a6bc 9292 0e3d
00000140: 38fe fabb 5d6d 933d c61e dcbd 3701 f2b9
00000150: f608 8a3d 3b9e 853d 4d2f 5f3d bc9f f3bd
00000160: 6d1a d73c a195 acbd c586 793d 07aa 2ebd
00000170: 19bf b7bd be45 cd3d 0780 5cbc 3951 34bd
00000180: c4c1 8abd a50f b2bd 0c3a 923d 05aa b33d
00000190: 5225 e83d 1192 cfba 9aee ca3d a456 373d
000001a0: 586d c9bd c9bb 43bd 7cd1 81bd 6ee1 dbbc
000001b0: f92c 423d bd86 04bd 9992 b1bd 4431 553d
000001c0: f29b 363d c895 debc 3621 5838 660a 133b
000001d0: 6be0 15bb cede 47bd 933d 933d c827 afbd
000001e0: f2f5 3b3b b2ba 20bd a47e 72bd 4435 ad3b
000001f0: 1c6d 38bd f02f 393c e23a a23d 07b8 8f3c
00000200: 687a be3c 8cf8 babd 1967 e9bd 2a6e b63d
00000210: 35e4 9ebc 4ef1 4b3d 9213 ae3d 2647 dcbd
00000220: a3cd 813d ba80 22bd 324d 873d 80bf a43c
00000230: ae53 c6bd 46d0 543c 0735 8f3d 0112 913b
00000240: 3486 063e c5fc 45bd d9c8 e4bc dbfb 423d
00000250: deaf 2cbd 7d07 53bd d741 6d3d 1edd 78bc
00000260: 3124 e03d c83b cebd 37ff eebd a5d4 c93d
00000270: 2214 6e3d a9e2 793d 0f30 113d a9d1 9fbd
00000280: 405e 213c 5874 4a3d c3a2 a13d 04ed c33d
00000290: c80c 03be 07b8 07bd b5e3 ab3d af1e 1a3c
000002a0: 0357 9dbd 1c01 b23d 7e64 c03d 4678 6a3d
000002b0: 6cea 973d ac9a 0cbd 78ee 983d bad8 5d3d
000002c0: 8ada a13d aacb 9f3d ee35 0cbd 988b dd3c
000002d0: dba1 353c 087d 97bb 3316 453d 2347 9ebd
000002e0: 421e a3bd 926e 9abc c61e 183b 6188 81bd
000002f0: e71c 783d de00 ac3d c131 19be f37d a23d
00000300: e472 89bc 2298 023d 7f53 e4bc 7a7b 823d
00000310: 3378 5e3d b044 62bd 20b7 2ebd 65f1 aa3d
00000320: 9f5e aa3d e2af 32be 2fa3 50bb 9208 0d3d
00000330: 9a90 95bd 1761 2f3d 4a31 f3bc c703 f0bc
00000340: fed0 cbbd 31af dd3c 9786 bb3d 4ce8 a23c
00000350: 3c77 a73d 51e9 95bd 8cdf 29bd 2903 1a3d
00000360: 65e6 9b3d 6c56 0f3c a5cb 3a3d de36 da3b
00000370: 8673 9ebd 71d4 0d3c 5dd4 4b3d 9005 9d3d
00000380: 1fff 27bd 7884 e4bd 955b 813d a0d2 993d
00000390: 2c55 9abd f6c7 a93c 3f91 4dbd e329 0ebc
000003a0: e01f fb3d 3d27 c63c ab44 dd3c fa6f d03d
000003b0: 2105 b63c 9f85 ddbd e385 ce3d 3339 bebd
000003c0: 5eb2 883c 8e54 933a 6594 ddbd f6b6 0b3d
000003d0: 71c5 12bd 2c77 32bd 97a7 abbc cc8f e2bc
000003e0: 3e06 843d 99bb c6bd 60a1 b23d 39fd 9abd
000003f0: cbb3 bf3d 3305 a63d ff1d 16bd 6459 c1bd
-0.073892124 -0.049930107 0.026005024 0.1145612 -0.084554255 -0.0212346 0.16406424 0.07270705
0.098970324 -0.05292911 -0.11397324 0.0153310625 0.021372514 0.16309465 -0.031625398 0.013614331
-0.08075551 0.08567317 -0.0026875676 0.0132471165 0.09523553 -0.10294231 -0.047415737 0.12740201
0.033850603 0.053982392 -0.1197045 0.10447694 0.066216394 0.028907018 -0.052827183 0.010636811
0.13835955 0.08911371 -0.03041728 0.046830043 0.016179757 0.07160465 0.0067033395 0.01071675
0.005822472 0.012561208 -0.011353824 0.059406657 -0.09513633 0.06923362 -0.043243162 -0.058509007
0.049767993 -0.06411334 0.04063861 0.17158227 0.060030647 -0.09785406 -0.005730705 -0.07938163
0.0038462747 0.011574915 0.057145603 0.05381397 0.028597916 0.009080289 0.1077182 -0.08423759
0.04636304 0.038078964 0.023920149 -0.03613093 0.04356631 -0.07673804 -0.107254304 0.07614687
0.108415924 -0.01129351 0.11497447 0.12874605 0.12622066 0.05644396 -0.020332903 0.03480775
-0.0076597 0.07198594 -0.10748057 -0.00046158742 0.067399904 0.06524321 0.05448847 -0.11895701
0.026257718 -0.08426977 0.060919542 -0.04264262 -0.08971996 0.10023068 -0.0134582585 -0.044022772
-0.06775239 -0.0869439 0.07139978 0.08772663 0.11335243 -0.0015836378 0.09908791 0.04476036
-0.09835309 -0.047786508 -0.06338784 -0.026840892 0.04740617 -0.03235506 -0.086705394 0.052048936
0.044582315 -0.02717103 5.1529343e-05 0.0022436618 -0.002286936 -0.048796467 0.07189479 -0.085525095
0.002868053 -0.039240547 -0.059202805 0.005285891 -0.04502593 0.011302933 0.07921387 0.017543806
0.023251727 -0.09129438 -0.113966174 0.08907731 -0.019395927 0.049790673 0.084998265 -0.10755758
0.0633805 -0.039673544 0.06606521 0.020110846 -0.096839294 0.012989109 0.06992536 0.004427195
0.13137132 -0.048336763 -0.027927803 0.04760347 -0.042159908 -0.051520813 0.057924118 -0.015189437
0.10944403 -0.10069996 -0.11669772 0.09855012 0.05812467 0.061007176 0.035446223 -0.078036614
0.009849131 0.04942736 0.078923725 0.095666915 -0.12797844 -0.033134487 0.08393041 0.00940673
-0.07682612 0.08691618 0.09394167 0.057243608 0.07417759 -0.034327194 0.07467359 0.054161765
0.07903011 0.07802518 -0.03423112 0.027044103 0.011085953 -0.004623059 0.048116874 -0.07728412
-0.079647556 -0.018851552 0.0023211702 -0.0632484 0.06057444 0.08398603 -0.14960386 0.07934179
-0.016778417 0.031883366 -0.027871845 0.063712075 0.05431385 -0.055241287 -0.04265511 0.083468236
0.08318829 -0.17449906 -0.0031835546 0.034432 -0.07302971 0.0428172 -0.029686589 -0.029298676
-0.099519715 0.027061077 0.0915653 0.019886158 0.08177039 -0.07319892 -0.041472957 0.03760067
0.07612304 0.008748632 0.045604367 0.0066593727 -0.07736878 0.008656607 0.049763072 0.076670766
-0.041014787 -0.11158079 0.06316296 0.07510877 -0.075357765 0.020725232 -0.050187346 -0.008676979
0.12261939 0.024188632 0.027010283 0.10177608 0.022219243 -0.10816502 0.100841306 -0.09288254
0.016686615 0.0011240409 -0.1081932 0.034110032 -0.035832826 -0.043570682 -0.020953937 -0.027656458
0.06446503 -0.0970375 0.08722186 -0.0756783 0.09360465 0.081064604 -0.0366497 -0.09440878

output_layer.bias f4 [3]
00000000: b696 49bd adda 54bd 51db 993c
-0.049215995 -0.051966358 0.018781336
