Ricci_flow_autoenc_Burgers_eq/Parameters/g.pth (torch, 122872 bytes, 8 tensors)

hidden_layer1.weight f4 [120, 3]
00000000: 8753 1e38 4e8f 2439 3f60 313b 4bfd 1abd
00000010: cb6a d4bc 2a0f 203c 5f12 d2bb b554 ba38
00000020: fc81 193c 5e12 a7bc 0d2e 523c c86a 8c3d
00000030: 9234 bfbd cc86 4d3e 7b05 f13d bc09 c339
00000040: 9460 e9ba ca8e 97bb a6f8 2dbd f07c a0bc
00000050: 4551 3d3d c98c a13c f4bb aebc 8600 a6bc
00000060: 8f1c ba39 3535 f9ba 746c 83bb 3068 b43c
00000070: d196 d1bc 207a 5bbc fa66 b5bc ae39 9d3b
00000080: 679c f83c 572a e83b e8bb c83c 7021 1abd
00000090: c19f 5e3c f23f 54bc e14a 32bc 0ebc b939
000000a0: 6e4b fbba 9471 7ebb 7cdc 3f3a 15f4 d43a
000000b0: a29c e3bb 7c85 0e3d 4a65 0c3d 8c8f 883c
000000c0: fec7 133d 1516 5cbd bd6a b8bb 5b26 b1bb
000000d0: e8db 2cbc 61f3 20bc 60b7 4bbc 47b8 17ba
000000e0: 73c4 923a cdc4 813c ed20 62bc 2895 3dbc
000000f0: cc3f bcbc 4d92 5639 3ec3 4b3c 7981 003a
00000100: 047b 66bc c611 06bc ed8d 8b3a 5a97 c1bc
00000110: cd7e 8abc 4ee7 0bbc 2c57 273d 9384 343c
00000120: 0707 163b a25c aaba 6036 44bb 48d8 98bc
00000130: 0df2 983c 75f2 463d 28ac 963c 2d53 94bc
00000140: 6d6b b4bc 4db6 b7bc 2a77 463b 24f0 bb3c
00000150: 3bb7 0dbb de6f 04bb 9f91 c83b 4189 703b
00000160: c20f 883b 8370 07bc a7ea 44be 43b3 6fbd
00000170: ceff c03d d20f 1cbd 5d60 d4bc d18b 4e3c
00000180: c8a8 bcbc c0f4 94b7 97f8 3e3c 9134 ac38
00000190: 5f18 62ba 0f8e 143b 70d9 cbbc 6c6e e3bb
000001a0: 86d0 2ebc c50b f63b 8d6e c6bd aa7e 6cbd
000001b0: e8cd 923a 81fc e8ba ba5a 27bc c68f 79bc
000001c0: 7896 6d3c 8ef4 b83c 7dfc b1bc d564 f63b
000001d0: 487c 313d bf39 a23a d992 c5bc 0bbe 8bbc
000001e0: e71c 353e 7628 513d 739e 6b3d 04ec 553b
000001f0: 236c 02bb 0cc4 02bc f261 583b 416f 87ba
00000200: 53b4 71bb be24 813d 87f0 0cbb 51ff f03d
00000210: 7f56 c73c d320 f1bc a025 47bc 43b7 afbc
00000220: b81c 2e3c 8d2b 743d c91f 1cbc d172 e13b
00000230: c60d 0d3c 4d58 633a 502e b8bc 44ba 87bc
00000240: be2e bcbc 1870 7c39 81d9 4d3c 60ba 033a
00000250: e262 87ba aa3f 9ebb 9b60 e73a 3081 993d
00000260: 5c1e 89bd 8a00 a2ba 382e 77bb f824 08bb
00000270: fc5e 44bb 2bcd d5bb 1f08 aaba 3a0f 933a
00000280: 0182 053b 814a e3bb 0c01 6b3a c944 babc
00000290: 8364 88bc b800 49bb 4b3a 133b e43d 293b
000002a0: 67d6 cf3c 97b4 01bd 9804 39bc d396 0dbd
000002b0: d737 c3bd bb1e 2abd 939f 333d 5e80 f23c
000002c0: dee6 c1bc 7d3e ccbb 3d4a 6abc 5579 8cbb
000002d0: e5ab b2b9 1758 ffba 8c9e f93a 68a4 b3bc
000002e0: ace7 cb3b e038 173d 10ac 6abc 5e53 5b3c
000002f0: 5620 443d 0401 c5bc 3af3 81bb d134 c5ba
00000300: d6bb bbbc 4a89 003a 4c54 5c3c 2740 963c
00000310: b366 92bc 3cd9 b7bc 4a96 843d 84b7 03bd
00000320: 1373 353d 9e6e 34bc 1e87 043c 367a 303c
00000330: fc1f 9aba 0fef 8abc 10c2 92bc 2a02 40bb
00000340: 0742 d2bb d6b1 48bb 8057 14bd db44 703d
00000350: d08f 84bd f0a2 673d a7c0 2e3c c8eb 7fbd
00000360: c2db ad3d 3242 37be ce7b b8bd df36 dc3a
00000370: 59c1 2bbb 1cdb 5dbc 5d06 ffbb 6e8f fcba
00000380: e40e 9bbb 9848 27bd ecbe f23b 7238 25be
00000390: 5416 b4bc fd12 c03b 852c 103d e088 213e
000003a0: bc46 f93d 6aa5 0f3e 2551 ea3c 949e 24bd
000003b0: 8589 9ebb 4980 b7bc 8a68 503b 82e6 c03c
000003c0: 16e6 c1bb 31f3 18bc f84b 00bc dffa 1c39
000003d0: db7d ab37 b138 313b 5018 963a 4ebb c3bc
000003e0: 1719 8bbc 87fe 06bc 53fc 863d 5a9b 19bc
000003f0: 31f7 bd39 cfbc fbba a7f3 77bb 8366 423a
3.7747926e-05 0.00015693644 0.0027065424 -0.037839215 -0.02592983 0.00976924 -0.0064108814 8.884949e-05
0.00936937 -0.0203945 0.012828362 0.068563044 -0.09336199 0.20070952 0.117686234 0.0003720055
-0.0017805272 -0.004625176 -0.042473458 -0.019590825 0.046220083 0.019720452 -0.021329857 -0.020263921
0.00035497962 -0.0019013049 -0.0040107314 0.022022337 -0.02558461 -0.013395816 -0.02214383 0.0047981357
0.030348016 0.0070851254 0.024503663 -0.037629545 0.013587893 -0.012954699 -0.01088211 0.0003542606
-0.001917226 -0.0038825022 0.00073189265 0.0016247059 -0.0069461623 0.03479527 0.034276284 0.016670011
0.0360794 -0.053731997 -0.0056279586 -0.0054061837 -0.010550477 -0.009823651 -0.012433857 -0.00057876523
0.0011197462 0.015840912 -0.013801795 -0.011571206 -0.02297964 0.00020463132 0.012436686 0.00049021054
-0.014067415 -0.008182948 0.0010647156 -0.02363174 -0.016906166 -0.008539034 0.040854618 0.011017936
0.0022892372 -0.0012997577 -0.0029939637 -0.018657818 0.018670106 0.04857107 0.018392637 -0.018106068
-0.02202388 -0.022425795 0.003028343 0.022941656 -0.0021624106 -0.002020828 0.006120875 0.0036702903
0.004152269 -0.008266571 -0.19230138 -0.058520567 0.09423791 -0.038101025 -0.025924856 0.012606577
-0.0230297 -1.7756945e-05 0.011655948 8.2113904e-05 -0.00086248474 0.0022667681 -0.024883956 -0.0069406535
-0.010669833 0.0075087273 -0.09689055 -0.057737984 0.0011200281 -0.0017775447 -0.010214502 -0.015232032
0.014501207 0.02257755 -0.021726841 0.0075193443 0.043331414 0.0012376829 -0.024117874 -0.017058393
0.17686807 0.051063977 0.057524156 0.0032641897 -0.001990088 -0.0079813115 0.0033017364 -0.0010332839
-0.0036881163 0.06305836 -0.002150567 0.11767448 0.024333237 -0.029434597 -0.012154967 -0.02144969
0.010626964 0.059611846 -0.009529063 0.0068801423 0.008609241 0.00086725206 -0.022483021 -0.01656831
-0.022971507 0.00024074351 0.012564064 0.00050250255 -0.0010329152 -0.0048293667 0.0017652692 0.07495344
-0.06695244 -0.001235978 -0.0037716758 -0.0020773988 -0.0029963842 -0.006524702 -0.0012972391 0.0011219748
0.0020371678 -0.006936372 0.00089646946 -0.022737877 -0.01664949 -0.0030670594 0.0022465165 0.0025824243
0.02537079 -0.031666365 -0.011292599 -0.034567665 -0.09532135 -0.041533213 0.043853354 0.029602226
-0.023669656 -0.006233035 -0.014299926 -0.004286925 -0.00034078877 -0.0019481209 0.0019044443 -0.021928981
0.006222686 0.036919475 -0.014323249 0.0133865755 0.0478824 -0.024048336 -0.0039657624 -0.0015045648
-0.022916716 0.000490327 0.013447832 0.018341137 -0.017871236 -0.022442453 0.06473978 -0.032157436
0.044299196 -0.011012701 0.008088855 0.010771325 -0.00117588 -0.016959695 -0.017914802 -0.0029298165
-0.0064165625 -0.0030623577 -0.03621626 0.058659416 -0.064727426 0.056551874 0.010666049 -0.062480718
0.08489181 -0.17896345 -0.09007989 0.0016801021 -0.0026207773 -0.013541009 -0.007782741 -0.001926882
-0.0047319997 -0.040840715 0.0074080136 -0.16134813 -0.021983303 0.0058616386 0.035198707 0.1577487
0.12171695 0.14027944 0.028603146 -0.040190294 -0.004838171 -0.022400038 0.0031800591 0.023547415
-0.005917321 -0.009335325 -0.007830612 0.00014970776 2.0443395e-05 0.0027041847 0.0011451337 -0.023893025
-0.016979737 -0.008239395 0.06591096 -0.009375418 0.0003623306 -0.001920605 -0.0037834437 0.0007415788

hidden_layer1.bias f4 [120]
00000000: a188 26b8 6732 293c ae06 db39 dfd6 463a
00000010: e753 bb3d 8720 4aba 179d 4f3c 3d34 633b
00000020: 4a94 30ba fbc8 3a3b f30e b43a 660f 7fba
00000030: 8e6d 3f3b b54b 30ba 78e2 96ba 278d 603c
00000040: d8e4 643b f266 8bb9 9459 1bb9 1217 483b
00000050: 708a 3a3a 270b a33a 2367 9b3a 36dd 5f3a
00000060: d193 afba f694 703a 333a 8c3b 50fc 943a
00000070: 5e3e 1239 9d16 13bb be1b cd3c 601e 253c
00000080: d822 313a 4996 0039 b3fe 42ba c7cf 313b
00000090: f670 d8ba 6276 1bb9 f51e db3a 7d22 a53a
000000a0: 4c3e 923d 9323 20bb 0bb1 04bb 0801 973c
000000b0: 9562 373b 1a8b ea3a cd30 c3b4 2626 903a
000000c0: d90e 3c3a ed1c 9cb9 279a 3ebb 56d4 a539
000000d0: 3dc6 e639 1a1f aeba b6d5 913a cbfb e83a
000000e0: affd 393b 56a1 e1bb 40d2 943c d42f 05b9
000000f0: e767 b439 04b6 c93a 33d9 b23a da39 33b8
00000100: 5f7b 463a 0213 8d3b 3483 a13b f760 e238
00000110: f3c2 173a 02e3 053a efdf f8bb 7bf8 553c
00000120: 6688 50bd d5cd 0fbb e197 4eba 0148 dcbb
00000130: 3575 c43a f81d 1c3e 5a1d 8d3b 08cd 973a
00000140: 130d bbb9 cd46 17b8 faf0 9f3a ae98 84ba
00000150: 209c 30ba 36f7 893a d14c 1437 340c 87ba
00000160: 8014 ab3a 2432 a93a 6c8f 0b3b b11b fd3a
00000170: 6e95 ec39 03fd 3a3b 22b1 a13b 27fe 183b
00000180: 3ba8 2638 977c b43c 9066 62bb a41d 113c
00000190: 4c3b 323a 8bb7 393b 4561 eb39 6dd5 913a
000001a0: d38e f73a 1345 b53a 3ea4 03bd 65d6 01bb
000001b0: a7b0 e439 d28c 92b8 3b03 cb3a 7b29 7fbd
000001c0: 7c52 ec38 3ee2 3abb 2945 bdb9 3ec2 01bb
000001d0: ce61 08bb e0f7 973a c655 e639 6181 a9bd
-3.970473e-05 0.010326958 0.00041775912 0.0007585119 0.091468625 -0.00077105354 0.0126717305 0.0034668588
-0.0006735964 0.0028501141 0.0013737365 -0.00097297726 0.0029209587 -0.00067251484 -0.0011511585 0.013705528
0.003492644 -0.00026588846 -0.00014815322 0.003053133 0.0007115966 0.0012439237 0.0011856299 0.0008539738
-0.0013395493 0.00091774703 0.004279399 0.0011366699 0.00013946879 -0.0022443898 0.025037643 0.010078043
0.0006757206 0.00012263017 -0.0007438466 0.0027131902 -0.0016513157 -0.00014826053 0.00167176 0.0012598779
0.071407884 -0.0024435266 -0.0020247127 0.018433109 0.0027982343 0.0017894239 -3.6357088e-07 0.0010997697
0.00071738433 -0.0002977619 -0.0029083581 0.00031629455 0.00044016718 -0.0013284415 0.0011126313 0.0017775235
0.0028379967 -0.006885688 0.018166661 -0.00012701686 0.0003440969 0.0015389328 0.0013645053 -4.2730804e-05
0.00075714843 0.0043052444 0.0049289707 0.00010794581 0.00057892426 0.0005107374 -0.0075950543 0.013059731
-0.05091133 -0.0021942754 -0.0007880908 -0.0067224507 0.0014988544 0.15245807 0.0043064775 0.001158149
-0.0003567716 -3.6067144e-05 0.0012202554 -0.0010116303 -0.00067371316 0.0010525945 8.839373e-06 -0.001030332
0.0013052374 0.001290862 0.0021295203 0.0019310621 0.00045124762 0.0028532154 0.004934446 0.0023344846
3.973416e-05 0.022032065 -0.0034545995 0.0088571645 0.0006798997 0.002833816 0.00044895164 0.0011126228
0.001888717 0.001382979 -0.032139055 -0.0019811627 0.00043619165 -6.988052e-05 0.0015488634 -0.06229542
0.00011268721 -0.0028516199 -0.00036100417 -0.0019799615 -0.002081025 0.0011594258 0.00043932925 -0.0827663

hidden_layer2.weight f4 [120, 120]
00000000: ea7e 17ba 25bc d83a 9bdc 3aba 2569 2e3a
00000010: a1ba 343a 15b7 ecb9 6e60 d13a 2566 1b3a
00000020: e9fd f5b9 8aa2 48b9 a95e 13ba e959 bfba
00000030: 8fdb b13a f1fe f2b9 ffe9 3e3a 5292 d5b8
00000040: fd71 feb8 69ab 61ba ff7c 5dba 1ea3 af3a
00000050: 128f 47ba a9dc 49b9 0f70 2e3a 3baf a1ba
00000060: 0b10 afb9 314a eeba 2b83 8a3a 7f8e 31ba
00000070: e22c 92ba cf37 1d3a 654b b03a 115c e33a
00000080: 7b16 48ba 8b78 36ba b7e8 0aba 32f6 ac3b
00000090: cbe1 13ba 9cf5 80b9 f575 94b9 a0f4 3a3a
000000a0: 0fdb b0bb 112c d1b9 1713 5fb9 4798 4cba
000000b0: 94fd 71ba 42ad ac38 cb34 1338 84ec 133a
000000c0: b575 47ba 5157 013a 79c5 54ba d970 7fba
000000d0: 017c 9eba 83fa 423a 639e 193a 7fee 01ba
000000e0: 53a4 a0ba a7ea 303b 8965 5fba ead4 b2ba
000000f0: 53d5 59ba a8b3 e1b9 f8c2 63b9 5d10 37ba
00000100: 28a3 46ba 34a9 8d3a 6fa8 9539 4093 1a39
00000110: 51bc f6b7 8c17 9cba a3fe 35bb d83d b3b9
00000120: 58da 783b ed86 0bba e39a 60ba 0fd1 feb9
00000130: d8ef f4b9 0deb 83b9 9c82 c9ba 7280 2fba
00000140: 9c21 83ba bbe4 1aba a4f4 343a 2603 d439
00000150: 673e f2b9 9f19 d139 51ab 15ba 943d 6dba
00000160: 2a09 1eba 5dfc 263a c767 58ba 548e 05ba
00000170: 77f7 8cba ebfe 84b9 9892 c0ba 2d98 60ba
00000180: 38b0 8f38 c877 87bb 076d 8c39 05a2 e93a
00000190: 64f0 f6b9 b6fa 9fba 8b54 91ba a759 153a
000001a0: b29e 04ba 00c6 11ba 93f4 713b 7202 323a
000001b0: 3322 7aba 40c1 4dba ab8f f0b9 a912 27bb
000001c0: 858b 9eba 9089 723a 8c54 a2ba a1f4 0cba
000001d0: c728 2a3a 0f61 2fba faa2 a1ba 8428 523b
000001e0: f816 23b8 2133 df38 053e a13a fd34 b336
000001f0: ad3f c4b9 282c e339 b5ee 2fb7 9b17 9bba
00000200: ecec f239 0c91 d4ba 545f 933a 0088 73bb
00000210: 0650 d3b9 7ad2 f439 feeb 27ba 8aa3 78bb
00000220: 4d4a 193b 2093 b83a 116f d03a ff61 feb9
00000230: 4412 cd3a ea36 2f3a 19eb fc39 3f34 88ba
00000240: 7d9c 8639 d4be b5ba 1127 68ba e3e2 a93a
00000250: 73d9 5a3a 4953 abba a861 05bb e957 f637
00000260: dce1 cf3a 0400 3439 fcb3 163b 6392 a5bb
00000270: 37db 5c39 c355 2eb9 6988 573a 2b29 e439
00000280: 1dd5 c139 1cc9 6539 cf45 3c39 9ad0 88ba
00000290: a9df 01bb 90e5 9b39 de9b 2b3a d18a 0c3a
000002a0: a29d cc3a f43c c638 2b3c 383b 0b24 283a
000002b0: 93b6 7e3a 190d 49ba 0c70 0a3a 8dee d9b9
000002c0: bde3 07bb dd00 353c 188e 74bb 395a 5c3a
000002d0: e365 cd39 05b7 7f3a d8ea 7ab9 c815 023b
000002e0: dd79 c93a 968f 64ba ec9a 3fba 4822 1c3a
000002f0: 8506 8e3a bec1 7b3a 2e36 6c3b aa14 adba
00000300: 8565 da3b 3d47 2039 857c ac3a f3f9 a13b
00000310: 77fe 843a 6063 d0ba 587c cbba 19fe a73a
00000320: ba6b ba3a 034a dbb6 d673 f139 175a c43a
00000330: 024c f539 0319 173a 5a35 ad3a ddd7 cd3a
00000340: 0a59 9a3a e107 e139 ba0e ceba d7f9 d6b9
00000350: 6b5c 4c3a dff9 d8ba 2b65 d5b9 b762 ccba
00000360: f085 273a 335d 4fbb ebb5 cfba d426 e838
00000370: 9a49 c7b8 e5d5 07bb 1765 593a c03e aeb9
00000380: 3a94 d7b9 395e 923a c364 f63b 93ea 96ba
00000390: 8fd1 1a3a 606d 7839 3361 edb9 08a9 6bbb
000003a0: d152 723a 2cc3 ec3a 6250 ad3a f197 3339
000003b0: 07c1 9fba dee0 a73a 0599 833a 0c3a 4bbb
000003c0: 4e99 87b8 d441 03bb 2dfd c4ba ceda 17bb
000003d0: 5c7d 97bb d461 24ba 6b5f 05bb 9eaf f93a
000003e0: e154 26ba dd99 ec3a db18 fcba 58c8 e43a
000003f0: dca1 de3a 724d 27ba d6d5 313a 848e 14b9
-0.00057791045 0.0016535564 -0.00071282097 0.0006653241 0.0006894265 -0.00045149834 0.0015974173 0.00059280015
-0.0004691922 -0.00019134037 -0.00056217104 -0.0014598939 0.0013569462 -0.00046347783 0.0007282793 -0.00010183886
-0.00012132896 -0.0008608611 -0.0008449107 0.0013400053 -0.00076125667 -0.00019251056 0.0006654271 -0.0012335548
-0.00033390554 -0.001818007 0.0010567656 -0.0006773248 -0.0011152292 0.0005997391 0.0013450204 0.0017346164
-0.00076327444 -0.00069607113 -0.00052989594 0.005278372 -0.0005641251 -0.00024597056 -0.00028316645 0.0007131789
-0.0053972076 -0.00039896418 -0.00021274049 -0.00078046735 -0.00092312065 8.233871e-05 3.50967e-05 0.00056428486
-0.0007608787 0.00049339706 -0.0008116584 -0.00097442936 -0.0012091399 0.0007437842 0.0005860088 -0.0004956498
-0.0012256004 0.0026995332 -0.0008521905 -0.0013643776 -0.0008309681 -0.000430492 -0.00021721039 -0.00069833343
-0.0007577413 0.0010807873 0.00028544987 0.0001474144 -2.9413177e-05 -0.0011908873 -0.0027770184 -0.00034187618
0.003797194 -0.00053225347 -0.0008568002 -0.00048602416 -0.00046718004 -0.00025161394 -0.0015374008 -0.000669486
-0.0010004523 -0.0005908717 0.00069029094 0.00040438137 -0.0004620433 0.00039882676 -0.0005709427 -0.00090500084
-0.0006028587 0.00063700025 -0.000825521 -0.0005094756 -0.0010754903 -0.0002536693 -0.0014692126 -0.0008567598
6.851595e-05 -0.004134152 0.00026784113 0.0017824775 -0.0004709988 -0.0012205455 -0.0011087818 0.0005697258
-0.0005059048 -0.00055608153 0.003691946 0.00067905255 -0.0009541839 -0.0007848926 -0.00045883408 -0.00254933
-0.0012096023 0.0009252066 -0.0012384816 -0.0005377029 0.00064910616 -0.0006690183 -0.0012331896 0.0032067606
-3.888362e-05 0.00010642992 0.0012301808 5.3407844e-06 -0.00037431475 0.00043329713 -1.0486391e-05 -0.0011832597
0.00046334357 -0.0016217544 0.001124362 -0.003715992 -0.00040304678 0.00046696124 -0.000640571 -0.0037939274
0.0023390234 0.0014081933 0.0015902241 -0.00048519668 0.0015645702 0.0006683903 0.00048240347 -0.0010391547
0.00025675065 -0.0013866075 -0.0008855919 0.0012961294 0.00083484425 -0.0013071086 -0.0020352397 2.9366422e-05
0.0015860158 0.00017166144 0.0022995463 -0.005052851 0.00021062499 -0.00016625882 0.0008221926 0.0004351822
0.0003697061 0.00021914061 0.00017955083 -0.0010438145 -0.001981715 0.0002973494 0.00065463583 0.00053612614
0.0015610943 9.452729e-05 0.0028112035 0.0006414062 0.0009716537 -0.0007669493 0.00052809785 -0.000415672
-0.0020735108 0.011047569 -0.003731614 0.0008405778 0.00039176558 0.000975475 -0.00023929344 0.0019849408
0.0015371401 -0.0008718906 -0.0007309157 0.0005956036 0.0010835683 0.000960376 0.0036043036 -0.0013205011
0.006664934 0.00015285327 0.0013159668 0.0049431263 0.0010146637 -0.0015898757 -0.0015524728 0.0012816816
0.0014222779 -6.5353247e-06 0.00046053407 0.0014980462 0.00046786672 0.000576392 0.0013214753 0.0015704591
0.0011775803 0.00042921214 -0.0015720942 -0.00041003406 0.0007795754 -0.001655396 -0.00040701902 -0.0015593384
0.00063905027 -0.0031641244 -0.0015847062 0.000110698544 -9.502769e-05 -0.0020726856 0.00082929566 -0.0003323462
-0.00041118433 0.0011166997 0.007519336 -0.0011514 0.00059058605 0.00023691868 -0.00045276582 -0.0035958905
0.0009243908 0.0018063537 0.0013222808 0.00017127373 -0.0012188264 0.0012808105 0.001004011 -0.003100994
-6.465857e-05 -0.002002825 -0.0015029066 -0.002317119 -0.0046230983 -0.0006270681 -0.0020351063 0.001904953
-0.00063450454 0.0018051226 -0.0019233482 0.0017454727 0.0016985494 -0.00063820847 0.0006783878 -0.00014167471

hidden_layer2.bias f4 [120]
00000000: cd13 813b a6f0 a73b fbb8 d3bb 44b1 74bb
00000010: 273a 093b 969c 96bb 0caa feba 5149 c8ba
00000020: a607 b63b 3973 5bbd 39e3 a43b d56a 623b
00000030: 50e4 9abb f177 c43b 8aad b83b f747 95bb
00000040: 79ec dcbb 09df e3bb 22fc 953c 496c 96bb
00000050: c1ab 8fbb cccd be3b 7ea0 a63b 603a ddbb
00000060: c6c6 9bbb d735 e3bb 7637 02bb 49de a3bb
00000070: b4b1 f33b 21ab e43a 8182 b9bb 420b a4bb
00000080: c676 8c3b e672 dabb 0e88 d33b 0fd5 91bb
00000090: 0074 1abb eb3b dfbb f817 9fbb 79c2 893b
000000a0: 76d8 d2bb 8199 ac3b 30b9 883b 20d6 c5bb
000000b0: fb02 5cbb b3c4 cf3a 6d9f b23b a034 6f3b
000000c0: 2068 e3bb 9bc5 d4bb 4a57 0ebb 2f75 d8bb
000000d0: c75a 98bb bd0e a1bb b34a 32bc 64aa e03b
000000e0: a9f5 a63b d9e3 95bb 07c3 073c 5fbb e33b
000000f0: 4d7a ab3b 1d33 9bbb 37e0 0b3b 873e 9cbb
00000100: 13c8 9fbb b6f0 e3bb e403 df3b 4d5d 063b
00000110: 30b5 ec3b b344 123b 0f5d 453b 54c2 c4bb
00000120: 3ec4 e3bb 35a7 d5bb ff9d e73b 9deb ba3b
00000130: 03e8 e2bb b73f ce3b da35 97bb e1a5 ad3b
00000140: 3448 b93b 9081 a93b 9e23 d0bb 839b c03b
00000150: c00a afbb 3cd3 c2bb e5dc 95bb e848 15bb
00000160: bbab 253b 06cb 06bb f3fe 06bb 477f 17ba
00000170: 5ee8 ddba c915 c6bb 3a67 3d3c f400 d83b
00000180: 730f 90bb afc2 db3b 25fc 9f3b 0e3f 9fbc
00000190: 1cf7 7d3b cd8e e73b 6b6d b03b 3080 b03b
000001a0: 58d1 a5bb cf12 0bbc c555 7b3b c8fb 4c3b
000001b0: 21bc 5abb 44fe 23bb f03c dfbb 3d17 ad3b
000001c0: a344 a1bb d59d 813c 17df 9abb 1e4d 993b
000001d0: 923f d2bb 7f17 ab3b 6544 8f3b 2d4d 4c3c
0.003939128 0.005125123 -0.0064612604 -0.0037337104 0.0020939203 -0.004596303 -0.001942934 -0.0015280639
0.005555111 -0.05357668 0.00503197 0.003454854 -0.004726924 0.0059957434 0.005635922 -0.004555698
-0.006742057 -0.006954078 0.018308703 -0.0045905453 -0.0043844883 0.0058228727 0.00508505 -0.0067513436
-0.0047539202 -0.0069339084 -0.0019869483 -0.0050008637 0.0074369553 0.001744602 -0.005661309 -0.005006225
0.00428662 -0.006666529 0.006455428 -0.0044504474 -0.0023567677 -0.0068125627 -0.004855152 0.004204091
-0.0064344956 0.0052673225 0.0041724667 -0.0060374886 -0.0033571112 0.0015851468 0.005451134 0.0036499873
-0.006939903 -0.006493283 -0.0021719509 -0.0066057662 -0.0046494934 -0.004915087 -0.0108820675 0.0068562496
0.005095203 -0.0045742807 0.008286244 0.0069498266 0.0052330852 -0.004736318 0.002134336 -0.004768196
-0.0048761456 -0.006956185 0.0068058837 0.002050239 0.0072237477 0.002231878 0.0030115282 -0.006004611
-0.006950884 -0.006520177 0.007068395 0.005704357 -0.0069246306 0.0062942165 -0.004614574 0.0052993153
0.0056543592 0.0051729158 -0.006351902 0.0058779134 -0.0053418577 -0.0059455913 -0.004573452 -0.0022779051
0.0025279361 -0.0020567789 -0.002059874 -0.00057791587 -0.0016930213 -0.0060450775 0.011560256 0.0065919105
-0.004396373 0.0067065577 0.004882353 -0.019439247 0.0038752025 0.0070665837 0.0053841374 0.005386375
-0.005060356 -0.008488371 0.0038350683 0.0031278003 -0.0033376294 -0.002502338 -0.0068126842 0.0052823112
-0.004921512 0.01582233 -0.0047263014 0.0046783825 -0.0064162696 0.005221307 0.004372167 0.012469572

hidden_layer3.weight f4 [120, 120]
00000000: 13af a4ba bd13 113b 1e5c 843a b47a e43a
00000010: 468b f5b9 58e7 efb9 0048 3c3a 6218 563a
00000020: 34c5 3dba 3fc9 533b 9f7e adba dc5d 8aba
00000030: 0ada b1b9 7eb7 9cba bd73 8cba d264 13ba
00000040: 3976 c23a cba5 ae3a 6987 943b cc62 09ba
00000050: 4670 62b8 8c14 21bb 438d 55ba ac73 ab3a
00000060: bf41 063b c031 b53a e00d 0c3b 4e44 a3b9
00000070: 533c 5aba b347 01bb b73a 103b 6f75 d43a
00000080: 2fc1 99ba 8848 e23a a458 17bb c17a 9bb9
00000090: 688e 9db9 2f63 9f3a 819f cdb9 3f86 93ba
000000a0: 213c 823a 7c75 a1ba cc51 3e3b 0bfd 133b
000000b0: 9289 993a 5944 9bb9 0a8c 89ba 1643 e7ba
000000c0: a993 b53a d3c9 e03a 4820 af3a ce38 ed3a
000000d0: 65f4 03ba b11e cd3a 399d cb38 fa39 faba
000000e0: e810 92ba c46d 16ba 17af 3cbb 75e0 d7ba
000000f0: e2de a6ba c463 f7b9 4c6c c9b9 e0fd f3b9
00000100: 29d8 a2b9 5d80 af3a 6831 19bb c5d2 1bba
00000110: 6b16 23bb 395e d4ba 2199 29ba 0ef5 363a
00000120: 8552 b43a 6f16 893a 2f13 deba 74bf feba
00000130: 8163 b93a 25f1 88b9 0751 dfb9 11cc 91ba
00000140: c081 0bbb e529 923b 403e eb3a 4b7e 96ba
00000150: 9a92 bb3a 6c27 df3a 31cc 15ba 6a10 8bba
00000160: d753 af3a abb2 0c3b bdb3 993a 402a 25ba
00000170: c7b1 7dbb 9caa e73a 166a 19bb 17c6 c1ba
00000180: 3124 673b d550 37ba c70c 8dba ef69 bd3b
00000190: 87ee adba acf0 54ba 4af4 dbba 909e 8bba
000001a0: 17ad 4bb9 825b abba 8b59 78ba efeb 75ba
000001b0: 8ee3 073a b62e 3b3b bd24 a03a 59e6 8fba
000001c0: 7190 acb9 1ea2 1abc c492 07ba 4933 caba
000001d0: 6dc1 173b 469d a0ba 12c4 9eba c44c 9cbb
000001e0: 4e00 2f3b cf35 01bb 794c a1b9 8d1c 30bb
000001f0: f4a3 de3a caa6 803a aa24 d7ba 3e23 dbba
00000200: 6268 4e3a 455a 33bb f3ba c23a cc73 1f3b
00000210: 06f8 533a ea3b fa39 9522 9839 e0a6 913a
00000220: 06db 6eba 5886 2cba 54ea 73bb 5643 8d3a
00000230: e7c8 85ba 2232 833b 4e1e 733a cf69 2cba
00000240: bae6 46bb e7e8 43ba e901 4fbb 47da 2c3a
00000250: 693c 183a 9b65 1a3b 420d 4ebb 03fb 45ba
00000260: d1f3 5139 816f 91ba 5c81 d33b 6118 3a3a
00000270: b2b0 8bb8 6018 09ba 2c29 803a 141c 1a39
00000280: 400d 99b9 8194 c239 7847 19bb 6c88 50bb
00000290: 1a7e bdba 5629 c23a f95d 7539 acb5 553b
000002a0: 4a6d 44ba a8ed 93ba e3f9 1cbb a1d8 8fba
000002b0: 5adb 8b3a ed12 33ba c1f4 a1ba 53fd 9c3a
000002c0: db58 ad39 04e2 933a a5fb 3c3b 800e 863a
000002d0: 96f9 d439 31f3 883a 2586 af3a 608d 883a
000002e0: 503b 3e3a db4d 2fba 6b6b ba3a b1fd ee3a
000002f0: f96b c93a 66cb 393b 5f77 ac3a 9a2d 5ab7
00000300: 54b0 3fba 6151 b3b9 689e 8c3a 1b75 623b
00000310: dbf6 4fba 8e1a b038 1bdf 763a 2b64 8b39
00000320: 1236 763b 9b8f 88bb effd 89ba 5f06 d739
00000330: fddf 8fba 29e2 7dba 8d7f 933a 617f 8139
00000340: c5bb c8b9 8ac6 f4ba 71b0 0dbb 04b4 2d3a
00000350: 6548 8e3b dcc3 9eba c95b 1d3b ee27 5b3a
00000360: 9908 37bb b938 6939 abcb a03a 9301 bebb
00000370: 5504 343b e5ae 363a 2ba4 413a 517e 7739
00000380: d748 523a 0963 1bba e0e3 56b8 31d5 153b
00000390: 5ba8 51ba 31aa 73bb 6802 08ba d8d6 8a39
000003a0: 32a2 713a 0e37 fd3b 81a8 8c3a b0c1 443b
000003b0: 21f5 4cbb f532 b639 2b27 8139 5cf8 a53b
000003c0: f278 9e3a 5cd8 b5ba 4696 d4b9 4cde b3ba
000003d0: f32e 513a 9f62 0c39 ec59 7fba 4d07 99ba
000003e0: a346 473a 562a 51bb 40d5 883a 4514 8e3a
000003f0: cfe7 2938 d936 7c3a 97b3 653a 3c93 7439
-0.0012564383 0.002213701 0.0010098254 0.0017431588 -0.00046833808 -0.00045757997 0.00071823597 0.00081670855
-0.00072391634 0.0032315997 -0.0013236589 -0.0010556537 -0.00033922523 -0.001195654 -0.0010715645 -0.00056226284
0.0014836258 0.0013324557 0.0045327437 -0.0005240857 -5.398716e-05 -0.0024578897 -0.0008146355 0.0013080738
0.0020485965 0.0013824031 0.0021370575 -0.00031140674 -0.0008325029 -0.0019726574 0.0022007653 0.0016209314
-0.0011730547 0.0017264048 -0.0023093605 -0.00029655363 -0.00030051474 0.0012160296 -0.00039219487 -0.0011255218
0.0009936133 -0.0012318338 0.0029040454 0.0022581245 0.0011713973 -0.00029614827 -0.0010494005 -0.0017643895
0.001385321 0.0017149992 0.0013361061 0.0018098594 -0.0005033671 0.0015649406 9.709079e-05 -0.0019090765
-0.0011143954 -0.0005738402 -0.0028790885 -0.0016470092 -0.0012731219 -0.00047185842 -0.00038418395 -0.00046537723
-0.000310601 0.0013389696 -0.0023375396 -0.0005944188 -0.0024885188 -0.0016202397 -0.00064696564 0.0006979265
0.0013757503 0.0010458956 -0.0016942973 -0.001943572 0.0014144034 -0.00026119608 -0.00042594245 -0.0011123439
-0.0021287054 0.0044605606 0.0017947629 -0.001148173 0.0014310658 0.0017025298 -0.0005714326 -0.001060975
0.0013376427 0.00214688 0.001172654 -0.0006300546 -0.00387107 0.0017674747 -0.002340918 -0.0014783767
0.0035269374 -0.0006992941 -0.0010761254 0.0057804505 -0.0013269939 -0.0008123021 -0.0016781178 -0.0010652114
-0.0001942407 -0.0013073536 -0.0009473792 -0.0009381165 0.00051837496 0.0028561777 0.001221798 -0.0010978683
-0.00032914014 -0.009438066 -0.0005171711 -0.0015426661 0.0023156062 -0.0012253902 -0.0012112877 -0.0047698934
0.0026703062 -0.001971591 -0.0003076529 -0.0026872486 0.0016986118 0.0009815332 -0.0016414125 -0.0016718877
0.00078738306 -0.0027367037 0.0014856741 0.0024330495 0.00080859696 0.00047728355 0.00029017465 0.0011112355
-0.00091116165 -0.0006581298 -0.0037218528 0.0010777514 -0.0010206968 0.004003779 0.000927423 -0.0006577046
-0.0030349926 -0.0007473365 -0.0031586832 0.0006593805 0.00058073417 0.0023559097 -0.0031441008 -0.0007552357
0.00020022622 -0.0011095853 0.00645463 0.00070989697 -6.6609486e-05 -0.00052297674 0.0009777895 0.00014697044
-0.00029192306 0.00037113208 -0.0023388546 -0.0031819595 -0.0014457137 0.0014813344 0.00023400028 0.0032609506
-0.0007493092 -0.0011286037 -0.0023952655 -0.0010974595 0.001067023 -0.0006831128 -0.0012356268 0.0011977352
0.00033063334 0.0011282568 0.0028836515 0.001022771 0.00040621747 0.0010448453 0.0013391419 0.001041811
0.0007256763 -0.00066873216 0.0014222687 0.0018233565 0.0015367261 0.0028349995 0.0013158134 -1.300443e-05
-0.0007312347 -0.00034202173 0.0010728361 0.0034554664 -0.00079332077 8.39728e-05 0.00094174006 0.00026586777
0.003756885 -0.0041675097 -0.0010527949 0.00041012742 -0.0010976788 -0.00096848846 0.0011253223 0.00024699702
-0.00038286872 -0.0018674892 -0.002162006 0.00066262507 0.004342126 -0.0012112814 0.0024011007 0.0008360137
-0.0027928709 0.00022241742 0.0012267729 -0.0057985275 0.0027468402 0.00069688103 0.00073868287 0.00023602812
0.0008021718 -0.0005927538 -5.12338e-05 0.0022862668 -0.0007997804 -0.00371803 -0.0005188347 0.00026481482
0.00092175894 0.0077275103 0.001073137 0.0030022673 -0.0031274038 0.0003475171 0.0002463398 0.005065007
0.0012090488 -0.0013873684 -0.00040547753 -0.0013722866 0.0007979713 0.0001338818 -0.00097408774 -0.001167515
0.0007601773 -0.0031916103 0.001043953 0.0010839781 4.050863e-05 0.000962121 0.0008762418 0.00023324502

hidden_layer3.bias f4 [120]
00000000: 5300 6ebc d9ca 6d3c ce71 733c f10d 233c
00000010: b3c0 07bb f0e4 24bb d27f 083b a613 a9bc
00000020: b61f ca3b 4809 83bc 2a8e f03b f451 0a3b
00000030: 4374 19bb 2898 0bbd 323d 683b fbb5 83bc
00000040: ffdd ab3c 162d bebb 785c ed3b db06 6d39
00000050: 45c1 9a3c a986 e9ba 25f6 36bc 985f 8cba
00000060: 9fe6 29ba 3d70 733c 4007 13bc d853 133c
00000070: 56a1 98bb 9d3e e33b d977 583b c998 afbc
00000080: 6fd9 80bb 6bc3 de3b db5f 49bb ccd1 43bc
00000090: fcd5 5f3b 1acc 473c 6721 1cbb 7a2c 85bc
000000a0: 9409 d93b 70c2 69bc 85c4 773c d9c3 123c
000000b0: c135 a1bc b966 36bc 3345 5f3b 0700 02bc
000000c0: 6a4a 503a f780 803c b672 223b cfdf 7739
000000d0: e5d8 043c bb11 493b 205d 883c a489 edba
000000e0: 3029 313b 0f4d a53b 7d8e 923d 0774 073c
000000f0: 6a9e 3f3c 76d1 2bbb f37a 6f3c 767e 0e3c
00000100: 0b66 593c 095f ddbb 7840 7e3c 4954 7c3c
00000110: f29f 693c 0823 0a3b a730 0cbc 424e 093c
00000120: 1b3e 093d 5133 333b af81 693c 0dfd 69bc
00000130: 9ef4 ceba 7567 c83b d59d 6f3c 0bf5 763c
00000140: 934c 8a3b d0e1 a93b db83 90bb dc03 7ebc
00000150: 69c2 ab3b 2a5e 343c d12f c739 8df9 51bc
00000160: 1f74 f5bb 705f 113c 95a2 79bc 3ce0 8f3c
00000170: 51ee 86bc 3325 25bc 8916 99bc 1829 6fbc
00000180: bf76 5fbc 740c 373c d989 2d3b e4fc 103c
00000190: f8cb 71bd cf04 813c 0b2d 6b3d d2cc 00bb
000001a0: 1750 4b3c 76dd 833c 85ea 4fbb 8f81 f93b
000001b0: 387c 46bd 4d39 c23a 1f50 93ba eea9 823c
000001c0: 952a e63a 4723 f9bb b1fb b03c e633 85bc
000001d0: 4490 663b 9d38 093b afd5 313b 0f3e 71bb
-0.0145264445 0.014513695 0.014858676 0.009952054 -0.0020714223 -0.0025160871 0.002082814 -0.020639252
0.006168331 -0.015995637 0.007341166 0.0021105977 -0.0023415245 -0.034080654 0.0035436866 -0.016077986
0.02097988 -0.0058037145 0.007243689 0.00022604635 0.018890986 -0.0017816621 -0.011167084 -0.0010709642
-0.00064812036 0.014858303 -0.0089738965 0.008992158 -0.0046579046 0.0069349543 0.003303042 -0.021435158
-0.00393217 0.006798198 -0.00307273 -0.011951875 0.0034154644 0.012194658 -0.002382362 -0.01625656
0.0066234563 -0.014267549 0.0151225375 0.0089578265 -0.019678952 -0.011132889 0.0034068346 -0.007934577
0.0007945659 0.015686495 0.0024787611 0.00023639131 0.008108352 0.0030680734 0.016645968 -0.0018122685
0.0027032606 0.0050445865 0.07156084 0.008267409 0.011695484 -0.0026217378 0.014616716 0.008697143
0.013268958 -0.006755714 0.0155183 0.0154009545 0.014259325 0.002107801 -0.0085565215 0.0083804745
0.033506494 0.002734382 0.01425211 -0.014281523 -0.0015789454 0.0061158487 0.014625032 0.015073071
0.004220554 0.0051843897 -0.0044102496 -0.01550385 0.0052416814 0.011008779 0.00037991864 -0.012815845
-0.0074906494 0.008872852 -0.0152365165 0.017562978 -0.01647106 -0.01007967 -0.018687503 -0.0145972
-0.013639151 0.011172403 0.0026479869 0.008849356 -0.05903241 0.015749363 0.057416003 -0.0019653332
0.012409232 0.016096812 -0.0031725478 0.0076143215 -0.048458308 0.0014818102 -0.0011239088 0.01595017
0.0017560298 -0.0076030823 0.02160439 -0.016260099 0.0035181204 0.0020938285 0.0027135422 -0.0036810671

output_layer.weight f4 [4, 120]
00000000: 4109 093c 33ae e6bb b089 cfbb 6685 47bd
00000010: 63e6 ab3a 0f0f e73a 73f7 d9bb 732d 503c
00000020: a39b bdbb 5258 e43b 6e79 68bd 6f86 a1ba
00000030: a07a 8bbc 797f 843c d89b 07bb 4276 223c
00000040: 067d 37bd 4811 bf3b e137 40bb 1352 61ba
00000050: 05b6 02bc ea26 ff3b 943c 9b3b b1db 113a
00000060: e0d7 313a 471a 3bbd f2b0 543c 8fee 0dbc
00000070: 5240 363b b302 7cbb 35ff 123b 5bec 403c
00000080: fed4 433b c3eb 25bd a566 413b ebe7 2a3c
00000090: 0244 bdba 5089 b5bb 6a86 14bd 9f45 db3b
000000a0: 64e9 4ebb 04e8 ed3b e0df edbb e65e 8cbb
000000b0: 5269 193c 287c 223c 76e8 cfbc 6a91 e63b
000000c0: e472 033a 10e7 d5bb bef9 c8bb 62bb a5b9
000000d0: d726 5ebb 0fb6 32bb 9fa9 e1bb 1e8f 033c
000000e0: 7f1b 3fb9 48a3 5dbb ece4 2ebd a75c 97bb
000000f0: 71f7 4b3d 7f5d f83a 9f7f b1bb 69e2 14bc
00000100: 83d3 bcbb 2b9c f93a 8e46 b8bb 88bc 5abc
00000110: 9cf1 d3bb 526a 10bc 11a8 8a3b 8edb 5ebd
00000120: e622 c53c 9116 3ebb 8162 833d 759d b63b
00000130: 7a82 cd3a e079 b9bb 2e7e bfbb 91f5 d1bb
00000140: 684c b6bb d28e 55bc 6731 553b 5be0 633c
00000150: eee0 94bb 72d2 a6bb bdc1 80bb 1a8d c13b
00000160: 409c 853a ecec 53bc fd41 cc3b fba7 0e3d
00000170: e706 e13b deb8 8b3b 3663 0a3c fa11 c63b
00000180: 8cb6 773c e069 27bc 9d05 2abb 6659 8dbb
00000190: 7f81 2a3d 7d53 8bbd 354c 4ebd 57e2 883b
000001a0: b61a eaba cd90 dcbb 3e39 193b aff8 bfbb
000001b0: b56b 053d 6324 52ba f24f 1a3a f698 d4bb
000001c0: 46f8 d8bb fcd5 8c3b 8f6f 17bd 5bac e83b
000001d0: c4d3 46bb 40d4 97bc 1d28 d1ba f9c2 163b
000001e0: adef 2a3b 1918 cc39 111c 11ba e2b1 54bd
000001f0: 5b3d 8fb8 76c3 55b9 c313 9d3a d60b ccba
00000200: 9121 313b a483 b5bb 5cc2 bcbc ca97 edb8
00000210: 02a7 34bc 61d5 22bc 25bb a83b 9dda a9bb
00000220: 3469 693c b7e0 86bb ee7c 29ba edcb 953a
00000230: 2472 c53b 6db3 24bb 4599 79bb 0ecf 8039
00000240: 9618 21ba 0bd8 22bd 0839 cabb a22d d93b
00000250: bfdc 04bb 4bfa 803a 0331 acbb 91e8 d13a
00000260: 8930 7ebb d534 283d 9e36 ca39 67f2 93bb
00000270: a51a 2939 68b9 8b3b 18d4 99bc 1912 b4bb
00000280: 26cd 9b3a a01c 13b9 617e 7e3a a2ad 523b
00000290: 3da3 9e3a bae8 21bc e2ad 00bd 6da4 01bb
000002a0: f748 88ba ca01 40ba 1197 b73a c34f 083a
000002b0: 28cf dfba 6fc3 e7b9 1dc1 c03b c69b 2abb
000002c0: fce9 82ba cb41 3539 8eed 163d ed3d 09b9
000002d0: 933b 28bc 8e57 ceba 604b 82ba 52fe b23b
000002e0: daad 943b 4180 5c3a 50cc edba 2e8b 493c
000002f0: 7253 aab9 197e 003b 0d88 4cbb 3b72 83bc
00000300: 17b2 b6bd 37ea a6bc 364b 98bb 2fc2 48bb
00000310: f832 473a 7e8b 2d3b 100c a23b ab22 ac3b
00000320: f036 9a3b 38f5 06bd 07e6 8e39 7c81 4cbc
00000330: 18dc ed3a bfde 7c3b e585 24ba e426 94bb
00000340: 44eb b33b 8698 c43b 88d2 a6bb 5bf8 febc
00000350: a26d b7bb 0754 63bb 7361 8c3b 86eb a4bb
00000360: 120e 4cbc 2f6f a33a 57b7 00ba 2d68 553b
00000370: 3cb0 ecbc 6b97 65bc 9e57 cfbd 16a6 7dba
00000380: 2753 063c d113 b93b 934a e8b9 aaca 073b
00000390: e4cc cebc fbe2 59b9 76ae 7839 f705 b53b
000003a0: 321b 9d3a 9af4 b038 7ee6 593c eeac 2a3b
000003b0: 4982 0eb9 82ef babc cf59 5dbb 8bfa 71ba
000003c0: cb65 5a3b 0aa8 e1ba b493 60ba a0e9 79bd
000003d0: c97e 4dbb 40d3 58bb 2cc6 dfbb 93f5 93ba
000003e0: 2989 ba3b 1278 afbb dfe7 b2bc 7af9 593b
000003f0: f3e8 2bbc 9d19 98bc 0d39 a43b 7949 c33a
0.008364023 -0.007039809 -0.0063335523 -0.048711203 0.0013114925 0.0017628389 -0.0066518127 0.012706148
-0.0057863756 0.0069685364 -0.05675643 -0.001232339 -0.017026246 0.016174065 -0.0020692255 0.00991589
-0.044796966 0.0058309175 -0.0029330181 -0.0008595299 -0.007977967 0.0077866213 0.004737446 0.00055640476
0.0006784182 -0.045679357 0.01298164 -0.008662834 0.0027809334 -0.0038453757 0.0022429947 0.011775102
0.0029881592 -0.040508043 0.0029510644 0.01043127 -0.0014439824 -0.0055400506 -0.036261 0.006691649
-0.0031572217 0.0072603244 -0.007259354 -0.0042837737 0.009363489 0.0099172965 -0.0253794 0.0070363777
0.00050143735 -0.006527789 -0.006133287 -0.00031610864 -0.0033897662 -0.002726916 -0.0068866755 0.008029727
-0.00018225423 -0.0033819247 -0.042698786 -0.0046191993 0.049796525 0.0018948762 -0.005416825 -0.0090871835
-0.005762519 0.0019043734 -0.005623645 -0.013350613 -0.006468011 -0.008814411 0.004231461 -0.054408602
0.024064492 -0.002900515 0.064152725 0.0055729696 0.0015679144 -0.0056602806 -0.005843899 -0.0064074476
-0.0055633076 -0.013034539 0.0032530667 0.013908471 -0.0045434153 -0.005091005 -0.0039293454 0.005906713
0.0010193661 -0.012934905 0.0062334524 0.034828167 0.006867278 0.0042639812 0.008446505 0.0060446234
0.015119206 -0.010218114 -0.0025943287 -0.0043136356 0.041627403 -0.068030335 -0.050365645 0.0041773724
-0.0017860744 -0.006731129 0.0023380066 -0.005858503 0.03257342 -0.00080162863 0.00058865466 -0.006487961
-0.0066213934 0.00429797 -0.036971625 0.0071006245 -0.0030338624 -0.018533826 -0.0015957389 0.0023004396
0.00260828 0.00038927866 -0.0005535493 -0.051927455 -6.8302e-05 -0.00020386078 0.0011984039 -0.0015567492
0.0027028064 -0.0055393744 -0.023041897 -0.000113293136 -0.011026146 -0.009938569 0.0051492625 -0.0051835314
0.014246274 -0.0041161436 -0.00064654544 0.0011428572 0.0060255695 -0.002513136 -0.003808574 0.0002456833
-0.0006145326 -0.039756816 -0.0061713494 0.0066277543 -0.0020273176 0.0009840218 -0.005254866 0.0016014745
-0.0038786253 0.04106601 0.00038569135 -0.0045149806 0.00016127022 0.0042640455 -0.018777892 -0.0054953215
0.00118867 -0.00014029676 0.0009708163 0.003214695 0.0012103092 -0.0098821465 -0.031415828 -0.0019781843
-0.0010397722 -0.00073244853 0.0014006813 0.00051998737 -0.0017075287 -0.00044205363 0.005882396 -0.002603279
-0.0009987946 0.00017286015 0.036847644 -0.00013088407 -0.01026811 -0.0015742646 -0.0009940676 0.0054624463
0.0045373263 0.00084114453 -0.0018142555 0.012301249 -0.00032487098 0.001960641 -0.0031209022 -0.01604568
-0.08920687 -0.020375354 -0.0046476377 -0.003063332 0.00075988425 0.002648085 0.0049452856 0.005253156
0.004706256 -0.032948703 0.00027255734 -0.012482043 0.0018147258 0.0038584915 -0.00062760554 -0.0045212377
0.0054906923 0.0059996275 -0.0050910152 -0.031124284 -0.005597786 -0.0034687535 0.004284078 -0.0050329594
-0.0124545265 0.0012469048 -0.0004910132 0.0032563314 -0.028892629 -0.014013152 -0.101241335 -0.0009675933
0.008198536 0.0056481143 -0.0004430605 0.0020720162 -0.025244184 -0.0002077929 0.00023716115 0.0055243927
0.0011986254 8.4378946e-05 0.0132995825 0.0026043016 -0.0001359071 -0.022819284 -0.0033775454 -0.0009230754
0.0033324833 -0.0017216217 -0.00085669314 -0.061013818 -0.0031356087 -0.00330849 -0.006829044 -0.0011288397
0.0056926203 -0.0053548897 -0.02183908 0.0033260272 -0.010492551 -0.0185669 0.005011684 0.0014899216

output_layer.bias f4 [4]
00000000: 2cdf 833c 0153 d33a 8207 dd3a c99a 763c
0.016097628 0.001612276 0.0016863199 0.015051552
