Ricci_flow_autoenc_Burgers_eq/Parameters/g.pth (torch, 122424 bytes, 8 tensors)

hidden_layer1.weight f4 [120, 3]
0	0x3eb55abd	0.3542079
1	0x3e87c2a9	0.265157
2	0x3d397b10	0.045283377
3	0xbe12dd97	-0.14342342
4	0x3e27f265	0.1640106
5	0xbee8510f	-0.45374343
6	0xbe53c9d6	-0.20682463
7	0x3dd45f0b	0.103696905
8	0xbef02c05	-0.46908584
9	0x3f0377d5	0.51354724
10	0x3efb206d	0.49048176
11	0xbe9da6ca	-0.30791312
12	0xbef240a3	-0.4731494
13	0xbf079dd4	-0.529752
14	0xbeff7f3b	-0.49901757
15	0x3e9e826b	0.30958876
16	0x3e04f27a	0.12983122
17	0x3ebb45df	0.36576745
18	0xbebcb4a9	-0.36856583
19	0xbe16b498	-0.14717329
20	0xbef8880e	-0.485413
21	0xbd42ec84	-0.04758884
22	0x3e070201	0.13184358
23	0x3e2e0977	0.16995798
24	0x3d7a6629	0.061132584
25	0x3f0aeffa	0.54272425
26	0xbd9e5ede	-0.07732938
27	0x3ea41572	0.3204761
28	0xbf02c302	-0.5107881
29	0xbe9009fe	-0.28132623
30	0xbeeba1e1	-0.4602194
31	0xbe955372	-0.29165226
32	0x3f00d712	0.5032817
33	0xbcbc1980	-0.022961378
34	0x3e995fff	0.29956052
35	0x3eb6396c	0.35590684
36	0x3ecd0e9b	0.40050206
37	0xbeb6ea93	-0.3572584
38	0x3e24a57a	0.1607875
39	0x3e0fa0ad	0.14026137
40	0xbe526f10	-0.2055018
41	0xbeda19c9	-0.42597798
42	0x3ef7d61f	0.4840555
43	0x3f045065	0.5168517
44	0x3e820fbb	0.25402626
45	0xbe602476	-0.21888909
46	0xbdad6365	-0.084662236
47	0x3e00e563	0.12587504
48	0xbf0fdf27	-0.5619988
49	0x3e84640a	0.25857574
50	0xbe108cd1	-0.14116217
51	0x3f0f417d	0.559593
52	0x3e3e4ffb	0.18585198
53	0x3df0391d	0.117296435
54	0x3ee4ee8c	0.44713247
55	0x3ec49f03	0.38402566
56	0x3ede5e27	0.43431208
57	0xbf0b16f9	-0.5433193
58	0xbf0af5cf	-0.54281324
59	0x3ee99430	0.4562087
60	0x3eda0f04	0.4258958
61	0x3e80b638	0.25139022
62	0xbee104c5	-0.4394895
63	0xbdcad5cf	-0.09904062
64	0xbd3a1c24	-0.045436993
65	0x3ec0d005	0.37658706
66	0xbe5d2056	-0.21594366
67	0xbef65ba8	-0.48116803
68	0x3e3e4272	0.18580034
69	0xbd8a5e28	-0.0675624
70	0x3d25692a	0.040383495
71	0x3f0127b1	0.5045119
72	0xbef2a965	-0.47394863
73	0xbea6e338	-0.3259523
74	0xbeaa36a6	-0.33244818
75	0xbe3e30b3	-0.18573265
76	0x3edc74b3	0.43057784
77	0x3e471745	0.1944247
78	0xbeb5d578	-0.35514426
79	0x3db2910f	0.08719074
80	0x3e95f93f	0.29291722
81	0x3eee95fe	0.4659881
82	0x3e87e050	0.26538324
83	0xbe3c44da	-0.1838564
84	0x3c163e86	0.00917018
85	0xbda14fb7	-0.078765325
86	0xbe064b7d	-0.13114734
87	0xbd872745	-0.06599287
88	0x3ed5ef7c	0.41784275
89	0xbf14d6c0	-0.5814018
90	0xbb1e309d	-0.0024137862
91	0x3f0e60cd	0.55616456
92	0xbdc396e4	-0.095502645
93	0xbe8c9a0b	-0.27461275
94	0xbe9abce6	-0.30222243
95	0x3ef50753	0.4785715
96	0xbf02fc26	-0.51166
97	0xbf0f931b	-0.5608384
98	0x3ea16d2f	0.31528613
99	0x3bbee539	0.0058256653
100	0x3e47e1f5	0.1951979
101	0x3eb3eb8e	0.3514065
102	0xbd201634	-0.039083675
103	0x3ecce796	0.40020436
104	0xbeec8c55	-0.46200815
105	0x3ea7de4e	0.32786793
106	0xbe90e502	-0.2829972
107	0x3e644f42	0.2229586
108	0x3e201030	0.15631175
109	0xbe2ea00b	-0.17053239
110	0x3e817a7b	0.25288758
111	0x3e448809	0.19192518
112	0xbd255e58	-0.040373176
113	0x3ef19f5c	0.47191894
114	0xbeadcfdb	-0.33947644
115	0x3e69e5f7	0.22841631
116	0x3f0f651c	0.56013656
117	0xbe3872f7	-0.18012606
118	0x3f098667	0.53720707
119	0xbf014e1b	-0.50509804
120	0xbeac9b72	-0.33712345
121	0xbecd8d2c	-0.40146768
122	0xbeddfade	-0.4335546
123	0xbf09be4c	-0.53805995
124	0x3f09e22b	0.5386073
125	0x3f038ce8	0.5138688
126	0xbe93aa9c	-0.28841102
127	0xbda28a6e	-0.079365596
128	0xbdfcdce2	-0.123468176
129	0x3e9e92ce	0.30971378
130	0x3da8a437	0.082344465
131	0xbc0b2718	-0.008493207
132	0x3e78809c	0.2426781
133	0x3e5866a6	0.21132907
134	0x3db5bc36	0.08873789
135	0xbe9fb78a	-0.31194717
136	0xbedab33c	-0.4271487
137	0xbf052208	-0.5200505
138	0xbeb57497	-0.35440513
139	0x3f010133	0.50392455
140	0xbf001ed8	-0.50047064
141	0x3c0f81c1	0.008758963
142	0x3dcaffbc	0.09912059
143	0x3efdb9fd	0.4955596
144	0x3ebe9ff3	0.37231407
145	0xbeeee2cd	-0.4665741
146	0x3da8d84e	0.08244382
147	0x3f0bf769	0.5467439
148	0x3f09eb6e	0.5387486
149	0xbdfaa005	-0.122375526
150	0x3de23736	0.11045687
151	0x3eb24095	0.34814897
152	0x3e3a84a9	0.18214668
153	0xbe9afee5	-0.30272594
154	0x3edf55db	0.4362019
155	0xbdff92df	-0.12479185
156	0x3e8649cd	0.2622818
157	0xbeb513fd	-0.35366812
158	0x3e937f04	0.28807843
159	0xbd192fe1	-0.037399177
160	0x3e7c0e0c	0.24614733
161	0x3e8f5e40	0.28001595
162	0xbeee6c61	-0.46567062
163	0x3e55796c	0.208471
164	0xbe1044ed	-0.14088793
165	0x3e90ea8d	0.28303948
166	0xbeb09e02	-0.3449555
167	0x3e52207e	0.20520207
168	0x3e28db0e	0.16489813
169	0xbe92e96d	-0.28693715
170	0xbec751ef	-0.38929698
171	0xbe291d6e	-0.16515133
172	0xbb0c9e92	-0.002145682
173	0x3f1b0a0e	0.6056222
174	0xbeb5032c	-0.35353982
175	0x3e710e9b	0.23540728
176	0x3ef1178c	0.47088277
177	0x3dbb3f4a	0.09142931
178	0xbe82e148	-0.255625
179	0xbf0023b6	-0.5005449
180	0xbcf1a6e3	-0.029498523
181	0x3eeaa2ce	0.45827335
182	0x3f00cf28	0.50316095
183	0xbe9978ac	-0.29974878
184	0x3f0a00ad	0.5390728
185	0x3f0da7ca	0.5533415
186	0xbf0865f4	-0.5328057
187	0x3e520a48	0.20511734
188	0xbe3f0ea0	-0.18657923
189	0x3cdd904d	0.027046347
190	0xbe8340cd	-0.25635377
191	0x3eecfbc9	0.46285847
192	0xbe237ef2	-0.15966395
193	0x3e67a202	0.22620395
194	0xbd8bb755	-0.06822077
195	0xbe4de07b	-0.20105164
196	0xbe8429b7	-0.25813076
197	0xbe801c02	-0.25021368
198	0xbe63b64b	-0.22237508
199	0x3eb5e602	0.35527045
200	0xbf0590ce	-0.5217408
201	0xbe64631c	-0.22303432
202	0x3f00595c	0.5013635
203	0x3ed95aee	0.42452186
204	0xbee17f6b	-0.44042525
205	0x3e9e8308	0.30959344
206	0x3ece858b	0.4033626
207	0xbdc6a277	-0.096989565
208	0x3ece935a	0.40346795
209	0x3eb76dce	0.35825962
210	0x3ecd2f65	0.40075222
211	0xbea81571	-0.32828858
212	0xbf11f801	-0.5701905
213	0xbdcb05a5	-0.09913186
214	0xbe410e2d	-0.18853064
215	0x3eb50864	0.35357964
216	0xbe9382e1	-0.2881079
217	0xbed87595	-0.42277208
218	0x3d860c2e	0.06545292
219	0x3eb72f0c	0.3577808
220	0xbebebc54	-0.37253058
221	0x3f0c5242	0.54813015
222	0xbeac6669	-0.33671883
223	0x3eb44448	0.35208344
224	0x3968fee4	0.00022220198
225	0xbec0e8b0	-0.37677526
226	0xbef592f7	-0.47963688
227	0xbe3c5c31	-0.18394543
228	0x3eb7c7a4	0.358945
229	0xbec187d2	-0.37798935
230	0xbe8dbdbb	-0.27683815
231	0xbe289c1a	-0.16465798
232	0x3e86892e	0.26276535
233	0xbd0d6359	-0.034518573
234	0x3e33bf13	0.17553358
235	0x3e2b31c9	0.1671821
236	0x3defb9f4	0.117053896
237	0x3ef4cbac	0.4781164
238	0xbe875a0b	-0.26435885
239	0xbdd83984	-0.10557845
240	0xbe158fea	-0.1460568
241	0xbe261649	-0.16219439
242	0xbe9d67c7	-0.30743238
243	0xbe7056a3	-0.2347055
244	0x3e98ae89	0.2982066
245	0x3ebb3c41	0.36569408
246	0x3eaa69ec	0.33283937
247	0x3f0dc878	0.55384016
248	0x3da469fb	0.08028027
249	0xbf009212	-0.50222886
250	0x3f05e3e7	0.52300876
251	0x3e443c2f	0.19163583
252	0x3e95e642	0.29277235
253	0x3e626186	0.22107515
254	0x3e1b067a	0.1513919
255	0xbe8cb9e3	-0.2748557

hidden_layer1.bias f4 [120]
0	0x3e05a54c	0.13051337
1	0x3e9a763c	0.3016833
2	0xbe18fcdc	-0.14940208
3	0xbeb45e84	-0.3522836
4	0x3ea2a8fc	0.3176955
5	0x3efa37dc	0.48870742
6	0xbec42067	-0.3830597
7	0x3f0cc56e	0.54988754
8	0x3e6aa03d	0.22912689
9	0x3c98be10	0.018645316
10	0xbd70ada7	-0.058759358
11	0x3e982223	0.29713544
12	0x3eab04e4	0.3340217
13	0xbcef1615	-0.029185334
14	0xbef53c49	-0.47897556
15	0x3db733d4	0.08945432
16	0xbe49cb94	-0.19706565
17	0x3d56a7e9	0.052406225
18	0xbf0a636a	-0.54057944
19	0xbe373898	-0.17892683
20	0x3f077f68	0.5292878
21	0x3e9ef96f	0.31049678
22	0xbedf381d	-0.435975
23	0xbe69f974	-0.22849065
24	0xbea29e0f	-0.31761214
25	0x3e8e9963	0.278514
26	0xbea1c28d	-0.31593743
27	0xbdc3c971	-0.09559906
28	0x3e822a73	0.2542301
29	0x3e8385c8	0.25688004
30	0x3e0cec38	0.13761985
31	0x3e50757c	0.20357317
32	0x3e96ab90	0.29427767
33	0x3e93aa8d	0.28841057
34	0xbf0db5b9	-0.5535541
35	0xbede6c25	-0.43441883
36	0x3dd24d12	0.10268606
37	0x3eacb3c0	0.33730888
38	0xbe4edb47	-0.20200835
39	0x3e336438	0.17518699
40	0xbe235f9d	-0.15954442
41	0x3e8acfa1	0.27111533
42	0xbeea43be	-0.45754808
43	0x3e9a9df3	0.3019863
44	0x3e718bba	0.23588458
45	0xbd9c564c	-0.07633647
46	0x3f0ff3c4	0.5623133
47	0xbe55c8a2	-0.20877317
48	0x3ec1faaf	0.3788657
49	0x3f108ebb	0.5646779
50	0x3f0c1ea5	0.5473426
51	0xbe8f7d4a	-0.28025275
52	0x3e920037	0.2851579
53	0x3eaaf107	0.33387014
54	0xbee42640	-0.44560432
55	0x3de65543	0.11246731
56	0xbef1715a	-0.47156793
57	0xbdb10d4c	-0.08645114
58	0x3e750e99	0.2393135
59	0x3c78e79f	0.0151919415
60	0x3e705785	0.23470886
61	0x3ef8d830	0.48602438
62	0x3ecfd9a0	0.40595722
63	0x3f09a79b	0.5377137
64	0x3e5889c9	0.21146311
65	0x3eb6b925	0.3568813
66	0x3f0645c1	0.52450186
67	0xbec3f405	-0.3827211
68	0xbdf63e18	-0.12023562
69	0xbea78dab	-0.32725272
70	0xbe67975e	-0.22616336
71	0xbe95dc22	-0.2926951
72	0xbeb1a225	-0.3469402
73	0xbed2eb96	-0.41195363
74	0x3eb3c14a	0.35108405
75	0xbccc1ac0	-0.0249151
76	0xbf0196d8	-0.50620794
77	0x3eb555d3	0.3541704
78	0x3db7cb67	0.08974343
79	0x3e7d0068	0.24707186
80	0xbea7d42f	-0.3277907
81	0x3e206bc8	0.15666115
82	0xbef05ea1	-0.46947196
83	0x3e972d03	0.2952653
84	0xbee69e91	-0.45042852
85	0xbefd80af	-0.4951224
86	0x3eaa1965	0.332225
87	0xbda51b40	-0.08061838
88	0x3e7aaca3	0.24479918
89	0x3dd43c44	0.10363057
90	0xbef124cd	-0.4709839
91	0xbecd13f7	-0.40054294
92	0xbef67972	-0.4813953
93	0x3e8f974a	0.28045112
94	0x3eadaaf4	0.3391949
95	0x3ed1d816	0.40985173
96	0x3edeeb01	0.4353867
97	0x3de262e2	0.11054017
98	0x3e5a4a2a	0.21317354
99	0xbec5f9fe	-0.3866729
100	0xbd734486	-0.05939152
101	0x3da3814b	0.07983645
102	0xbd3e5204	-0.046464935
103	0xbf0ea4e3	-0.5572035
104	0xbea31517	-0.31852028
105	0x3efc33c3	0.4925824
106	0x3f0a4c49	0.5402265
107	0x3defaad8	0.11702508
108	0xbeabb2e2	-0.33534914
109	0xbe0f0120	-0.13965273
110	0x3f0c2f62	0.547598
111	0xbf04321a	-0.5163895
112	0xbc77d483	-0.01512635
113	0x3eb26646	0.34843653
114	0xbec04020	-0.37548923
115	0xbe8e262c	-0.27763498
116	0x3e3c373b	0.18380444
117	0x3e66eb4e	0.22550699
118	0xbee75f45	-0.45189872
119	0xbf04cdf0	-0.51876736

hidden_layer2.weight f4 [120, 120]
0	0xbd7e0eb3	-0.062025737
1	0x3db4cd5b	0.08828231
2	0xbd2bedc2	-0.04197479
3	0x3d8ae617	0.067821674
4	0x3d6b0854	0.05738099
5	0xbd000af0	-0.03126043
6	0xbd7e1c0d	-0.06203847
7	0x3d601e7b	0.05471657
8	0xbd17fb2e	-0.037104778
9	0x3d98a890	0.07454026
10	0x3c9295e2	0.017893735
11	0xbd10b6dd	-0.035330642
12	0xbc97145c	-0.018442325
13	0xbd4cc551	-0.049992863
14	0x3d7f6d1a	0.062359907
15	0xbd196a3b	-0.037454825
16	0xbd10a23e	-0.035310976
17	0x3d93ee18	0.07223147
18	0x3d2dc278	0.042421788
19	0x3cd28a52	0.025700722
20	0x3d0335db	0.032033782
21	0xbb9397cc	-0.0045041796
22	0x3d9ae8f9	0.07563967
23	0x3d2a6d9c	0.041608438
24	0xbd126eb0	-0.03575009
25	0x3d9e5795	0.07731549
26	0xbd17c9ab	-0.03705756
27	0xbcc6cf53	-0.024268782
28	0xba9a6d19	-0.0011781781
29	0xbd7bf815	-0.061515886
30	0xbd66aa1a	-0.056314565
31	0x3b73a03a	0.003717436
32	0xbd64ae4a	-0.055830278
33	0x3c4ec988	0.012621291
34	0x3d6c0d38	0.057629794
35	0x3bc03234	0.0058653597
36	0x3cb444b7	0.022005422
37	0xbc53fb78	-0.012938373
38	0xbd7951e5	-0.060869116
39	0x3d8df1ed	0.06930909
40	0x3ccd0767	0.025027944
41	0x3d8167aa	0.063186005
42	0x3cf21bad	0.029554212
43	0xbd03976a	-0.03212682
44	0xbd864f21	-0.065580614
45	0xbd1ba6ff	-0.038001057
46	0x3cdb25c1	0.0267514
47	0x3d43b471	0.047779504
48	0x3bb08fcc	0.0053882357
49	0x3c72d272	0.014820682
50	0xbd8c3913	-0.068468235
51	0x3d97033c	0.07373664
52	0x3cf2a6e3	0.029620593
53	0x3c9e0373	0.019288754
54	0xbcf5ac8e	-0.029989507
55	0xbc44c3c6	-0.012009567
56	0x3d880e4d	0.06643353
57	0x3d18f9ec	0.03734772
58	0xbc81fa06	-0.01586629
59	0xbd2e4ecc	-0.042555615
60	0xbd447ba6	-0.047969483
61	0xbdbde45b	-0.09272071
62	0x3d94558d	0.0724288
63	0x3b79cfe7	0.0038118304
64	0xbd2d14fb	-0.042256337
65	0x3d2d5d9f	0.042325612
66	0xbd09d570	-0.033650815
67	0x3db2b2f2	0.08725537
68	0xbce36876	-0.027759772
69	0xbd41608c	-0.047211215
70	0x3bf01dc3	0.0073277666
71	0xbdb1c930	-0.086809516
72	0x3c694815	0.014238377
73	0x3d8409a5	0.06447152
74	0xbccd3ed0	-0.025054365
75	0x3ca421ff	0.020035742
76	0xbd3135ff	-0.043264385
77	0xbd63d2bd	-0.055620898
78	0xbd8e5a19	-0.069507785
79	0xbcb3fb04	-0.02197028
80	0x3d7294c5	0.05922391
81	0x3d4e94ac	0.050434753
82	0xbdafbbed	-0.08580766
83	0xb8a4d57d	-7.859895e-05
84	0xbd980919	-0.0742361
85	0xbd6ee2f8	-0.058321923
86	0xbc481f09	-0.012214431
87	0x3db5c439	0.08875317
88	0xbcca9455	-0.024728933
89	0x3daf5c28	0.08562499
90	0x3d100383	0.0351596
91	0x3bb52ff0	0.0055293962
92	0x3bcaee29	0.0061929417
93	0xbd57f0c1	-0.052719835
94	0x3b8059d7	0.0039169597
95	0xb93d6b1d	-0.00018064347
96	0x3cd83a5e	0.02639502
97	0xbd3aa997	-0.04557189
98	0x3da6dc3c	0.08147475
99	0x3d18712c	0.037217304
100	0x3d9e53df	0.07730841
101	0xbda3e5e9	-0.08002836
102	0xbd8d1d0f	-0.06890308
103	0xbd566a2a	-0.05234734
104	0x3d3586a7	0.044317868
105	0xbd8df41e	-0.06931327
106	0xbd8c0f4f	-0.068388574
107	0xbdc37c81	-0.095452316
108	0x3d98c942	0.07460262
109	0x3d9560e0	0.07293868
110	0x3d93383e	0.07188462
111	0x3db4c4d4	0.088266045
112	0x3dd35601	0.10319138
113	0xbd16fef5	-0.03686424
114	0xbca31577	-0.019907696
115	0xbd84578e	-0.06462012
116	0x3d9379fb	0.07201
117	0xbbcf58af	-0.0063277106
118	0x3d32f328	0.043688923
119	0xbd2b9d07	-0.0418978
120	0x3d8095bd	0.0627856
121	0x3db53e95	0.08849827
122	0xbd1a0c3f	-0.037609335
123	0xbdb9fd00	-0.09081459
124	0x3bdd648d	0.0067563714
125	0xbd413094	-0.04716547
126	0xbc96b663	-0.018397516
127	0xbda2ae81	-0.0794344
128	0xbc2168ff	-0.009851693
129	0x3d627615	0.055288393
130	0xbd761e16	-0.060087286
131	0x3d4438ed	0.04790585
132	0xbc5abb4e	-0.013350321
133	0xbd85160a	-0.06498344
134	0x3da71d19	0.08159847
135	0xbcab8d6c	-0.020941459
136	0xbcf6735e	-0.030084308
137	0x3d164065	0.036682505
138	0x3dae459c	0.08509371
139	0x3d003c50	0.03130752
140	0xbd808769	-0.062758274
141	0xbd7658fa	-0.06014345
142	0xbb23f490	-0.0025017597
143	0xbcd6b983	-0.026211506
144	0xbbd1204b	-0.0063820234
145	0x3d0e97ab	0.03481261
146	0xba8b955d	-0.0010649372
147	0xbdb4e851	-0.08833373
148	0x3daf7bcf	0.085685365
149	0x3daa50d3	0.08316197
150	0x3d5fada1	0.054608945
151	0x3c9b7be1	0.018979969
152	0xbd8df5e4	-0.069316655
153	0x3d8c061b	0.06837102
154	0xbc90348f	-0.017603187
155	0xbd4e4d83	-0.05036689
156	0x3dbcc56e	0.09217344
157	0xbd42168d	-0.047384787
158	0xbb36fb05	-0.0027920615
159	0x3d6282ce	0.055300526
160	0xbcd877b6	-0.02642427
161	0xbd66a35d	-0.05630814
162	0x3d634332	0.055484004
163	0xbd7c2d81	-0.061566833
164	0xbc0bea7e	-0.008539794
165	0xbd9c52f0	-0.076330066
166	0x3d997935	0.074938215
167	0x3d7bfe9d	0.061522115
168	0xbd65d08b	-0.056107085
169	0x3d243b4c	0.040095612
170	0x3d85bd70	0.06530273
171	0xbd7489f8	-0.05970189
172	0xbd28d81b	-0.04122172
173	0xbd86bed2	-0.06579365
174	0x3cc560a7	0.024093939
175	0x3d863c10	0.06554425
176	0x3d8ce6e2	0.06879975
177	0x3de1c609	0.110241
178	0xbd862414	-0.0654985
179	0xbd8a6664	-0.06757811
180	0xbda04e88	-0.07827479
181	0xbbb71ae7	-0.005587924
182	0xbdacd32d	-0.08438716
183	0xbd64bf00	-0.055846214
184	0xbd6e3b40	-0.058161974
185	0x3db1dc3c	0.086845845
186	0x3c71869c	0.014741566
187	0xbdc32e8e	-0.09530364
188	0xbd14b255	-0.036302883
189	0x3cee9e69	0.02912827
190	0x3d926fa2	0.071501985
191	0xbd1585f3	-0.036504697
192	0x3c913bd1	0.017728718
193	0x3da5790f	0.08079731
194	0x3d9ed9cb	0.077563845
195	0x3d2dbdbb	0.04241727
196	0x3c5b6774	0.013391364
197	0xbdc64155	-0.0968043
198	0x3d130e91	0.035902563
199	0x3c537a15	0.012907525
200	0xbd9388fa	-0.072038606
201	0xbbec6b9b	-0.007214976
202	0x3d9c0f20	0.07620072
203	0xbd84269e	-0.06452678
204	0x3ce2edfe	0.027701374
205	0x39b39993	0.00034255962
206	0x3d07eb80	0.033183575
207	0xbc8c7640	-0.01714623
208	0x3cef9692	0.029246602
209	0xbc713ef6	-0.014724484
210	0xbb2791df	-0.0025569124
211	0x3b589d8b	0.0033052887
212	0xbd3b1fbd	-0.045684565
213	0xbc8eb153	-0.01741854
214	0x3d25ac0a	0.040447272
215	0x3d7a878a	0.061164416
216	0x3d98d766	0.07462959
217	0xbcfdee9b	-0.030997565
218	0x3d04a535	0.032384116
219	0x3d4a11b0	0.049333274
220	0x3d43f361	0.047839526
221	0xbd4ab3b2	-0.049487777
222	0x3d973857	0.07383793
223	0x3d454d2f	0.04816931
224	0x3da34f67	0.07974129
225	0x3c916b99	0.017751502
226	0x3cba3800	0.022731781
227	0xbcb80fb4	-0.022468425
228	0x3d776818	0.060402006
229	0xbc2d7c7d	-0.010588762
230	0x3cf92980	0.030415297
231	0xbd9e030b	-0.07715424
232	0x3d3e2e6c	0.04643099
233	0xbc793a98	-0.015211724
234	0x3d567087	0.05235341
235	0xbda14029	-0.07873566
236	0x3bb602f9	0.0055545536
237	0xbda76953	-0.08174386
238	0xbcfe25c6	-0.031023871
239	0x3da8c8d2	0.082414284
240	0x3da50de0	0.08059287
241	0x3d29e82c	0.041481182
242	0x3d96ac8d	0.0735713
243	0x3d13cbe7	0.03608313
244	0xbbc4b2ec	-0.0060027745
245	0x3bd60abb	0.006532041
246	0xbd5e7b4c	-0.054316804
247	0x3dba2512	0.09089102
248	0xbda062be	-0.078313336
249	0x3c800f27	0.015632225
250	0xbd9dedaa	-0.077113464
251	0xbda3c49b	-0.07996484
252	0xbc645518	-0.013936304
253	0x3d27a2e9	0.040926848
254	0x3d9c685c	0.076370925
255	0xbc97947f	-0.018503426

hidden_layer2.bias f4 [120]
0	0xbbdfcc2d	-0.0068297596
1	0x3ac7154e	0.0015188844
2	0xbd13eef8	-0.03611657
3	0x3cab5383	0.020913845
4	0xbc9a8133	-0.018860435
5	0xbdc758dc	-0.097337455
6	0xbd9dbdd5	-0.07702223
7	0x3daaaec8	0.08334118
8	0xbd818685	-0.06324486
9	0xba9a3bf6	-0.0011767137
10	0xbdcd2df4	-0.100185305
11	0xbcf56884	-0.029957063
12	0x3cbaf301	0.022820951
13	0x3a946bf6	0.0011323679
14	0xbc4beed9	-0.012447082
15	0x3c3391d5	0.010960062
16	0xbd599130	-0.053116977
17	0xbda009a6	-0.0781434
18	0x3d966234	0.073429495
19	0xbd6970d4	-0.056992367
20	0xbcc70735	-0.024295429
21	0xbdb89a24	-0.09013775
22	0x3d409f82	0.04702712
23	0xbd53e87b	-0.051735383
24	0x3d82e1b7	0.06390708
25	0xbda0239b	-0.07819291
26	0x3d4b5d06	0.04964926
27	0x3cf4c48b	0.029878875
28	0x3ca2742e	0.01983079
29	0xbbec9632	-0.007220053
30	0x3c07a2cf	0.008278563
31	0xbca4eb23	-0.020131653
32	0x3d8bc747	0.068251185
33	0x3b954f70	0.004556589
34	0x3d9dae9b	0.07699319
35	0x3c92a51f	0.017901001
36	0xbd2120cc	-0.03933792
37	0x3d3a89ff	0.04554176
38	0xbcd14c23	-0.025549
39	0x3c3e880a	0.011629114
40	0xbd16275d	-0.036658634
41	0xbd20560d	-0.039144564
42	0x3da4dc66	0.0804985
43	0xbc4031cb	-0.011730622
44	0xbdad47ec	-0.08460984
45	0x3d9f580c	0.077804655
46	0x3c4422ab	0.011971156
47	0x3cf04582	0.029330019
48	0xbb24626b	-0.0025083076
49	0x3c783c4e	0.0151510965
50	0x3dc987d6	0.09840362
51	0x3cf1b2ab	0.02950414
52	0xbdd7f395	-0.105445065
53	0x3ccb67b5	0.024829725
54	0x3baafe8b	0.005218332
55	0x3c8eec7b	0.017446747
56	0xbd66a204	-0.056306854
57	0x3d508e38	0.05091688
58	0x3bc3adf7	0.005971666
59	0xbb087119	-0.0020819365
60	0xbd894189	-0.06701953
61	0xbdc8f97d	-0.09813211
62	0x3cae56b3	0.021281576
63	0x3d9c5c9f	0.076348536
64	0xbd3c9293	-0.04603822
65	0xbdb486f6	-0.08814804
66	0x3ce1306c	0.02748891
67	0xbcbc136c	-0.02295848
68	0xbd6bfaed	-0.05761235
69	0xbc7c54a4	-0.015401039
70	0x3d5f388a	0.05449728
71	0xbca2d75a	-0.019878078
72	0x3c860326	0.016358923
73	0xbdc9e7a5	-0.09858636
74	0xbcc5a45e	-0.024126228
75	0xbc97a446	-0.018510949
76	0x3d92cd53	0.07168069
77	0x3d1ef1e5	0.038804907
78	0x3dac52e4	0.08414248
79	0x3d306fd4	0.043075398
80	0xbcfec501	-0.031099798
81	0xbd8aa598	-0.06769866
82	0xbda94f73	-0.08267107
83	0x3c876ff6	0.01653288
84	0xbd7196e1	-0.05898178
85	0xbcb6938b	-0.02228715
86	0x3c49473d	0.012285051
87	0x3b4b858c	0.0031054942
88	0xbd804249	-0.06262643
89	0xbdc59f88	-0.09649569
90	0xbb40ef8f	-0.0029439663
91	0xbd08882e	-0.033332996
92	0xbdac28c2	-0.084062114
93	0xbc859dc3	-0.016310578
94	0xbbc6e4e2	-0.0060697654
95	0xbdbf54d3	-0.09342351
96	0x3c54d552	0.012990313
97	0xbcea7af2	-0.028623078
98	0x3d9f0b51	0.0776583
99	0xbd040229	-0.032228623
100	0x3dd03189	0.10165698
101	0xbdacd5c9	-0.08439214
102	0x3c0e59f8	0.008688442
103	0xbc9c0f0f	-0.01905015
104	0xbcd2cdfc	-0.025732987
105	0xbbbd2ad8	-0.0057729296
106	0xbd167fc5	-0.036742944
107	0x3d305583	0.0430503
108	0xbd4da127	-0.050202515
109	0xbd533c92	-0.051571436
110	0x3c6fc6af	0.014634772
111	0xbda2ee11	-0.07955564
112	0xbdb86b5a	-0.09004851
113	0xbbe21658	-0.0068996362
114	0x3dd786f6	0.10523789
115	0xbda193e1	-0.07889534
116	0x3d90760d	0.070537664
117	0x3d3cb451	0.0460704
118	0xbdabbf67	-0.083861165
119	0xbdaa0fb5	-0.08303777

hidden_layer3.weight f4 [120, 120]
0	0xbda76d6a	-0.08175166
1	0x3d7d0877	0.06177565
2	0xbd7faae6	-0.06241884
3	0x3c8fbf3d	0.017547244
4	0xbc3111ab	-0.010807435
5	0xbbbb15df	-0.0057093943
6	0xbdab0f8d	-0.083525755
7	0xbc893c2d	-0.016752327
8	0x3d2ae4ae	0.041721992
9	0xbd9339a1	-0.07188726
10	0x3cc45d82	0.02397037
11	0x3c5438c8	0.012952991
12	0xbd40624a	-0.046968736
13	0xbdae4e0a	-0.085109785
14	0xbcc6fdeb	-0.024291
15	0x3c07f816	0.008298894
16	0x3d955ded	0.072933055
17	0xbcf729b5	-0.030171255
18	0x3d685ade	0.056727283
19	0xbc828422	-0.015932146
20	0x3d97c75d	0.074110724
21	0xbc9716f1	-0.018443557
22	0xbd8b18e5	-0.06791858
23	0x3a7afe01	0.00095745927
24	0x3ca0b79c	0.019618802
25	0xbd3e4be5	-0.046459097
26	0xbdac776c	-0.084212154
27	0x3da17539	0.078836866
28	0x3c5440dc	0.012954917
29	0x3d9a9201	0.07547379
30	0x3ad6e5f8	0.001639544
31	0xbd5566b6	-0.052099906
32	0xbd4552d5	-0.048174698
33	0x3a96b028	0.001149659
34	0x3ba9001d	0.005157484
35	0x3d5117a8	0.05104795
36	0xbdb0d26b	-0.08633884
37	0x3d526116	0.05136212
38	0xbd848de0	-0.06472373
39	0x3d003394	0.03129919
40	0x3d2930d1	0.04130632
41	0x3c9af776	0.018916827
42	0xbdac014f	-0.08398687
43	0xbd014745	-0.03156211
44	0x3c6be900	0.014398813
45	0x3d554227	0.05206504
46	0xbc92f32d	-0.01793822
47	0x3cdf39a4	0.027249165
48	0x3d97b00d	0.07406626
49	0xbd8062f3	-0.06268873
50	0x3972fcb4	0.00023173058
51	0xbd963fb4	-0.07336369
52	0xbd23c820	-0.039985776
53	0x3bb044b2	0.005379283
54	0x3bc237bc	0.005927054
55	0xba80d80a	-0.000983001
56	0xbd8f137e	-0.0698614
57	0x3d9748c7	0.07386928
58	0x3d2f5f70	0.042815626
59	0x3db38278	0.08765119
60	0x3ce50730	0.027957529
61	0xbd833a73	-0.06407633
62	0xbd90eba3	-0.07076194
63	0xbda9917c	-0.08279702
64	0x3cf70e9e	0.030158337
65	0x3c56fb05	0.013121371
66	0xbd004ea9	-0.031325016
67	0x3d8a9e55	0.06768481
68	0xbd18e26a	-0.0373253
69	0x3d27f9e0	0.041009784
70	0xbda89c59	-0.08232946
71	0xbd832d71	-0.06405152
72	0x3ab582e7	0.0013848216
73	0xbd815411	-0.063148625
74	0x3c9cb9e3	0.019131606
75	0x3c2532fd	0.010082957
76	0xbb84bb10	-0.00405062
77	0xbd4425ff	-0.0478878
78	0x3ccb71a3	0.02483446
79	0xbcbeca9f	-0.023289977
80	0xbd3e4580	-0.046453
81	0x3d4dcca5	0.050243992
82	0xbd0382d4	-0.03210719
83	0x3d8b674a	0.0680681
84	0x3da75495	0.081704296
85	0x3d171c06	0.03689196
86	0x3cffee06	0.031241428
87	0xbc8b275b	-0.01698654
88	0x3d4d11ed	0.050065923
89	0xbd0730f5	-0.033005673
90	0xbd8b7562	-0.06809498
91	0xbd5b7524	-0.05357851
92	0x3da655d4	0.08121839
93	0x3d9b1981	0.07573224
94	0x3af429d0	0.0018628184
95	0x3c885d4d	0.016646052
96	0x3ba70a5f	0.005097672
97	0x3d0e448d	0.034733344
98	0xbcf7492d	-0.03018626
99	0xbc7f5013	-0.015583056
100	0xbdba28d6	-0.0908982
101	0xbc912886	-0.017719518
102	0xbcde5e35	-0.02714453
103	0x3b671ad8	0.0035263803
104	0xbc3362b3	-0.010948825
105	0x3d4f39d3	0.050592255
106	0x3dbde95b	0.09273025
107	0x3b7c59ec	0.0038505746
108	0x3d13f186	0.036119007
109	0x3d760697	0.06006488
110	0x3b0381ae	0.0020066309
111	0x3c5a830c	0.013336908
112	0x3be5b872	0.007010513
113	0xbb3d0fd9	-0.0028848557
114	0xbd2d1e7c	-0.0422654
115	0x3d7fca7e	0.06244897
116	0x3d3c7971	0.046014253
117	0xbd4391e1	-0.047746543
118	0x3ccb014a	0.024780888
119	0x3cebff4c	0.028808258
120	0xbc99d01a	-0.018775988
121	0x3be2e675	0.0069244453
122	0xbd8ef614	-0.069805294
123	0xbc9def23	-0.019279068
124	0x3cbf85bd	0.023379201
125	0x3d518b2a	0.051158108
126	0x3cca432b	0.024690231
127	0xbda56333	-0.080755614
128	0xbd8aa0f0	-0.06768978
129	0x3d2b90f7	0.041886296
130	0xbb9e5e60	-0.0048330277
131	0x3d9782d5	0.07398001
132	0xbd7db847	-0.06194332
133	0xbd8b2c26	-0.0679553
134	0x3d377b58	0.044795364
135	0x3c499a73	0.01230489
136	0x3d2956ad	0.041342426
137	0x3d860d30	0.06545484
138	0xbd71689b	-0.05893765
139	0xbd880fee	-0.06643663
140	0x3c5ccd8c	0.013476741
141	0xbc6f7564	-0.01461539
142	0xbd3dfa4c	-0.04638128
143	0x3d8905f5	0.06690589
144	0x3d2034bf	0.039112803
145	0xbd986cf3	-0.074426554
146	0xbdb95c15	-0.090507664
147	0x3daae2fc	0.08344075
148	0xbc178b68	-0.009249546
149	0xbc7f0458	-0.0155650005
150	0x3d350676	0.044195615
151	0xbd1a9f66	-0.03774967
152	0x3d4a2ec9	0.049361024
153	0x3befc0aa	0.0073166685
154	0xbcf26b6b	-0.029592237
155	0x3b8b5bc3	0.004252882
156	0x3bb318c5	0.0054655992
157	0xbc407096	-0.011745593
158	0x3d021999	0.031762693
159	0x3c155ad7	0.009115896
160	0xbd54ff98	-0.052001566
161	0xbd42d695	-0.047567923
162	0xbd6caefe	-0.057784073
163	0x3b9baee5	0.0047510737
164	0xbd23b7a9	-0.039970074
165	0x3cd9ec47	0.026601924
166	0xbd882c72	-0.06649102
167	0x3d3f6bf8	0.046733826
168	0xbcc04b5d	-0.023473436
169	0x3ccef62e	0.025263872
170	0xbc9831b4	-0.018578388
171	0x3b988ed8	0.0046557
172	0x3c036311	0.008019225
173	0x3d820213	0.06348052
174	0xbd616c4a	-0.055034913
175	0xbd6ae9fe	-0.05735206
176	0xbb98863f	-0.0046546753
177	0xbd4bacc5	-0.049725313
178	0x3d409324	0.047015324
179	0x3ba63374	0.0050720517
180	0xbd960d37	-0.07326739
181	0x3c36a005	0.01114655
182	0x3d8a97ec	0.06767258
183	0x3da71572	0.08158387
184	0x3d98a67b	0.07453629
185	0x3cc0973d	0.023509616
186	0x3be774bb	0.007063476
187	0xbd4b474c	-0.04962854
188	0x3c951119	0.01819663
189	0xbceaaeaf	-0.028647749
190	0xbc862ec5	-0.016379723
191	0xbd3ed9d9	-0.046594474
192	0xbd8faae2	-0.07015015
193	0x3ba9250f	0.0051618884
194	0x3cb64823	0.022251194
195	0xbd8ab88c	-0.06773481
196	0x3cfc80f2	0.030823205
197	0xbc995d91	-0.018721374
198	0x3d894a8f	0.06703674
199	0xbd60ff3a	-0.054930903
200	0x3d4a3a98	0.049372286
201	0x3cf4da11	0.029889138
202	0x3dae89e7	0.085223965
203	0x3d773a4c	0.06035833
204	0xbdb88e9e	-0.09011577
205	0x3b68cb3f	0.0035521535
206	0x3d33278a	0.04373888
207	0x3d97373e	0.073835835
208	0x3d68653f	0.05673718
209	0xbd117569	-0.03551236
210	0x3d25865c	0.04041134
211	0xbc6d4305	-0.014481311
212	0x3d8b6762	0.06806828
213	0xbd26a6e1	-0.040686492
214	0xbd6ec70b	-0.05829529
215	0xbd6ffafb	-0.058588963
216	0xbd188609	-0.0372372
217	0x3d903fe8	0.07043439
218	0x3cd3e7fc	0.025867455
219	0xbda2ddf8	-0.079524934
220	0x3d290d36	0.041272365
221	0x3b4b8488	0.0031054337
222	0x3d9e5736	0.07731478
223	0xbd8f86a3	-0.07008102
224	0xbce24a98	-0.02762346
225	0xbd5ff2d1	-0.054674927
226	0x3d596953	0.05307896
227	0x3d3a84e3	0.045536887
228	0x3cb21062	0.021736328
229	0x3d6c9b3b	0.057765227
230	0xbceb42fd	-0.028718466
231	0xb983062a	-0.0002499086
232	0x3da6cc53	0.081444405
233	0x3d6e36bd	0.05815767
234	0x3b4e235a	0.0031454177
235	0xbcc8abe9	-0.024496036
236	0xbd11b258	-0.035570472
237	0x3c9d7dfd	0.019225115
238	0x3d69e48a	0.057102717
239	0x3d2e69a2	0.042581208
240	0xbcfa6021	-0.030563416
241	0xbd2dd88e	-0.04244285
242	0xbbc8d677	-0.006129082
243	0x3c96a8d4	0.01839105
244	0x3d99d53b	0.075113736
245	0x3c3d1050	0.011539534
246	0x3d613482	0.054981716
247	0xbbbc5f38	-0.0057486556
248	0x3bf6ce1a	0.0075318934
249	0x3d6e80d1	0.058228318
250	0xbcc42ce0	-0.02394718
251	0x3db0606f	0.08612143
252	0x3bb64577	0.00556248
253	0x3c20655f	0.009789794
254	0x3daf6def	0.0856589
255	0xbbf1e92b	-0.007382532

hidden_layer3.bias f4 [120]
0	0xbd13e17e	-0.036103718
1	0x3d83b132	0.06430282
2	0x3c577903	0.01315141
3	0xbd04aa2c	-0.03238885
4	0x3cb01b99	0.021497535
5	0x3a9a4ed6	0.0011772763
6	0x3d61cc5b	0.05512653
7	0x3bc02abf	0.0058644707
8	0x3c0515f7	0.008122913
9	0x3c8fa467	0.017534448
10	0x3c70d501	0.014699222
11	0xbcd5735b	-0.026055982
12	0x3d9f562c	0.07780108
13	0xbdac6444	-0.08417562
14	0xbda564e3	-0.08075883
15	0xbd5bd6a9	-0.053671513
16	0xbd5907e8	-0.052986056
17	0x3d22be70	0.039732397
18	0x3dc538fe	0.09630011
19	0xbc91325b	-0.017724207
20	0xbd9d2b2f	-0.07674252
21	0x3c2ed0cd	0.010669899
22	0xbdaa5b09	-0.08318145
23	0xbcfe6d02	-0.031057838
24	0xbd39bdd4	-0.04534705
25	0xbd2ec79c	-0.04267083
26	0x3d7d39cf	0.06182271
27	0x3be09b37	0.0068544406
28	0xbd31e2c3	-0.043429147
29	0xbd98c5fb	-0.07459637
30	0x3d774e3c	0.060377344
31	0xbb9d8bc9	-0.0048079235
32	0x3d4a92a2	0.049456246
33	0xbb8e9d0f	-0.004352219
34	0xbd564995	-0.052316267
35	0x3c6f41fd	0.014603135
36	0xbc008da7	-0.007846273
37	0xbaf88c81	-0.0018962772
38	0xbd52c650	-0.051458657
39	0x3c2dbbb7	0.010603837
40	0xbb80cc34	-0.003930593
41	0x3da85eeb	0.08221229
42	0xbadefe3c	-0.0017013024
43	0x3cb355d2	0.021891508
44	0xbd6f81b8	-0.05847332
45	0xbda9c12b	-0.08288797
46	0xbd8f130b	-0.06986054
47	0xbd5642a0	-0.052309632
48	0xbdb1cfe2	-0.086822286
49	0x3d829f19	0.06378002
50	0xbd545b51	-0.0518449
51	0xbdb6499f	-0.08900761
52	0x3d9c797e	0.0764036
53	0xbda141d2	-0.07873882
54	0x3d2a20f1	0.04153532
55	0x3d0c1812	0.034202643
56	0x3dab8f8d	0.083769895
57	0x3ce07d59	0.02740352
58	0xbc86f11d	-0.016472394
59	0x3cdbb744	0.026820786
60	0x3d602eb1	0.05473203
61	0x3d11b38e	0.035571627
62	0x3c0591e2	0.008152457
63	0xbaf692e8	-0.0018812092
64	0xbd632448	-0.055454522
65	0x3d8fa810	0.07014477
66	0x3cf0b449	0.029382842
67	0x3cda0d61	0.026617708
68	0xbda5be32	-0.080929175
69	0xbcfdc377	-0.030976994
70	0xbd6b6305	-0.05746748
71	0xbdc0ba2a	-0.09410508
72	0x3c510d71	0.012759552
73	0xbd06ba89	-0.032892738
74	0xbdbfd625	-0.09367017
75	0xbc41e853	-0.011835176
76	0xbd9e4d1b	-0.077295505
77	0xbc3be2ca	-0.011467645
78	0xbdc1cb95	-0.09462658
79	0x3d815dc5	0.06316713
80	0x3a113432	0.0005539089
81	0x3c92c190	0.017914563
82	0xbd31d4bb	-0.043415766
83	0x3da7daf0	0.08196056
84	0xbd0f0a73	-0.034922075
85	0xbd74440b	-0.059635203
86	0xbd5dff82	-0.05419875
87	0xbd7b868e	-0.06140762
88	0x3d6d2cbd	0.057903994
89	0x3d6fc5d8	0.058538288
90	0xbda7db41	-0.08196116
91	0x3d2dcb7e	0.042430393
92	0xbd94685c	-0.072464675
93	0xbdbbec6f	-0.091759555
94	0xbd548b53	-0.051890682
95	0x3d8418dc	0.06450054
96	0xbd1a29c6	-0.037637495
97	0xbd44302a	-0.047897495
98	0xbd8a1ee6	-0.06744175
99	0x3d9f8ed9	0.07790918
100	0xbd6134f8	-0.054982156
101	0x3d6bba5d	0.057550777
102	0xbd760f5e	-0.06007325
103	0xbd3dd51d	-0.04634582
104	0xbd820e6e	-0.063504085
105	0xbd2eccd1	-0.042675797
106	0x3ca82bd8	0.020528719
107	0x3d95a99d	0.07307742
108	0xbdbf5a18	-0.09343356
109	0xbd231dd8	-0.039823383
110	0x3cf9378e	0.030421998
111	0xbdadfef8	-0.08495897
112	0x3c96398c	0.018337987
113	0xbbe3d50c	-0.0069528874
114	0x3c486ab1	0.012232468
115	0xbd16db87	-0.03683045
116	0x3cda1f22	0.026626173
117	0xbda040c1	-0.07824851
118	0xbd3eb0c2	-0.046555288
119	0xbb871d52	-0.0041233683

output_layer.weight f4 [3, 120]
0	0xbd85ef2a	-0.065397575
1	0xbd1c4e34	-0.038160518
2	0xbc4c08bb	-0.012453253
3	0xbcb2feaf	-0.021849958
4	0xbda1959e	-0.07889865
5	0xbd547b1b	-0.051875215
6	0x3d019ba3	0.031642567
7	0x3c24a04b	0.010047982
8	0xbb86e519	-0.004116666
9	0x3d4e6e27	0.05039802
10	0xba54bc19	-0.0008115187
11	0xbd678aa0	-0.056528687
12	0x3ba44fc0	0.0050143898
13	0x3c317d13	0.010833043
14	0x3d838f11	0.06423772
15	0x3c8eed00	0.017446995
16	0x3d0af6e7	0.03392687
17	0xbc45587c	-0.012045022
18	0x3cdda750	0.02705732
19	0xbd8be2d4	-0.068303734
20	0xbd0b5a4c	-0.03402166
21	0xbba012f0	-0.00488507
22	0xbd77ade2	-0.060468562
23	0xbd50feca	-0.051024236
24	0x3da1c23c	0.078983754
25	0xbdb26047	-0.0870977
26	0xbc8c2782	-0.017108683
27	0xbd44b9be	-0.0480287
28	0xbcd45ead	-0.025924051
29	0xbd045385	-0.032306213
30	0xbd1a4ae6	-0.037669085
31	0x3d8cd0d7	0.068757705
32	0xbcc98f82	-0.024604563
33	0xbd9b0486	-0.07569222
34	0x3cc60512	0.02417234
35	0xbbfb448f	-0.007668085
36	0x3da28b8f	0.07936775
37	0x3d5a6eab	0.053328197
38	0xbd166600	-0.03671837
39	0xbcd81c28	-0.026380613
40	0x3d8ba96a	0.068194225
41	0x3c8ab4b3	0.016931867
42	0xbcc0413a	-0.023468602
43	0xbd4e0cb8	-0.0503051
44	0x3cb21c72	0.02174208
45	0x3d24af67	0.04020634
46	0xbda82fa0	-0.08212209
47	0xbd3d84c9	-0.046269212
48	0x3d2f0cab	0.04273669
49	0xbd913ce9	-0.07091696
50	0xbd7efccb	-0.0622528
51	0xbcc064fc	-0.023485653
52	0xbbb22908	-0.00543702
53	0x3d82fb64	0.06395605
54	0x3ca47fe5	0.020080516
55	0xbd2f6d94	-0.04282911
56	0x3d93ba6c	0.072132915
57	0xbbc51da4	-0.0060154963
58	0xbc8483c2	-0.016176108
59	0xbcde1439	-0.027109252
60	0x3ce76368	0.028245643
61	0x3ceba296	0.02876405
62	0xbd912ff5	-0.07089225
63	0x3cc6f640	0.024287343
64	0xbd77f6a5	-0.060537953
65	0xbda5b167	-0.080904774
66	0x3d915cfd	0.07097814
67	0x3d15b067	0.036545184
68	0x3da25a25	0.0792735
69	0xbd496692	-0.049170084
70	0xbdab6391	-0.083686
71	0xbd97480a	-0.07386787
72	0x3c2a7f0b	0.010406266
73	0xbd993f66	-0.074827954
74	0xbd8f490e	-0.06996356
75	0x3c66efdf	0.014095276
76	0x3d96f7c0	0.07371473
77	0xbcbe5e7a	-0.02323841
78	0xbd8191d6	-0.06326644
79	0xbd7cc450	-0.061710656
80	0x3cdfac2e	0.027303781
81	0x3bcc3281	0.0062316065
82	0x3cfa100c	0.03052523
83	0xbccc0d8e	-0.024908807
84	0x3ccf7395	0.025323668
85	0x3d75b75f	0.05998933
86	0x3d71cf24	0.059035435
87	0x3ce968d2	0.028492365
88	0x3cb83d2e	0.02249011
89	0xbc8a409c	-0.016876511
90	0x3d68925e	0.05678021
91	0x3cd842a5	0.026398966
92	0x3c9f4ff3	0.019447302
93	0xbc0725b6	-0.008248737
94	0xbc919b52	-0.017774258
95	0x3cd28942	0.025700215
96	0xbd4885c1	-0.048955683
97	0xbd98f8fa	-0.074693635
98	0xb90898c3	-0.00013026879
99	0xbd642721	-0.05570138
100	0xbd85e1c9	-0.06537206
101	0x3c8c9efa	0.01716565
102	0xbd1c444f	-0.03815108
103	0x3cf365fc	0.029711716
104	0x3b82a8d4	0.003987411
105	0xbd7d82b7	-0.061892238
106	0xbc96419c	-0.018341832
107	0xbd185fcd	-0.037200738
108	0xbd9963e3	-0.07489755
109	0xbd972680	-0.0738039
110	0x3cad1b19	0.021131085
111	0xbdb65f69	-0.08904917
112	0xbd945359	-0.0724246
113	0x3cd5c886	0.026096594
114	0xbd1eb079	-0.038742516
115	0xbc107368	-0.0088165775
116	0xbd4060d7	-0.046967354
117	0xbd3e8ba3	-0.046519887
118	0xbd4fc2c4	-0.050722852
119	0xbc837769	-0.01604815
120	0xbc6529e3	-0.013987037
121	0x3bc64e34	0.006051803
122	0x3d930d1a	0.07180233
123	0x3c789f5c	0.015174713
124	0x3d9dd64b	0.07706889
125	0x3d9d8b27	0.07692557
126	0xbd809624	-0.06278637
127	0x3c94696d	0.018116677
128	0xbba1c93e	-0.00493732
129	0xbae42cb6	-0.0017408344
130	0x3d7dd593	0.06197126
131	0xbdafa3b9	-0.085761495
132	0xbd6c33a5	-0.05766644
133	0x3d1e0303	0.03857709
134	0xbd70ad41	-0.058758978
135	0xbcd73398	-0.026269719
136	0xbd96200a	-0.0733033
137	0xbd40700a	-0.04698185
138	0x3cca8542	0.024721745
139	0xbc6a4a2d	-0.014299911
140	0x3cd38802	0.02582169
141	0xbc86b0ae	-0.01644167
142	0x3d282b72	0.041057058
143	0xbd375240	-0.044756174
144	0xbd76953a	-0.060200907
145	0xbd74c64f	-0.059759434
146	0x3d07f0e6	0.033188723
147	0x3d9ebbf8	0.07750696
148	0xbd54d645	-0.051962156
149	0xbcd84987	-0.026402248
150	0xbd6ac768	-0.057319075
151	0xbd715f52	-0.058928795
152	0x3b418689	0.0029529652
153	0xbd69f577	-0.05711886
154	0xbc6a84d3	-0.014313894
155	0xbd2ed6a2	-0.04268516
156	0x3b490631	0.0030673856
157	0xbd1dd660	-0.038534522
158	0x3c8f7fe0	0.01751703
159	0x3c0929fd	0.008371827
160	0xbd147af1	-0.03625006
161	0xbcfdc464	-0.030977435
162	0xbd92ee29	-0.07174332
163	0xbd090d00	-0.033459663
164	0xbd88b398	-0.0667488
165	0x3d801465	0.0625389
166	0x3cd5903e	0.026069757
167	0xbadb90eb	-0.0016751563
168	0xbb9a957a	-0.004717526
169	0x3d3821ac	0.044953987
170	0x3d2fd4b6	0.042927466
171	0xbc9fafb3	-0.01949296
172	0x3d383b57	0.044978466
173	0x3d666caa	0.056255974
174	0xbcca754a	-0.02471413
175	0x3d027b16	0.031855665
176	0x3d86324d	0.06552563
177	0x3d69c01c	0.057067975
178	0x3d574a4c	0.05256109
179	0xbd3b4c4c	-0.04572706
180	0xbd247a31	-0.040155593
181	0x3d802691	0.06257356
182	0xbd3f97a7	-0.046775486
183	0xbbac2ec7	-0.0052545997
184	0xbcf931d6	-0.030419271
185	0xbc3d48b5	-0.011552979
186	0xbd7b66ae	-0.06137722
187	0x3c217d04	0.009856466
188	0xbd6f21bb	-0.058381777
189	0xbd8a69a2	-0.06758429
190	0x3d6fea0b	0.05857281
191	0x3c9c6856	0.01909272
192	0xbd185dd8	-0.03719887
193	0x3d53fa2a	0.051752247
194	0xbc29f025	-0.010372196
195	0x3bf4d986	0.00747222
196	0x3b361c3b	0.0027787823
197	0xbdac25bb	-0.08405634
198	0x3d93c84e	0.072159395
199	0x3d51a2bc	0.051180586
200	0xbdabc687	-0.083874755
201	0x3d0c666e	0.034277372
202	0x3c8af2a7	0.016961409
203	0x3d9d457c	0.07679269
204	0x3da6774e	0.08128224
205	0x3d123c13	0.035701822
206	0xbcf3f1b7	-0.029778345
207	0x3c08b019	0.008342766
208	0xbd846adb	-0.064656936
209	0x3d7b532e	0.061358623
210	0x3d094cef	0.033520635
211	0xbdab26f4	-0.08357039
212	0xbd4a0190	-0.049317896
213	0x3d6987cb	0.057014268
214	0xbbffd854	-0.0078077707
215	0xba3d7e77	-0.00072286226
216	0x3d7b907c	0.061417088
217	0x3cd01dae	0.025404777
218	0x3ce83ec9	0.02835025
219	0x3d88c783	0.06678679
220	0x3ce75dae	0.028242912
221	0xbd3aaa9f	-0.045572873
222	0x3bda86ca	0.0066689
223	0x3d2f5e40	0.042814493
224	0xbda3b1f3	-0.079929255
225	0x3c8f562d	0.017497147
226	0x3d8d1950	0.068895936
227	0x3c7d0f15	0.01544549
228	0xbcce5297	-0.025185866
229	0x3d5d8ad2	0.054087467
230	0xbda11527	-0.078653626
231	0x3d8d6421	0.06903864
232	0xbd2c959c	-0.042134866
233	0x3d473fd9	0.048644874
234	0x3bdf07ed	0.0068063647
235	0x3d0f747d	0.0350232
236	0x3daab441	0.08335162
237	0xb95a2af3	-0.000208061
238	0x3d753d9b	0.059873205
239	0xbd845230	-0.064609885
240	0xbda9fc67	-0.08300095
241	0xbd1d476f	-0.038398203
242	0x3c2177b7	0.009855202
243	0xba8f431e	-0.0010930037
244	0x3d946850	0.072464585
245	0xbdadb66b	-0.08482059
246	0xbd5eddf9	-0.05441091
247	0x3d54c058	0.051941246
248	0x3d91575b	0.0709674
249	0x3cfb8ca6	0.030706715
250	0x3ce5b075	0.028038243
251	0xbda0df68	-0.07855111
252	0xbd913b6a	-0.070914105
253	0xbd12e742	-0.035865076
254	0xbd2f3a06	-0.042779945
255	0xbd4f57fd	-0.05062102

output_layer.bias f4 [3]
0	0xbd0bcb87	-0.034129646
1	0x3ba38cca	0.0049911486
2	0xbc11d5da	-0.008901084
