Ricci_flow_autoenc_Burgers_eq/Parameters/parameterization.pth (torch, 168940 bytes, 8 tensors)

hidden_layer1.weight f4 [120, 100]
000000 3e ee 42 bd d3 3b 49 bd 52 73 4d bd 3f 85 4f bd
       -0.047590487 -0.04912932 -0.050158806 -0.050664183
000010 74 b3 4f bd f6 c5 4e bd eb 19 4b bd b6 49 45 bd
       -0.05070825 -0.05048176 -0.049585264 -0.048166
000020 23 45 3e bd 83 43 36 bd d2 ab 2d bd ef 41 23 bd
       -0.046452653 -0.044497978 -0.04240019 -0.0398578
000030 39 da 17 bd 21 94 0c bd c5 6c 02 bd e6 93 f3 bc
       -0.037073348 -0.034320954 -0.031842012 -0.02973361
000040 fe 6f e5 bc f1 24 da bc 0c d1 d1 bc 05 a1 cb bc
       -0.028007504 -0.026628943 -0.025612377 -0.024857054
000050 8e 14 c8 bc 18 dd c5 bc 3b 06 c5 bc c1 78 c5 bc
       -0.024423864 -0.024153277 -0.024050822 -0.024105432
000060 ac df c5 bc 4d f4 c5 bc df a4 c5 bc 9c c7 c2 bc
       -0.024154507 -0.024164343 -0.024126468 -0.023776822
000070 13 05 bf bc 8d 7d b7 bc 93 9b ad bc a1 26 a0 bc
       -0.02331785 -0.022398734 -0.021192348 -0.01954967
000080 d2 4f 8f bc 7d ec 74 bc 48 9a 44 bc f9 b7 0d bc
       -0.017494116 -0.014948961 -0.011999674 -0.0086498195
000090 bb a1 a0 bb ed 66 5f ba 99 13 60 3b a7 d9 01 3c
       -0.0049020923 -0.0008522112 0.0034191369 0.0079254275
0000a0 6d e0 4d 3c ff 63 8d 3c 9c 6b b3 3c 3c f7 d7 3c
       0.012565714 0.017259596 0.021901898 0.026363008
0000b0 c6 3d fb 3c 6e c9 0d 3d ed fd 1c 3d bf 09 2a 3d
       0.030669104 0.034615926 0.0383281 0.0415132
0000c0 62 7f 35 3d 60 c6 3e 3d bd 52 46 3d 5a 7b 4b 3d
       0.044310935 0.046575904 0.04841875 0.049678184
0000d0 45 a5 4e 3d 27 d8 4f 3d 74 8f 4f 3d 43 24 4d 3d
       0.050450582 0.05074325 0.050673917 0.05008341
0000e0 ca 98 48 3d 3b f8 41 3d 4a 47 3a 3d 05 6d 32 3d
       0.048973836 0.04735587 0.045478143 0.043561
0000f0 74 9e 28 3d c7 9f 1d 3d 59 1c 12 3d d0 54 07 3d
       0.041166738 0.038482454 0.035671566 0.033039868
000100 00 ca fb 3c 82 16 ec 3c e2 6b df 3c 48 c7 d5 3c
       0.03073597 0.028819326 0.027273122 0.026096001
000110 f9 97 ce 3c 36 ab c9 3c 93 ca c6 3c bc 70 c5 3c
       0.02521895 0.024617773 0.024266517 0.024101608
000120 6d 97 c5 3c 88 c6 c5 3c 19 2d c6 3c 92 8b c5 3c
       0.024120057 0.024142519 0.024191426 0.024114404
000130 41 09 c4 3c d7 eb c0 3c 8b 9f bb 3c 19 57 b3 3c
       0.023930194 0.023549957 0.022903224 0.021892117
000140 c6 41 a7 3c f5 83 98 3c 75 64 85 3c c7 8b 5d 3c
       0.020417105 0.01861761 0.016283253 0.013522095
000150 1b e3 29 3c 6b 03 df 3b bd fc 3e 3b 00 86 a5 ba
       0.010369088 0.0068058274 0.0029142343 -0.0012628436
000160 02 27 b9 bb 01 9b 27 bc 98 59 74 bc 45 74 a0 bc
       -0.005650402 -0.010229827 -0.014913939 -0.019586692
000170 fe 27 c6 bc 23 8d e9 bc cb cc 05 bd 89 b5 15 bd
       -0.024188992 -0.028509682 -0.03266601 -0.03655008
000180 c6 84 23 bd e5 d8 2f bd 8f 8f 3a bd da f0 42 bd
       -0.039921544 -0.042931456 -0.045547064 -0.047592975
000190 9d 6c fe bc 9d 97 06 bd 47 ff 0c bd d3 76 12 bd
       -0.03105765 -0.032859433 -0.03442314 -0.03575785
0001a0 86 0e 17 bd dd cf 1a bd 29 c2 1d bd 55 e2 1f bd
       -0.036879085 -0.03779589 -0.038515244 -0.039034206
0001b0 c5 22 21 bd 59 22 22 bd a9 e0 20 bd c0 7c 1c bd
       -0.0393398 -0.039583538 -0.039276753 -0.03820491
0001c0 89 45 15 bd 3a 84 0b bd 71 98 02 bd d7 b5 f6 bc
       -0.036443267 -0.034061648 -0.03188366 -0.030116005
0001d0 d8 74 eb bc fd fc e2 bc 16 ec dc bc b7 e5 d8 bc
       -0.028742239 -0.027708525 -0.026968043 -0.026476724
0001e0 c4 91 d6 bc 37 90 d5 bc 96 85 d5 bc 0c fb d5 bc
       -0.026192553 -0.026069744 -0.026064675 -0.026120685
0001f0 29 85 d6 bc e5 ad d6 bc ea f7 d5 bc ec eb d3 bc
       -0.026186543 -0.026205966 -0.026119191 -0.025869332
000200 01 19 d0 bc 05 18 ca bc 4e 91 c1 bc 5f 48 b6 bc
       -0.025402548 -0.024669657 -0.023628857 -0.022251306
000210 68 f1 a7 bc ff 70 96 bc a0 7d 82 bc ce 72 58 bc
       -0.020500854 -0.018364428 -0.015929043 -0.013210965
000220 78 8a 27 bc be ed e5 bb 3c 53 6e bb f2 86 16 b9
       -0.010225885 -0.0070168665 -0.003636553 -0.00014355386
000230 ea e0 5e 3b db 5a e3 3b b0 9d 2a 3c 9e bd 61 3c
       0.003400857 0.006938321 0.010413572 0.013778118
000240 7a 22 8b 3c 63 f0 a3 3c d3 39 bb 3c 99 d7 d0 3c
       0.016984213 0.020012086 0.022854721 0.02549343
000250 b2 82 e4 3c 4d 42 f6 3c ce 05 03 3d f2 e9 09 3d
       0.027894352 0.030060912 0.031987958 0.033670373
000260 5b d8 0f 3d 5b de 14 3d 25 0a 19 3d 41 62 1c 3d
       0.035118442 0.036344867 0.03736319 0.03817964
000270 f9 ec 1e 3d 9d 9f 20 3d d5 8e 21 3d fd c1 21 3d
       0.038800213 0.03921472 0.039442856 0.039491642
000280 a4 f3 1e 3d 05 a9 19 3d 40 6a 10 3d 6a dc 06 3d
       0.038806573 0.037514705 0.035257578 0.032925047
000290 a1 85 fd 3c e0 b4 f0 3c 1b e7 e6 3c b8 ad df 3c
       0.030947508 0.029383123 0.028186372 0.027304515
0002a0 3d ac da 3c 63 8a d7 3c a3 ed d5 3c 01 72 d5 3c
       0.026693458 0.026311105 0.02611429 0.026055338
0002b0 d2 b6 d5 3c 1f 46 d6 3c 38 ad d6 3c c7 71 d6 3c
       0.026088152 0.026156483 0.026205644 0.0261773
0002c0 33 22 d5 3c c6 41 d2 3c 41 61 cd 3c eb 29 c6 3c
       0.026017284 0.025666129 0.025070788 0.02418991
0002d0 ad 49 bc 3c e0 83 af 3c 42 89 9f 3c 2a c1 8c 3c
       0.02298435 0.021425188 0.01947463 0.017181952
0002e0 16 49 6f 3c a2 80 40 3c 7d aa 0d 3c d8 22 af 3b
       0.014604827 0.011749418 0.008646605 0.00534473
0002f0 81 0e f9 3a 31 2a d5 ba e4 86 a9 bb e6 50 0e bc
       0.0019001515 -0.0016263184 -0.005173551 -0.00868628
000300 9e 70 46 bc d5 5e 7c bc 4d b6 97 bc 3a ca af bc
       -0.012111811 -0.015403469 -0.018519545 -0.021458734
000310 65 3d c6 bc 7f e5 da bc d2 a1 ed bc da 60 fe bc
       -0.024199197 -0.02672076 -0.029007826 -0.031052042
000320 6a 7e 42 bc e5 c2 4f bc 2e 28 5b bc 01 8a 64 bc
       -0.01187096 -0.012680744 -0.013376279 -0.013948918
000330 38 d5 6b bc 32 1b 71 bc 42 a2 74 bc ed 43 77 bc
       -0.014394097 -0.0147159565 -0.014931263 -0.015091878
000340 45 ef 79 bc 7f 12 80 bc c8 82 84 bc 74 a2 88 bc
       -0.0152548 -0.01563382 -0.016175643 -0.016679026
000350 95 e5 82 bc 41 a9 69 bc ab ce 50 bc 8f ca 40 bc
       -0.015978614 -0.014261545 -0.012744586 -0.011767044
000360 b1 46 37 bc ac d2 31 bc 7f f1 2e bc a7 c3 2d bc
       -0.011186288 -0.010853451 -0.010677694 -0.010605729
000370 59 ba 2d bc 74 6a 2e bc 34 79 2f bc 6e 91 30 bc
       -0.010603511 -0.010645498 -0.010710049 -0.010776861
000380 23 60 31 bc 29 91 31 bc 50 d1 30 bc 87 cf 2e bc
       -0.010826143 -0.010837832 -0.0107920915 -0.010669596
000390 f2 40 2b bc c5 e5 25 bc 89 91 1e bc 86 52 15 bc
       -0.010452496 -0.010125582 -0.009678253 -0.009113913
0003a0 c8 f1 0b bc c0 f7 fc bb 09 60 de bb 8e 87 b9 bb
       -0.008541532 -0.007719964 -0.0067863506 -0.0056619113
0003b0 64 fc 93 bb 0d 3f 5a bb 31 7e 08 bb 47 83 4d ba
       -0.0045161713 -0.0033301741 -0.002082717 -0.0007839691
0003c0 d9 eb 0f 3a d9 5d f8 3a c3 f7 53 3b 2e 3e 95 3b
       0.0005490161 0.0018948867 0.0032343722 0.0045545315
0003d0 66 75 bf 3b 79 36 e8 3b 3a a5 07 3c 8a 28 1a 3c
       0.0058428524 0.007086572 0.008279139 0.009409079
0003e0 e8 67 2b 3c b1 34 3b 3c 89 59 49 3c da b4 55 3c
       0.010461785 0.011426137 0.012289413 0.013043607
0003f0 b0 19 60 3c 90 71 68 3c 34 b6 6e 3c 11 0f 73 3c
       0.013677999 0.014187232 0.014569808 0.014835135

hidden_layer1.bias f4 [120]
000000 39 02 a5 3d da 0b 67 3d 55 16 eb 3c d4 c8 82 3d
       0.080570646 0.056407787 0.028697172 0.06385961
000010 67 e1 b9 b9 6f a2 cd 3c 0b eb e0 39 3e 0f 15 3e
       -0.00035453888 0.025101868 0.0004289973 0.14556596
000020 34 af 89 3d d3 d7 75 3a e6 ca 61 3e ca 40 ec 3d
       0.067228705 0.00093781686 0.22050056 0.11535795
000030 85 11 96 3c 04 d0 53 3a 4d 58 cb 3c e0 de 47 3e
       0.0183189 0.0008080008 0.024822379 0.19518614
000040 3b af 00 3d f7 e4 91 3d 3c b9 5b 3d 61 a1 18 3e
       0.031417113 0.0712375 0.05364345 0.14905311
000050 07 4d 80 3d 2c 02 11 3e 92 95 c3 3d 5c fd 86 3d
       0.06264692 0.14160985 0.09550013 0.06591293
000060 70 de 42 3d 1d 4d 81 3e 06 c7 72 3a 18 fb 7e ba
       0.047575414 0.25254145 0.0009261224 -0.0009726747
000070 75 e4 98 3a 16 9b 6d 3d 08 89 16 3e cc be 6c 3d
       0.0011664765 0.05800923 0.14700711 0.057799146
000080 34 cd 1c 3e 2d 23 28 3e 2c 7d b4 3d 21 2d 97 3c
       0.15312654 0.16419668 0.08812937 0.018454136
000090 aa ae a8 3d 81 07 42 3e 5c 6d b7 3d ed 15 b5 3d
       0.082364395 0.18948175 0.089564055 0.08842073
0000a0 2b 91 9f 3d e8 fc 10 3d 48 67 4f 3b 2d 68 01 3e
       0.077913605 0.03539744 0.0031647254 0.12637396
0000b0 80 49 32 3d 26 f5 29 3e d5 ca c0 3d bf 06 84 3a
       0.043527126 0.16597423 0.09413687 0.0010072811
0000c0 70 98 8d 3a 0f 1d 5a 3d 9f e0 a2 3d d9 7c 92 3d
       0.0010802876 0.05325037 0.07952999 0.07152719
0000d0 e6 6a 81 3d 25 50 97 3d e2 65 89 3e 32 8a d0 3a
       0.063192174 0.07388333 0.26835543 0.0015910326
0000e0 57 62 a8 ba 30 5e b3 3d 23 a1 b3 3d 66 5b 9d 3d
       -0.001284669 0.08758199 0.08770969 0.076834485
0000f0 4b 10 33 3e 71 35 e8 3d fc f7 a8 3d 72 f4 2a 3e
       0.17486684 0.11338318 0.08250424 0.16694811
000100 d1 e5 c4 3d b9 96 bb 3d ce 64 4e 3d 24 13 85 3d
       0.096141465 0.091596074 0.050389104 0.064977914
000110 c2 34 bc 3d d9 60 a6 3e 26 76 02 3d db 5c 00 3d
       0.0918975 0.32495764 0.031850956 0.031338554
000120 5a 24 f2 3d 7f c1 02 3a b9 02 42 3d 34 c8 31 3e
       0.1182334 0.00049879396 0.047365878 0.17361528
000130 4a 1b df 3d 63 5c e9 3d 5b b9 30 3e 5c d5 c8 3d
       0.10893877 0.113945745 0.17258207 0.0980632
000140 78 97 e9 3d ec 44 06 3e db ce 36 3d c2 b2 9d 3a
       0.114058435 0.13112229 0.044630866 0.0012031423
000150 68 50 58 3e e0 fd 02 3e 5a fc 72 3d 61 69 9a 3c
       0.21124423 0.12792158 0.059322692 0.018849077
000160 f8 c0 93 3d 30 46 65 3d 29 11 6c bb 63 df be 3a
       0.0721454 0.05597514 -0.003602097 0.0014562424
000170 d6 83 76 3e 8d 12 e5 3c 3d 9d eb 3d 8b 36 25 3e
       0.24073729 0.027962947 0.115046 0.16134088
000180 fe 8e 22 3e bc e4 b8 ba 82 75 0d 3e 6e a6 09 3e
       0.1587486 -0.0014106254 0.13814357 0.13442394
000190 ea bc 21 3e af e5 01 3e 66 ba 9b 3d e7 e4 05 3e
       0.15794721 0.12685274 0.07603912 0.130756
0001a0 0a 49 4e 3e 66 ce 3e 3d c3 01 38 3d 77 dc 12 3e
       0.2014505 0.046583556 0.044923555 0.14341913
0001b0 d6 72 6e 3e 70 23 99 3d 4f 95 03 3d d0 6a 16 3e
       0.23285994 0.07477462 0.032124814 0.14689183
0001c0 48 19 0a 3e f4 27 55 3e 3a e8 ab 3b f6 16 1d 3e
       0.13486207 0.20816022 0.0052461894 0.1534079
0001d0 48 05 16 3d 11 1e 1d ba 47 a0 90 ba d7 8c 2e 3a
       0.03662613 -0.0005993555 -0.0011034094 0.000665856

hidden_layer2.weight f4 [120, 120]
000000 2b b3 b4 3c 82 5d 81 3c 59 c0 ce 3b bd af e1 3c
       0.02205809 0.015791658 0.0063095507 0.027549619
000010 cc ec f0 37 e3 a0 22 3b 57 43 82 39 e5 8c a1 3c
       2.8720497e-05 0.0024815134 0.00024845704 0.019720504
000020 5f 6a 8c 3c c3 6e 00 b9 c4 3a 61 bc 9c dc 57 bc
       0.017140565 -0.00012248293 -0.013746921 -0.013175156
000030 a8 af 43 3c cc 92 c8 b8 24 95 48 3c a6 8d 3e 3a
       0.011943735 -9.564086e-05 0.012242589 0.0007269032
000040 5d 96 1b 3b 2b 24 71 3c cb e0 60 3c ba b8 b9 bb
       0.0023740747 0.014718096 0.01372547 -0.005667773
000050 5e 33 bb 3a 24 da 29 ba 51 c6 4f 3d 2f 72 04 3d
       0.0014282276 -0.0006479344 0.05072624 0.032335456
000060 bd 0d 4f 3c 17 86 23 bc 3a e7 46 b8 ae 7b 73 36
       0.012637553 -0.0099807 -4.7422225e-05 3.6281813e-06
000070 52 c3 c3 b8 0b b8 c1 ba b5 ad a1 3c 02 f1 c5 3b
       -9.334706e-05 -0.001477958 0.01973615 0.0060406933
000080 35 ef 35 bb 89 1a 9c 3c 2f 79 00 3b f0 9d d9 3a
       -0.0027760987 0.019055622 0.001960348 0.0016602855
000090 c9 fd 38 3c aa 10 c7 bb 53 e4 8b 3c 36 bc d2 3c
       0.011290976 -0.0060749846 0.017076647 0.025724512
0000a0 53 52 d8 3b dc 21 76 3b 57 2e 58 3a 79 23 54 3c
       0.0066016107 0.0037556803 0.0008246651 0.01294791
0000b0 33 77 6d 3c 9f da 7a 3b 08 2e 58 3c e6 e8 e0 b8
       0.014493751 0.003827728 0.013194568 -0.00010724533
0000c0 5d c6 c2 b8 a7 48 4f bb 3d 6b 38 3c 13 69 c8 3b
       -9.287589e-05 -0.0031628998 0.011256036 0.0061160414
0000d0 7b 1c b5 3c 3c 77 2f 3c 35 2a 03 3d 73 16 19 3b
       0.022108307 0.01070958 0.032022674 0.0023359328
0000e0 c5 c7 b7 38 2b e6 ef ba 98 ef 74 3b af f8 04 3d
       8.76333e-05 -0.0018302848 0.0037374254 0.032463726
0000f0 67 29 30 3b 76 0b 78 3c 7a 4b d9 ba 2c 70 82 3b
       0.0026880146 0.015139451 -0.001657828 0.003980657
000100 23 92 f2 3b 0b 05 53 bc 8f 86 84 ba 14 b1 fa 3b
       0.0074026748 -0.01287962 -0.0010110902 0.007650504
000110 50 0d ff b8 30 59 8e bc 3e 06 9a 3a ed a0 07 3b
       -0.00012161827 -0.017376512 0.0011751128 0.0020695284
000120 bf 60 15 3c 12 2b 1f 39 ab b4 7a 3c b5 eb 58 3b
       0.009117304 0.00015179467 0.015301864 0.0033099477
000130 99 ad 89 3c 26 0a 95 3c 9d f8 89 bb a7 24 25 3b
       0.01680641 0.018193316 -0.004210545 0.0025198848
000140 c8 de 44 bc d4 4d 92 3c 9a 8f 3c 3b 43 bc 8d b8
       -0.012016006 0.017859377 0.0028772117 -6.7584704e-05
000150 42 2c e9 bb ac 36 c5 3c e8 be 91 3b 09 8c 4a 3c
       -0.0071158716 0.024073921 0.0044478066 0.012362489
000160 ef b0 b8 3b b9 54 a3 3b e2 90 3c 3b 84 09 81 38
       0.0056363265 0.004984465 0.002877288 6.152972e-05
000170 46 a7 73 bc 42 dd 20 3b a4 17 3b 3d 07 19 2e bb
       -0.014871424 0.0024545942 0.045676842 -0.002656521
000180 9c 88 ad 3c 79 fb 81 38 b2 f5 81 3c 3e 25 18 3c
       0.021183304 6.19804e-05 0.015864227 0.009286223
000190 f4 24 d7 3c 38 83 bc 3c 2c b5 1c 3c 3c e1 8a 3b
       0.026262738 0.023011789 0.009564679 0.004238276
0001a0 53 6a 92 bb 9b f5 07 3b a5 ed d6 3b a4 ed 2c bc
       -0.0044682412 0.0020745758 0.006559091 -0.010554705
0001b0 22 b5 ee bb ea a9 da 3d 00 69 3d 3b 88 f2 ad 3c
       -0.0072847763 0.1067694 0.0028901696 0.021233812
0001c0 99 46 a7 3c c0 a0 01 bb 6c ea 29 3b 3a aa 5a 3d
       0.020419406 -0.0019779652 0.002592708 0.053384997
0001d0 28 43 0e 3c 7c 21 0c b8 c3 c1 ea 38 95 78 18 b9
       0.0086830035 -3.3409786e-05 0.000111940804 -0.0001454077
0001e0 0e 76 1b bc 8a a7 05 bc 6b 18 d4 ba d2 7f 3e bc
       -0.009488596 -0.00815762 -0.0016181594 -0.011627154
0001f0 f4 92 de b7 ef 3e f4 ba 13 39 c4 36 f3 e5 3b bc
       -2.6532893e-05 -0.0018634478 5.8478995e-06 -0.011468398
000200 88 31 0f bc 5f 8a 8d 39 8c 1f 1e 3d b9 16 44 3d
       -0.0087398365 0.0002699671 0.038604304 0.047873233
000210 87 e6 bd bb 79 fd 2a 39 6d 0c c6 bb cc 56 84 3c
       -0.0057953033 0.0001630689 -0.0060439617 0.01615467
000220 70 aa 01 3b 12 69 fa bb 26 be e4 bb 54 4b 73 3c
       0.0019785427 -0.00764192 -0.0069806753 0.014849503
000230 f7 c2 cc 3b 30 d9 3e 3c de 99 82 bc 7f 99 48 bc
       0.0062488276 0.011648461 -0.01594251 -0.012243628
000240 f4 8e cb bb 40 52 04 3d ce 35 c4 b7 2a c6 e5 38
       -0.0062121097 0.032305002 -2.3390076e-05 0.00010956482
000250 b6 d6 53 39 80 ab 91 3b 37 da 3b bc 8d 3d 1c 3c
       0.00020202514 0.004445493 -0.011465601 0.009536159
000260 7d 27 6e 3c cb e0 3d bc ba ef cb 3b 0c c5 a6 ba
       0.014535782 -0.011589239 0.006223646 -0.001272352
000270 26 ad 97 bb b8 e3 b6 3c fa a6 17 bc d1 82 33 bc
       -0.004628795 0.022325382 -0.009256119 -0.010956482
000280 7b 3c 88 ba c7 79 59 3b 4a c9 43 ba 52 4a ba bb
       -0.0010394001 0.0033184157 -0.0007468654 -0.005685129
000290 d2 26 f4 bb 71 1b 3e 3c 5a 50 04 3c e7 bb 7b 39
       -0.007450917 0.011603222 0.008075798 0.00024007224
0002a0 7c aa 3a 39 53 40 2c 3c cd fa 97 bb 09 b0 24 3c
       0.00017801853 0.010513383 -0.004638052 0.010051736
0002b0 1a e7 22 bc 4e 22 08 3c 45 7e a2 bc 58 6f 3b 3a
       -0.009942794 0.00830896 -0.0198356 0.00071500754
0002c0 33 23 07 b9 ec e2 b6 3c 7f ff 72 3c f3 97 53 bc
       -0.00012887716 0.022325002 0.014831423 -0.0129146455
0002d0 36 e1 5b 3c e6 db 07 bc ea 1f 0a 3c 40 2a 1b 3c
       0.013420394 -0.008292174 0.0084304605 0.009470522
0002e0 17 e9 42 3a 20 90 4b 3d 4a 81 7f 3b e1 8b 10 3c
       0.0007435246 0.049697995 0.0038986974 0.008822412
0002f0 c2 1e 91 3c b5 a7 5e 3d 33 ac 5a 3b 8b 36 06 3b
       0.017714862 0.054359157 0.00333668 0.0020479287
000300 3f 20 df 3a 5e 1e ba 38 85 03 00 bc 12 ec 3d 3c
       0.001702316 8.8748275e-05 -0.007813339 0.011591928
000310 e7 b3 19 bc 14 c9 bc 3b 3f b9 9b 3c 7c 6c c0 3b
       -0.009381271 0.005761275 0.01900923 0.0058723073
000320 10 bb 38 3d 0a bc 28 bc 87 6f fb 3a ef 43 38 39
       0.04510027 -0.010298738 0.0019183018 0.00017572915
000330 2f b7 d2 3c 0d 77 c0 ba e8 28 1e 3c 5d d0 c4 bb
       0.025722114 -0.0014683917 0.0096533075 -0.006006284
000340 72 4b 36 3c 6f 7a e3 3b 7d 1a 9b 3a e2 97 30 b8
       0.011126386 0.0069420855 0.0011833456 -4.210312e-05
000350 e7 d7 30 3d a7 07 20 3b 9a 08 48 bc c2 51 87 3c
       0.04317465 0.0024418624 -0.012209082 0.016518477
000360 4d 63 4b bc 83 99 d5 b8 61 45 1b bc 31 52 da 3a
       -0.012413812 -0.00010185225 -0.00947699 0.0016656575
000370 01 18 c6 37 9d 69 32 bc 4b 86 03 3c 5a 16 0e 3c
       2.3614617e-05 -0.010889438 0.008027623 0.008672321
000380 e7 71 c2 3c e9 29 1e 3b 52 9f a6 3b 72 2c b3 3c
       0.023735953 0.0024133867 0.0050849104 0.02187178
000390 0a db e6 3c 51 7b df bc 0d 47 e1 3a 6d e2 43 bc
       0.028180618 -0.027280482 0.0017187312 -0.01195584
0003a0 e1 2c 3a bc fc e1 ad 3c f9 8c 3f bb ac e9 42 bc
       -0.011363239 0.021225922 -0.0029228313 -0.011896532
0003b0 61 8e 59 bb 99 4f 1f 39 21 3a cb b8 04 b0 59 39
       -0.0033196437 0.00015193074 -9.690622e-05 0.00020760304
0003c0 33 b7 c6 3c 0a e9 85 3c 91 e2 d8 3b 44 2f 01 3d
       0.024257278 0.016346473 0.0066188057 0.031539217
0003d0 de fc 91 37 9e b5 58 3b 6f be aa 39 bb 0c a8 3c
       1.7403097e-05 0.0033067237 0.0003256681 0.020513883
0003e0 62 b6 92 3c 3e 40 d5 b8 64 a8 4d bc e0 92 64 bc
       0.017909233 -0.000101685975 -0.0125523545 -0.013951033
0003f0 52 2d 4b 3c a5 86 a3 b8 65 a1 4c 3c 1f f5 d7 ba
       0.012400942 -7.797525e-05 0.012489651 -0.001647625

hidden_layer2.bias f4 [120]
000000 fb dc a8 3c 66 39 ec 3a 3e 7f db 3c 54 91 09 3d
       0.020613184 0.0018022477 0.026794072 0.03358586
000010 7a b9 50 3c 7d 05 c8 3d f3 12 1d bb f5 80 8f 3d
       0.012739534 0.09766672 -0.0023967593 0.070070185
000020 09 ac b4 3b fd 12 b7 3d 7e 4a 69 3c 82 2c 9f 3d
       0.0055136723 0.089391686 0.014238952 0.07772161
000030 0e cf 0c 3e 8c 9b 2d 3e ef 5c df 3d 83 52 92 3d
       0.1375086 0.16953868 0.109063976 0.07144644
000040 f1 e2 9c b9 66 88 d9 3c cd 4b e9 3d 9a f4 54 bc
       -0.00029923723 0.026554298 0.11391411 -0.012997771
000050 a3 8b 8a 3c 4f 5f 02 3c f7 79 0d bb e3 1a 39 3d
       0.016912287 0.007957294 -0.002158759 0.045191657
000060 ad 93 63 3d d5 4a ed 3b e0 de 54 bc 86 ce b7 3c
       0.055560756 0.0072415867 -0.012992591 0.022437345
000070 0e 7d d6 3b 04 55 51 3c ea 79 68 3b d1 21 5e 3c
       0.0065456694 0.012776617 0.0035473057 0.013557867
000080 2d ce 1f 3b e4 b6 51 3c a3 98 dd 3c f4 d8 5a 3c
       0.0024384365 0.012799952 0.027050322 0.01335739
000090 e6 2c 0b 3d 99 23 10 3d 2f df b0 3c de e1 5b 3c
       0.033978365 0.0351902 0.021590797 0.01342055
0000a0 13 c6 56 3c 65 6a 8a 3d 19 f5 11 3e 3c d6 57 3c
       0.013108748 0.067585744 0.14253654 0.013173636
0000b0 a9 d1 a5 3c 5d 3f ec 3c 14 be e3 3c d8 00 ef 3d
       0.020241575 0.028838808 0.027800597 0.11670083
0000c0 1c 1c 26 3c 23 74 4d 3c 40 20 de 3c e7 e2 55 3c
       0.010138538 0.012539896 0.027114987 0.013054586
0000d0 29 99 96 3c 94 48 27 3d e2 1f cf 3d 5b b0 69 3c
       0.01838358 0.0408407 0.10113503 0.014263238
0000e0 ce 2b 47 3d c8 54 bc 3c 11 bc c3 3c 81 bd ac 3e
       0.04862576 0.022989646 0.023893388 0.3373833
0000f0 cf f7 a9 3c 0f 3c 54 bc bb f4 90 3d 7d e7 42 bc
       0.020748047 -0.012953772 0.07077929 -0.011896011
000100 a5 54 76 3d c7 82 58 3d c0 d9 97 3c 5f 83 b4 3b
       0.060139317 0.052859094 0.018536448 0.0055088247
000110 73 27 17 3c 06 4c c7 3c 1c da 1c 3b f7 03 fe 3b
       0.009225714 0.024328243 0.0023933714 0.0077519375
000120 76 3b 54 bc 69 d9 f7 3b 37 3e 5f 3c 4d 3c ca 3c
       -0.01295363 0.007563759 0.013625673 0.024686957
000130 68 9a df 3b 88 2b 2a 3d 91 72 62 3b c3 7f 3f 3c
       0.0068238266 0.04154542 0.003455315 0.011688176
000140 01 2c 93 3c 40 1d 00 3d 93 90 56 3c 93 d2 d8 3c
       0.017965319 0.031277895 0.013095993 0.026467597
000150 3b 77 59 bc 47 d2 8f 3c e8 c7 e5 3c 4c 57 97 3c
       -0.013273056 0.017556323 0.028049424 0.018474244
000160 8c bb 4f 3c 0c 96 20 3c a6 1c 89 3c 69 5c 6f 3c
       0.012678992 0.009801399 0.016737293 0.014609435
000170 18 df 8f 3c 26 c9 7d 3d 17 49 33 3c 45 08 de 3d
       0.017562434 0.06195941 0.010942719 0.10841421
000180 ed 79 e0 3c 30 08 51 3c ee e7 09 3d b6 e4 26 3d
       0.027401889 0.0127583 0.03366845 0.04074546
000190 7e 1d 3e 3c d6 24 58 bc 87 f3 32 3c 7a 0e ba 3d
       0.011603711 -0.013192376 0.010922319 0.090847924
0001a0 f5 9c 22 3a 61 ec f1 3c 15 b8 24 3c 5a 66 5a 3c
       0.0006203198 0.02953166 0.010053654 0.013330067
0001b0 4f 8d b6 3d 23 81 dd ba f3 ef 74 3c fe ac 7b 3d
       0.08913671 -0.0016899448 0.0149497865 0.061444275
0001c0 75 e4 24 3e a1 1f 8d 3c 4e 38 57 3d 76 bf f3 3c
       0.16102774 0.017226996 0.05254393 0.029754382
0001d0 52 a0 1f bc 22 85 5f 3d 2b f6 d7 3b 4d c1 3d 3d
       -0.009742813 0.054570325 0.006590625 0.046326924

hidden_layer3.weight f4 [120, 120]
000000 40 cf 36 3c f2 26 00 bb 7d 16 3f 3c f7 9c b2 3c
       0.011157811 -0.0019554463 0.0116630765 0.021803362
000010 87 e6 d9 3b 84 98 13 3d c9 f9 8b 3b 68 5a 5a 3d
       0.0066497955 0.036034122 0.00427172 0.053308874
000020 42 27 07 bb 10 ae 5a 3d ea ae 9c 39 70 85 5d 3d
       -0.0020622765 0.053388655 0.0002988496 0.054082334
000030 b8 fb 8e 3b aa f5 60 3d d1 9f 69 3c 9d 8d 29 3d
       0.0043635033 0.054921784 0.014259295 0.04139482
000040 19 67 19 b9 46 f7 67 bc 45 d2 14 3d 44 99 04 bb
       -0.00014629624 -0.014158076 0.03633334 -0.0020232955
000050 15 b8 12 bc 60 9a 00 3b 97 1d 36 3b 9a 47 26 3c
       -0.008955021 0.0019623265 0.0027788633 0.010148907
000060 81 51 d4 3c d2 4a 7a bb 6e 5c f5 ba 50 a2 2c 3b
       0.02591777 -0.003819157 -0.0018719563 0.0026341863
000070 e1 51 6d 39 46 ee d9 3b 70 89 72 b8 e6 ce 54 3b
       0.00022632584 0.006650719 -5.7825295e-05 0.0032471954
000080 48 2f 03 bb b2 cc d9 3b 16 43 2b 3c c8 94 d3 3b
       -0.0020017195 0.006646716 0.010453006 0.006456945
000090 43 48 27 3c f2 07 b3 3c 42 b5 f0 3a c1 ce d9 3b
       0.0102101 0.021854375 0.0018364566 0.0066469614
0000a0 e7 2c de 3b 56 17 38 3c ee c0 26 3d b4 38 26 bb
       0.006780255 0.0112360325 0.040711336 -0.0025363388
0000b0 6d 6f 12 bc 60 ec 8d 3c 97 4c 92 3c da aa f4 3b
       -0.008937699 0.017324626 0.017858787 0.007466656
0000c0 8c b6 25 3c 40 37 e3 3b 5b 54 39 bc 83 e8 e7 3b
       0.010114323 0.0069340765 -0.011311616 0.007077278
0000d0 69 73 4b 3c 31 af e5 3c a5 30 fb 3b e3 2a b4 3a
       0.012417653 0.02803764 0.007665711 0.0013745691
0000e0 71 ac 0d 3d e3 7e dc 39 9a b6 81 3c 00 f0 c1 3d
       0.03458828 0.00042056208 0.015834142 0.094696045
0000f0 be 1e 33 bc 45 67 e2 ba 59 72 62 3d 5d 45 a9 ba
       -0.0109326225 -0.0017273208 0.05528483 -0.0012914349
000100 17 0d 3d 3d a0 b4 28 3d 43 5e fc bb 3a d7 ef 3a
       0.04615506 0.041187882 -0.0077016666 0.0018298395
000110 64 27 d2 3b ab 16 82 3c a5 5c fd 3a 25 20 fd bc
       0.006413387 0.01587995 0.0019329978 -0.030899117
000120 39 c0 f7 ba 64 1e 8f 3b c7 89 dc 3b e1 46 81 3c
       -0.0018901891 0.0043676365 0.0067302915 0.015780868
000130 1d d2 13 3c f6 f1 2f 3c a7 19 d7 b6 90 b3 22 3c
       0.009022263 0.01073884 -6.4104856e-06 0.009930506
000140 31 bf 4b 3c 4b ff a4 bc ff ef d8 3b 29 ef b4 3b
       0.01243572 -0.020141264 0.0066204066 0.005521674
000150 1c 0c 0b bb bf 20 1f bc 97 19 98 3c e7 8a 13 bc
       -0.0021216935 -0.009712397 0.01856689 -0.009005285
000160 f6 c8 30 bb 11 8d dc 3b c7 12 07 bd ed 08 0a 3b
       -0.002697525 0.0067306836 -0.03297689 0.002106245
000170 93 26 06 3b 8f c8 10 3d f9 28 14 bb e8 34 b1 3c
       0.002046977 0.035347518 -0.002260743 0.021631673
000180 df a5 5a bc 36 95 e3 3b 62 43 2c 3c 34 7c 29 3c
       -0.013345211 0.0069452776 0.010514112 0.010344554
000190 12 12 c8 3a 3a f2 04 bb 95 c6 2e 3c 80 73 2a 3d
       0.0015264174 -0.002028598 0.010667463 0.041614056
0001a0 71 e4 24 b9 a3 14 49 bd 75 0d b7 b9 76 2e d9 3b
       -0.0001572536 -0.049091946 -0.00034914506 0.006627853
0001b0 d8 ec 9a 3b 48 37 42 38 2f 56 69 3b 78 80 4b 3d
       0.004727941 4.630469e-05 0.0035604348 0.049683064
0001c0 a6 06 d7 3d 66 65 a4 bb 45 ea 16 3d 37 e8 6e bc
       0.10499315 -0.0050169704 0.03684451 -0.0145817315
0001d0 36 bb ab ba ac a1 15 3d bd d0 a6 b8 97 b3 07 3d
       -0.0013102058 0.036531135 -7.954377e-05 0.033130255
0001e0 05 80 82 3c c0 42 86 bb 57 dc 8e 3c 73 3b 30 3b
       0.015930185 -0.0040973127 0.01743905 0.0026890903
0001f0 13 40 ba 38 fc 3d 09 bd 0c 2b 38 ba c1 a1 3b 3c
       8.881106e-05 -0.03350638 -0.00070254575 0.011452139
000200 ae 96 b2 bb 38 88 99 3c 7c af fa bb b8 bf 89 3c
       -0.0054500913 0.018741712 -0.007650314 0.016815051
000210 b9 97 4b 3d 03 22 a1 bd ab 16 31 3d 9a ca ac bb
       0.04970524 -0.07867815 0.04323451 -0.0052731754
000220 32 e2 93 38 88 58 5b 3b 49 4c 49 bd 8b 74 db b9
       7.0516384e-05 0.0033469517 -0.049145017 -0.00041857766
000230 de 58 29 bc 29 1f bd 3b ba 5f 07 3a f9 53 a6 3c
       -0.010336129 0.005771537 0.00051641057 0.020303713
000240 39 73 a0 bc 38 a7 df bb f4 54 15 ba 62 78 04 3c
       -0.019586192 -0.006825354 -0.0005696558 0.008085342
000250 0d d1 af 3b bd d9 b8 38 87 69 be 39 93 2c cf 3b
       0.005365497 8.8143606e-05 0.00036318248 0.0063224523
000260 e6 62 39 bb 2a c0 b4 38 f5 23 90 3c 3d e2 68 38
       -0.0028287708 8.618862e-05 0.01759527 5.552381e-05
000270 6f a8 6e 3c c1 86 5a b9 05 c5 cc 3a 8e 3e ab 38
       0.014566525 -0.000208403 0.0015622681 8.165567e-05
000280 b3 63 0d 39 84 18 c0 3c 05 43 87 bd ca d7 88 3b
       0.00013483949 0.02344919 -0.0660458 0.0041761147
000290 22 f3 f6 bb d6 27 99 3c 9a 4d ea 3b d9 d1 4a 3d
       -0.007536308 0.018695753 0.007150364 0.049516533
0002a0 15 2a 41 3c 8a 62 d9 38 3a a4 92 3b d8 81 42 39
       0.011789818 0.00010365721 0.0044751437 0.00018549652
0002b0 11 86 41 3b 01 6b bf 3a 07 6b 1f 3d 99 67 ec bb
       0.0029529373 0.0014604033 0.03892043 -0.0072144982
0002c0 dd 91 94 ba 16 d5 f8 3b f1 cf 10 3b 21 c9 30 be
       -0.0011334975 0.007593761 0.00220966 -0.17264225
0002d0 0b f9 96 3a 51 56 45 ba 36 dc 89 3c 22 37 1f bb
       0.0011518312 -0.0007527816 0.016828638 -0.0024294336
0002e0 84 06 13 3c 3a 8b 53 bb 1f 4e 01 bc 75 56 b6 3b
       0.008973721 -0.003227903 -0.007892161 0.0055645057
0002f0 db bd 30 ba 67 6f dc 3b 39 70 a8 3b 6d 12 b2 ba
       -0.0006742158 0.0067271474 0.005140331 -0.0013585814
000300 1e b3 31 ba 60 d6 b4 3b 81 53 29 39 11 5a e4 3b
       -0.00067787047 0.0055187196 0.00016148204 0.0069687446
000310 a3 23 02 3c e1 5b 96 3c 81 24 58 b8 b7 f8 e8 3b
       0.007943067 0.018354358 -5.153241e-05 0.0071097272
000320 c1 de 85 3c d6 e6 25 3b bf de 12 37 28 dd 42 bc
       0.016341569 0.002531459 8.75414e-06 -0.011893548
000330 e9 36 71 3a de df 08 bc f8 47 24 3b 7a 62 f0 bb
       0.00092016027 -0.008354155 0.002506731 -0.007335958
000340 41 83 f7 bb 0b fa e3 b9 21 78 df ba 62 40 d7 3b
       -0.0075534885 -0.0004348311 -0.0017049351 0.0065689543
000350 34 b6 e8 3b 1f 63 64 bb 6e 00 7c 3b 1e 49 53 bd
       0.0071017984 -0.003484912 0.0038452405 -0.0515834
000360 c8 f3 68 3b 44 5f 4d b9 e4 40 82 3c cc e0 88 3c
       0.0035545696 -0.00019585813 0.015900083 0.016708754
000370 d7 22 ce 3b bf 01 9c b9 82 69 5c 3c f5 c1 a9 bc
       0.0062907743 -0.0002975594 0.013452889 -0.020722369
000380 a7 cb 4d b7 65 07 2b bb 53 d2 ce 3b 70 d7 a7 38
       -1.2266369e-05 -0.0026096937 0.0063116937 8.003309e-05
000390 ec d7 12 3d 91 53 34 b8 8f 8a ce 3b b0 0c 84 ba
       0.03585045 -4.299317e-05 0.0063031386 -0.0010074582
0003a0 3c d5 d8 3c 60 c9 11 bc c6 a4 8b 3c 73 22 7e 3b
       0.026468866 -0.008898109 0.017046344 0.0038777858
0003b0 bd b0 24 bb b0 ca bd 3b 9f dd dc 39 62 70 83 ba
       -0.0025129758 0.0057919845 0.0004212679 -0.0010028
0003c0 ea 72 61 3c aa 0b 2f bc 02 a0 6f 3c f6 b8 9c 3c
       0.013760308 -0.010683933 0.014625551 0.019131165
0003d0 0a 60 6f bb 03 4e 8f 3c 3e 11 47 3b e6 2f 78 3d
       -0.003652575 0.017493254 0.0030375267 0.060592555
0003e0 15 0c 50 bc fd 31 95 3d 53 ec 40 bc 66 99 8f 3d
       -0.012698193 0.07284925 -0.011775094 0.0701168
0003f0 8e a1 00 3d 4c b9 b1 3c e4 e8 0e 3d 71 54 99 3c
       0.03140407 0.021694802 0.03489007 0.018717023

hidden_layer3.bias f4 [120]
000000 32 96 fd 3c a1 04 a8 3b 7b 4a 16 3c a6 20 8a 3d
       0.030955408 0.005127505 0.009173031 0.067445084
000010 9f 99 d8 3b 9f ea da 3b 6c ab d7 3d b7 03 c4 b8
       0.00661011 0.006680801 0.10530743 -9.3467e-05
000020 56 7d 0d 3b ab 0d 8c bc c5 57 1d 3c 6d 40 96 3d
       0.0021589599 -0.017096361 0.009603445 0.07336507
000030 2d 97 10 3d 76 a2 90 3a 03 58 b1 bc 45 46 b9 3b
       0.035300422 0.0011034745 -0.021648413 0.0056541287
000040 b3 d0 69 3c 0a 1f 41 bc 22 88 59 3c d0 e4 a3 3d
       0.014270949 -0.011787185 0.0132770855 0.08002627
000050 eb d8 de 3c f1 8c 30 3b ae dd 41 bb 27 39 8a 3d
       0.027203044 0.0026939476 -0.0029581594 0.06749182
000060 66 75 11 3c c4 7c 8d bc ba 5c 4c 3c 8e e9 94 b9
       0.008878088 -0.017271407 0.01247328 -0.00028402772
000070 d7 6b 31 bb c4 b0 0d 3d f2 0f c0 bb 39 d8 cb 3a
       -0.0027072334 0.034592405 -0.005861276 0.001555211
000080 f8 55 4f 3d 37 5d 8a 3b be cc ad 3d 07 5b 12 3c
       0.050619096 0.004222538 0.08486317 0.008932835
000090 fb 52 d0 bb 8b 09 8e 3c 6a 1b 62 bc 9b 56 58 3d
       -0.0063575483 0.017338535 -0.013800481 0.05281697
0000a0 3a c6 15 3d 6e 5e 94 3d ff 88 a4 3c af ff 85 3d
       0.036565997 0.072445735 0.020084856 0.065429084
0000b0 b5 b9 9c 3d 27 8e 07 3d b4 b3 be 3d ea b5 df 3b
       0.07652608 0.03309455 0.093116194 0.006827106
0000c0 37 84 01 3d 3b 4f 58 3d 21 78 aa 3b f5 1b 81 b9
       0.03162023 0.052809935 0.0052023088 -0.00024625627
0000d0 6e 12 72 3d 9e e8 5e 3c 6c bb b1 3b 69 72 ad 3c
       0.059099607 0.013605265 0.0054239538 0.02117272
0000e0 4d 07 0a bc c9 17 65 3d 11 a0 84 3b a3 b6 26 3b
       -0.008424592 0.055930886 0.0040474017 0.002543845
0000f0 36 4a c2 3c 37 60 bd 3b 81 09 d7 3b 63 7d 85 3d
       0.023717027 0.005779292 0.0065624123 0.06518056
000100 33 b7 9f 3b 01 71 7f 3d dc 44 96 3d 87 29 3e bb
       0.004874134 0.06236363 0.07337353 -0.0029016451
000110 e6 47 8d 3b d2 e3 87 3d bd fb fd 3a 97 8d 62 3a
       0.0043115495 0.0663525 0.0019377392 0.00086423144
000120 65 c6 22 3c 51 82 48 3b b1 01 ab bc cb 32 6e bc
       0.009934996 0.0030595253 -0.02087483 -0.014538477
000130 8c 6e 1e bc 77 44 e9 3c 65 9e bf bb 0f 00 97 3d
       -0.009669911 0.02847503 -0.0058477395 0.07373058
000140 7d db 88 3d fa f7 1e 3b a4 7b 1f bc 44 35 07 3b
       0.06682489 0.0024256692 -0.009734068 0.0020631114
000150 03 e1 f1 3c 8e bf bb 3b 33 d7 b8 3c d4 7f ff 3b
       0.02952624 0.005729622 0.022563552 0.0077972207
000160 34 be 17 3d 8e d8 d7 3c fe aa 4d 3d 94 0e 95 3c
       0.037046626 0.026348379 0.0502119 0.018195428
000170 c4 68 a3 3c 93 cf a1 3c 83 7b de bb f8 02 33 3d
       0.019947417 0.0197523 -0.006789626 0.043704003
000180 a0 b5 32 3c 9c 12 b9 3d 5a f8 0e bc 49 c6 1e 3d
       0.010907561 0.090367526 -0.008726204 0.03876332
000190 89 1c 07 3c 3a 7d 35 3b e8 72 92 bc a0 a4 c7 b9
       0.008246549 0.002769305 -0.017877057 -0.00038078893
0001a0 2e 6f 39 39 7f e3 71 bc 3c 0f 30 bc 47 22 2d 3c
       0.00017684393 -0.014763712 -0.01074582 0.010567254
0001b0 00 82 8c 3d b1 a3 7f 3c 8a 24 5a 3c 75 d5 16 3c
       0.06860733 0.015602992 0.013314376 0.009206166
0001c0 cf c3 13 3d 25 c6 82 bc 01 0a 1c 3b 84 9e 51 3d
       0.03607541 -0.015963623 0.0023809674 0.051176563
0001d0 0a 2b b6 3b 02 d4 76 3d 99 8c ab 3d d9 6d d9 3c
       0.00555933 0.06026078 0.08376426 0.026541637

output_layer.weight f4 [2, 120]
000000 3a ee 49 be ae c3 d9 3d 96 63 d1 bd b4 56 3e be
       -0.19719782 0.10633026 -0.10224073 -0.18587762
000010 9b be 41 3e 8d e8 0c 3e 12 2d b0 3e f8 00 f4 3d
       0.18920366 0.13760586 0.34409386 0.11914247
000020 9a 41 10 3e 7a 85 1b 3d 5b f4 ba bd 37 bd 86 be
       0.14087525 0.03796909 -0.09128638 -0.26316234
000030 e8 fa 61 be d5 da b6 3d 86 6a ca 3d 44 cd 34 3e
       -0.2206837 0.08928458 0.09883599 0.17656428
000040 ba c7 e6 bd 50 17 a2 bc 41 0c 45 3e 6a 24 87 3e
       -0.112685636 -0.019786507 0.19242956 0.2639497
000050 95 9d dd bd e2 43 20 3e 0b 89 d8 bc ca b3 89 be
       -0.10821072 0.15650895 -0.026432535 -0.2689498
000060 8c aa 52 3e d9 80 e2 bb 6e d4 5f 3e 66 64 af 3d
       0.20572871 -0.0069123325 0.21858379 0.08564071
000070 bc f0 f7 bc e2 9b 44 be 5d 89 08 bd be 49 ee 3d
       -0.030266158 -0.1920009 -0.033334125 0.11635159
000080 ad 31 ea bd 67 44 0b 3e 08 a7 5e be 33 70 bd bd
       -0.11435256 0.13600312 -0.21743405 -0.09249916
000090 06 58 cc bc 70 a4 0f 3e f8 62 bc bc c1 b1 97 3e
       -0.024944317 0.14027572 -0.02299641 0.29627803
0000a0 3e a5 a2 bd 31 cd 8c be 77 8c 33 be a5 75 43 be
       -0.07941674 -0.275003 -0.17534052 -0.19087847
0000b0 8f c0 a7 3e 2c 7a 24 be 11 be a8 3e d2 c0 9f bd
       0.32764098 -0.1606223 0.3295751 -0.078004494
0000c0 f0 45 3a 3e 7f 7f 3d be 00 89 b9 bd 17 11 b2 3d
       0.18190742 -0.18505667 -0.09059334 0.08694666
0000d0 4f fb 52 be 90 96 47 3e d1 1e 28 3e ef d0 c8 bd
       -0.20603679 0.19491029 0.16418006 -0.09805476
0000e0 dc 04 fc 3d 79 8a 1b be 1b 7b 4c bd 9b 5a 2b bc
       0.12305614 -0.15189542 -0.04992209 -0.010458614
0000f0 0d 25 18 be a4 6e 50 3e e6 c0 48 3e 1f c6 a2 3e
       -0.14857884 0.20354706 0.19604835 0.3179178
000100 99 ea 1b 3e ea 71 52 be 25 2a 79 be 24 1a b4 3d
       0.1522621 -0.20551267 -0.24332483 0.087940484
000110 7c e6 39 3e ad 10 75 be a4 8e 16 3e 3e 9b 2e 3e
       0.18154329 -0.23932143 0.1470285 0.17051408
000120 b6 a2 f5 bd 99 fd 3d 3e af 21 4f 3d 16 4b 8e bc
       -0.11993925 0.18553771 0.050569233 -0.017369788
000130 14 7b 5e bd 46 98 5a be 92 cd a0 3c b9 45 84 be
       -0.054316595 -0.2134715 0.019629274 -0.25834444
000140 b8 ea 43 be bb 7b 3d 3e 60 0b 09 3e fc 3c 3c bc
       -0.19132507 0.1850423 0.13383245 -0.011489149
000150 e6 3c 3d 3e a7 43 49 3e b2 1b 95 bd 51 5f f6 bd
       0.18480262 0.19654714 -0.07280673 -0.12029899
000160 82 52 20 be 79 d6 15 be 06 77 45 be 6c 2a 66 3e
       -0.15656474 -0.14632596 -0.19283685 0.2247712
000170 de 3d 17 3e 42 ba ea bd 60 30 cf bc 21 d0 2c be
       0.14769694 -0.11461307 -0.025291622 -0.1687627
000180 ce ac 38 3e 75 f7 83 be 20 43 e0 3d ba f1 1b be
       0.1803467 -0.25774732 0.10950303 -0.1522893
000190 1c 7e 94 bd 63 55 14 3e e5 ad e1 3a 04 c3 b7 bc
       -0.07250616 0.14485697 0.0017217962 -0.022431858
0001a0 b4 c3 77 bc 08 be 9a bc 6b d1 2c bd 44 7d 00 be
       -0.015122343 -0.018889442 -0.042191904 -0.12547785
0001b0 57 b8 81 be b6 7a 6d 3e 54 bb d4 bd f2 02 5a 3e
       -0.25335953 0.23191342 -0.103872925 0.21290186
0001c0 3f e7 81 3e 6e 81 02 3e 58 f1 2d bd 46 8a 42 be
       0.2537174 0.12744686 -0.04246649 -0.1899806
0001d0 ad 76 fc 3d 36 56 2d be e2 5c b1 3e 93 35 24 be
       0.12327323 -0.16927418 0.34641176 -0.16036062
0001e0 95 0e db bd 8b 2c a3 bd d0 cb 3a be db 55 4b 3e
       -0.10696141 -0.0796748 -0.18241811 0.1985697
0001f0 00 eb 04 3d 10 77 40 3e 7e 18 4e be 36 51 9a 3d
       0.032450676 0.18795419 -0.2012653 0.07535021
000200 f2 3d c3 3d aa a0 f1 bd 47 15 26 3e b4 8f 32 3d
       0.095332995 -0.11798222 0.16219054 0.043594077
000210 8f 58 c5 bd f4 97 b3 bd cf 97 04 be 37 f2 20 3d
       -0.09636032 -0.08769217 -0.12948535 0.039293494
000220 f1 3b 43 3e a5 3a 58 3e 98 e4 3b bd 6d a7 33 be
       0.19065835 0.21116121 -0.0458723 -0.17544337
000230 47 3f f9 3d 34 7c 38 3d 78 19 7f be 81 fd 1f 3c
       0.12170272 0.045040324 -0.2491206 0.00976503
000240 f2 7e 7e 3c 38 1c 66 3e 40 38 5a ba 8b 38 3a 3e
       0.015533196 0.22471702 -0.0008324422 0.18185632
000250 06 33 3b 3e 02 09 97 bd 44 a9 49 3e 99 bc b5 3d
       0.18281183 -0.07374765 0.19693476 0.08873863
000260 b2 f9 c4 be 29 11 17 bd fd b1 02 3e 0c b4 33 3e
       -0.38471752 -0.0368816 0.1276321 0.17549151
000270 1e 06 77 be 82 b8 e1 bd 60 b9 3a be bf 87 d2 bd
       -0.24123427 -0.1102152 -0.18234777 -0.10279798
000280 42 53 a6 be 4c 20 1c 3c d9 b7 32 be c3 9c e0 3d
       -0.32485396 0.009529185 -0.17452945 0.109674
000290 58 57 04 be 0a ff 57 be cf d5 2e be 89 66 19 3e
       -0.12923944 -0.21093383 -0.17073749 0.1498052
0002a0 c7 36 eb bd 5b 78 a0 be a6 2d 0b be 17 b6 46 3e
       -0.11485057 -0.31341824 -0.13591632 0.194054
0002b0 38 76 fe 3c d6 9b db bc 3b 22 20 3e 6a 7c da 3d
       0.03106223 -0.026807707 0.15638058 0.10668261
0002c0 4c 58 7e 3e 39 fa b7 be 99 1c bc 3d c5 1b 18 3e
       0.2483837 -0.35933092 0.09185142 0.14854343
0002d0 ac 24 c8 bd 84 45 0e 3d 15 7f 87 3c 67 86 e1 bd
       -0.097726196 0.034734264 0.01654009 -0.11011963
0002e0 0b 0a a4 3c 1c 74 54 3d 83 61 83 3d 02 14 49 3e
       0.02002432 0.051868543 0.06415083 0.19636539
0002f0 0d 53 00 3e 0f 87 29 3d a6 07 c2 3d af cc 14 3e
       0.12531681 0.041388568 0.09474115 0.14531206
000300 38 a8 13 be 44 71 c2 3d 8a 90 15 be 9c b5 3f be
       -0.14419639 0.0949426 -0.14605919 -0.18721622
000310 4e f0 64 3e 72 7f 0c be 2d 30 41 3e 90 3b 65 3d
       0.22357294 -0.13720492 0.18866034 0.055965006
000320 11 66 1b 3e 37 e6 ca 3d 7b 14 3c be f9 a6 f2 3d
       0.15175654 0.09907191 -0.18367188 0.11848254
000330 27 a8 d4 bd bd 36 06 3d 4d 41 8b be 36 b9 27 be
       -0.10383635 0.032767046 -0.27198258 -0.16379246
000340 43 4e 71 be bc df a1 bd c8 8b c1 3b 90 f8 c9 bc
       -0.2356501 -0.07904002 0.005906556 -0.024654657
000350 78 fe f0 bd eb d1 22 3e d6 b9 02 be e3 4b ce 3b
       -0.11767286 0.1590039 -0.12766203 0.0062956675
000360 4e 94 d6 bc 76 79 c9 3d af 9e 73 3e 7d 45 82 be
       -0.026193764 0.0983762 0.23791002 -0.2544364
000370 3a a7 b3 bd c1 b0 d2 3d 94 46 53 be 97 46 88 be
       -0.0877213 0.102876194 -0.20632392 -0.26616356
000380 87 19 2a 3e 2a 15 60 3e 42 89 45 be 65 ea 1a be
       0.166113 0.21883073 -0.19290641 -0.15128477
000390 34 80 46 3d 37 90 1c bc 9a ba e1 bd 7a a5 58 3c
       0.048462108 -0.009555868 -0.110219195 0.013223046
0003a0 a7 0d 85 bd 45 e2 12 be ef 5c 23 3e 4a 89 32 3c
       -0.064967446 -0.14344127 0.1595342 0.01089699
0003b0 4b af 84 bd 52 6e db 3d f5 45 0e be bc 3c c9 bd
       -0.06478747 0.10714401 -0.13893874 -0.09826037

output_layer.bias f4 [2]
000000 26 29 ce bc e5 3a 1b 3c
       -0.025166105 0.009474491
