Ricci_flow_autoenc_Burgers_eq/Parameters/parameterization.pth (torch, 168940 bytes, 8 tensors)

hidden_layer1.weight f4 [120, 100]
00000000: 4c7e 8bbc a6b3 443d 2c9a bdbd 38b6 163c
00000010: c00d a3bd a2e6 dabc 42b4 03be 91e1 8e3c
00000020: 475e 00bd 9d0c d8bd 4bf9 913c 5aa9 f4bd
00000030: ad7a fdbd b755 92bd 2f58 57bd 8aa6 443d
00000040: d97d 3d3d 89bf f9bd db94 4dbd 57ac dfbd
00000050: e267 c0bd 4913 213d fe21 bbbc 313d 623d
00000060: 9dc1 893d 3e2e 653d f39d 6a3d a742 c0bd
00000070: a2b6 03bd eb4d 56bc 399b ebbd 61f9 93bd
00000080: 23d2 43bb 5aa4 9fbd a219 253c d1c6 d9bd
00000090: 9f20 963d bfc5 b3bd 809c 2bbd 1c25 7a3d
000000a0: 3188 b0bd b00b 4a3d 3885 88bb a70c efbc
000000b0: 97d3 89bd 1b74 52bc f755 833d 2f52 e13d
000000c0: 731e da3d b903 9f3d 6b64 a63c 1d20 0b3e
000000d0: 79c3 b53d 1fa5 ad3d e749 4cbd ab55 b83b
000000e0: 644b 0ebd 4cef 903c 675a 1f3d ab72 10bd
000000f0: 588c 043e 21e5 eb3d 2e41 cf3d c457 4abd
00000100: d7f4 513d 2bd3 d23c b2da e3bc 5938 f53d
00000110: bbf5 b93c d87c 593d bff6 983d 2eea 6dbd
00000120: 0fa6 bcbc 93a0 333d b627 ce3d 4199 7e3d
00000130: 30ff 8dbc 7331 af3c c982 653d ac81 163c
00000140: 02a2 9f3c d62c 87bc a3c6 923d eabd 01bd
00000150: 2059 d63d f3d9 5a3c 9553 95bd a50b 983c
00000160: 21c8 8c3d 2078 b83c 1715 a6bd 98a9 80bd
00000170: 0b9a 173d 684f a7bd 9ec7 843d 8622 d8bd
00000180: b4fb 733c b52c 093c ebdf ac3c a23f 7d3d
00000190: d37b ba3d 42c9 053d 6206 a73d 8bdc 95bd
000001a0: 70ab b63d 787f 91bd 420a 413c 9223 0e3d
000001b0: 09e3 183d 49f4 15bd e628 d23b ef4b b9bb
000001c0: 5ab9 afbd d127 55bc 383c d2bd a74c 8e3c
000001d0: c841 9b3d 7654 a5bd 2efe d8bd 3a2e afbd
000001e0: 28c1 933c dd06 fcbb 01af 5abc 31f6 9dbd
000001f0: 16a4 3ebd 80e4 28bc 453a 7a3d 35c7 f0bd
00000200: c15f 29bd 3e9a c4bc 6541 acbd f42c c23c
00000210: 79ff b8bd bc78 963d b7cb 29bd 5d7b f0bd
00000220: 7b32 a7bd 0ea2 b3bd 5d72 dbbd a276 d8bd
00000230: a8a4 ee3c 9901 e53c b7e7 76bd 7323 063d
00000240: 05c0 e0bd 6b09 66bc b5ae bcbd 69de 1e3d
00000250: fd33 d73c a27c 5f3d fe70 8a3d 47c3 eb3c
00000260: dc98 d4bd 72cf f6bc 42e3 1c3c b0d4 bdbd
00000270: 424d 843d de48 75bd c3bf ba3c 0fa3 3b3d
00000280: b118 a0bc 5ce5 15bd 97fd 383d 65d6 303d
00000290: ad4e 5ebd d3ff 8cbc 1c50 40ba 9bb4 aa3d
000002a0: d74f 80bd 35c8 a63d 443a 0c3c 482e dbbb
000002b0: 749d 143c f5de 6bbc 792f 8d3d 3705 debb
000002c0: 410e bfbc 0e3d be3d d259 91bd acb3 553d
000002d0: dfdd a7bb a8eb ff3c 77c7 33bd 2c62 f23d
000002e0: dd01 0abc 5a3f 443d 7a7f 053b 26e9 57bd
000002f0: 47ab d7bc fccc 3fbd 9ccd 10bd 2d4d 883d
00000300: 449d 86bd 74f3 573d b9fe b73d b1d8 f13d
00000310: 3d9b 733d 99ac 17bc 554f b83d 7579 cb3d
00000320: e361 a83d 4160 9c3d 700f 733d 170f c13d
00000330: 4071 35bd 5439 e23d c47e c93d d04f f5bb
00000340: e149 e8bc f37a 34bd 5f59 a8ba 7cc1 da3d
00000350: b27e f73a ed1a da3d f419 fa3c c5e9 393d
00000360: 017d 99bc a9f1 f63d 8641 9e3b 150e 3e3d
00000370: 8044 7c3d 6234 3f3d 3c0f bdbc 52e7 eabc
00000380: 769b bb3d 5ba7 a3bc 9463 c83c 0d97 67bd
00000390: 2b14 373d 0611 5a3d ef82 433b 269a 8fbd
000003a0: 8650 32bd 3cc6 23bd e22b d23d a0e4 c43d
000003b0: a5b4 ce3d a60a 61bc 31cb 72bd 7efa 8dbc
000003c0: aa88 acbb 4f76 463d 7faf a5bd b4d7 7ebd
000003d0: d2ce 9ebd 3072 8b3d cb17 9d3d 4ae3 a23c
000003e0: 696f ac3c 346f 14bc d436 4e3d b394 cabd
000003f0: de23 dabd f6f5 273d b344 cfbc eff7 05be
-0.017027996 0.04802289 -0.092579216 0.009198718 -0.07961607 -0.026721302 -0.12861732 0.017441543
-0.03133991 -0.10549281 0.017819067 -0.11946364 -0.12376914 -0.07145255 -0.052574333 0.048010387
0.046262596 -0.121947356 -0.050190788 -0.10921543 -0.09394814 0.039325032 -0.022843357 0.055234138
0.06726382 0.055952303 0.05727954 -0.09387713 -0.032156594 -0.0130801005 -0.11504216 -0.072252996
-0.002987989 -0.077950194 0.010076912 -0.10633624 0.07330441 -0.087779514 -0.041897297 0.061070547
-0.086197264 0.049327552 -0.0041662715 -0.029180838 -0.06729811 -0.0128450645 0.06412881 0.110020034
0.10650339 0.07764382 0.020311555 0.13586469 0.08875174 0.0847876 -0.049875166 0.005625447
-0.034739867 0.01769223 0.038904574 -0.035265606 0.12944162 0.11518312 0.10119854 -0.049400106
0.051258888 0.025735458 -0.027814243 0.11973638 0.022700181 0.053097576 0.07468938 -0.05808466
-0.023028402 0.043854307 0.10066168 0.062157873 -0.017333597 0.021385884 0.05603293 0.00918619
0.019486431 -0.016500872 0.07166793 -0.031675257 0.10466218 0.013357627 -0.07291333 0.01856024
0.06874109 0.022518218 -0.08109491 -0.062823474 0.03701214 -0.081694424 0.064833865 -0.1055346
0.014891554 0.008372475 0.021102866 0.061828263 0.09105649 0.032662638 0.08155514 -0.07317456
0.08919418 -0.07104391 0.011782231 0.03470189 0.037325893 -0.03660992 0.006413567 -0.005654804
-0.08580275 -0.013009981 -0.10265392 0.017370535 0.07580906 -0.0807275 -0.10595356 -0.08553739
0.01803644 -0.007691248 -0.013347388 -0.07712973 -0.046543203 -0.010308385 0.061090726 -0.11756746
-0.041351084 -0.02399933 -0.084109105 0.023703076 -0.090331025 0.07347247 -0.041454043 -0.1174228
-0.08163925 -0.08771144 -0.107151724 -0.105695024 0.029131249 0.027954863 -0.060279574 0.03274865
-0.10974125 -0.014040331 -0.0921301 0.038786326 0.026269907 0.05456222 0.06759833 0.028779639
-0.10380718 -0.030128215 0.009575667 -0.092690825 0.06460048 -0.059883945 0.022796517 0.0458098
-0.019543024 -0.036595687 0.045163717 0.043173213 -0.05427425 -0.01721183 -0.0007336156 0.08335229
-0.06265228 0.08143655 0.0085588135 -0.0066888668 0.009070743 -0.014396419 0.0689382 -0.006775524
-0.023322226 0.09288989 -0.0709721 0.0521733 -0.0051228846 0.0312403 -0.043891396 0.11835131
-0.008423296 0.04791198 0.0020370171 -0.052712582 -0.026326789 -0.046826348 -0.035352334 0.06655345
-0.06572965 0.05272241 0.08984131 0.11808909 0.05947422 -0.009257459 0.089995064 0.099352755
0.082217954 0.076355465 0.059340894 0.09426706 -0.044297457 0.11046091 0.09838632 -0.007486321
-0.02835554 -0.044062566 -0.0012844017 0.106814355 0.0018882363 0.10649667 0.030529954 0.045388956
-0.018736364 0.12057812 0.0048295883 0.04640015 0.061588764 0.046680816 -0.023078553 -0.028674755
0.09160511 -0.019977262 0.024461545 -0.056540538 0.044696968 0.05323889 0.0029832681 -0.07011823
-0.043533824 -0.039983973 0.10262276 0.09613919 0.10093049 -0.013735449 -0.05927581 -0.017331358
-0.005265315 0.04845267 -0.08090114 -0.06221743 -0.077542916 0.06808889 0.07670554 0.01988377
0.021049218 -0.009059716 0.050345257 -0.098916434 -0.106513724 0.04100605 -0.025301313 -0.1308286

hidden_layer1.bias f4 [120]
00000000: 2b14 d73c 2501 b6bd ce67 d83b 3db0 45bd
00000010: 9af4 cd3d 1d87 49bd c00b c2bc 3180 37bd
00000020: 1119 5ebc 7074 98bd 5dc8 68bd e8c1 fdbb
00000030: 2e1d 0bbd 6450 b6bc 61a1 283c 2847 f23c
00000040: 5ef3 d43d 31fb aabd 64ea a7bd 7fa9 8abd
00000050: 8b59 0ebe d3b4 7fbd e5c1 d4bd 47d7 da3c
00000060: f37d c5bd c471 0dbe 8b9e d3bd 444f dc3c
00000070: 72f0 c53b ccd7 c23d 49fe 57bd 7378 febd
00000080: 5f29 813d 72b0 2a3c ac6e 783d 13a9 15be
00000090: 97d8 323e c5e0 363c ff15 0a3c 2d77 97bd
000000a0: 6f43 403d 7ff8 7f3d 5c9e d23d f199 c3bd
000000b0: 9832 79bb ce69 883d 9392 0ebe f8ba 2bbe
000000c0: 55a9 aebd 5d46 25bd 481c 45bd b6cb 713d
000000d0: e7ff a2bd 1cb8 043d 114c dd3d 7f68 6f3c
000000e0: e886 843c b4a4 a9bc 24ad 04be ec27 8d3c
000000f0: 99a6 093d 7884 d93a 42e6 ee3b 063d 483d
00000100: 1ecd aabd 5281 a4b9 c638 ecbd 53c1 2abd
00000110: 9b51 3cbd 0e5c 473d e68e 62bd fc85 7f3d
00000120: 92b1 22bd f2a6 cf3d 355b e73a ac9b 8a3c
00000130: 4704 b63c e26e 5a3d 3ace 1ebc 4368 c5bd
00000140: 99e0 53bd 996f a23d 3d3b 99bd 96c7 c5bb
00000150: 153b e1bc 8a4d cebc 10ce d53d c7bb 8a3d
00000160: 06c8 d7bc 9e05 53bd fdcc d6bc 2416 fe3d
00000170: 6bac 9e3d 299e 9a3d 9665 763d 14c2 d7bd
00000180: cdcf e2bd 31a6 5fbd 1a4d b0bd 2116 663b
00000190: 4fff 6cbd baaf 95bd f4bf b23d ffcf fcbd
000001a0: 74b3 9dbd 3993 ce3c 63e2 41bd 8a8c 043e
000001b0: 7712 d0bd 3d85 083d e9ac 18bd df43 4a3a
000001c0: a223 cbbd 21bf 16be d3b1 89bd 38cf 783d
000001d0: cbd0 32bd e211 743d e883 09bd 808d a73d
0.026254734 -0.08886937 0.0066041714 -0.048263777 0.1005642 -0.04920112 -0.023687243 -0.044799987
-0.013555781 -0.07444084 -0.056831706 -0.0077440627 -0.033963375 -0.02225513 0.010292382 0.029574946
0.10397981 -0.08348692 -0.08199003 -0.0677061 -0.13901345 -0.062428307 -0.10388545 0.02671398
-0.096431635 -0.1381293 -0.10332974 0.026893266 0.006040626 0.09513816 -0.05273274 -0.124253176
0.06306719 0.010418044 0.06065242 -0.14615278 0.17465435 0.011161988 0.008428096 -0.07395778
0.04693931 0.062492844 0.10284111 -0.09550846 -0.003802454 0.06660806 -0.13923101 -0.16770542
-0.08528391 -0.040350307 -0.048122674 0.059032165 -0.07958966 0.032402143 0.10805524 0.014612316
0.01617761 -0.02070842 -0.12956673 0.01723095 0.033606146 0.0016595265 0.0072906325 0.04888632
-0.08339904 -0.0003137687 -0.11534266 -0.041688275 -0.045976263 0.048671775 -0.05531206 0.062383637
-0.039720125 0.10139264 0.0017651083 0.016919933 0.022218836 0.053328402 -0.009692723 -0.09639027
-0.051727865 0.07931442 -0.07482002 -0.0060357554 -0.027493993 -0.025183458 0.10439694 0.06774097
-0.026340496 -0.05151903 -0.026220793 0.12406567 0.0774773 0.07549698 0.060155474 -0.10535064
-0.11074791 -0.05460185 -0.08608456 0.0035108405 -0.05786067 -0.07308908 0.087280184 -0.123443596
-0.077002436 0.025216686 -0.04733504 0.12944236 -0.10159772 0.03333019 -0.037274275 0.0007715802
-0.09918906 -0.14721347 -0.067233704 0.060744494 -0.04365615 0.059587367 -0.03357306 0.08181286

hidden_layer2.weight f4 [120, 120]
00000000: 2a3f d23b ec9a e3bc 6c22 67bd 5967 753c
00000010: 404b 21bd 4e35 ea3d bd1c 8abd 0c8e 62bd
00000020: 8eb1 78bd de02 f63d 81e1 64bd b140 fb3c
00000030: b8eb 353e bbf9 d13d 66fa 48bd 711e 9fbd
00000040: 06f4 803c 9d97 503d bbc2 cb3b d91e fbbc
00000050: c363 06be 7b00 a3bd e61a 17be 0ba5 1dbd
00000060: f107 a13d 0832 dcbd 4949 af3c 5189 403d
00000070: a0ed 0a3e 08e3 233e a5ab c23d a265 d03d
00000080: c258 be3c 39c7 a53c e491 03bd e889 32bd
00000090: b099 f43d c11b 17be b3b2 94bd 036a 23bd
000000a0: 77c7 febd 2440 c3bd b364 53bd d27b b1bc
000000b0: f45f 9ebc 8646 f53c bde7 0ebe 8abd a63b
000000c0: 7ad4 9dbc f802 31bd 8feb 5cbc e83c 2cbd
000000d0: d739 08be 00f9 1d3d db5c 95bd d33a 0fbd
000000e0: 0baa 523c e69a b83d 6d52 10bd f18b 50bd
000000f0: 82e7 0abe 919e f83c 6663 433d d37a d23d
00000100: 6a1f 1fbd d9e3 8abc 821d e53d e86b 1abd
00000110: c93c ea3d 2e9c 683d 1c14 233c d39e b4bb
00000120: a044 f8bd 3809 8ebd ccf2 413e 990f d33d
00000130: 51cb 84bc 5efe c83c cf9b fb3d 792a 07be
00000140: e7b9 adbb 0f0c 033e 918e 44bd 3424 c1bc
00000150: 41cc 563d 251c d8bd d6cf c0bd dd0c 9dbb
00000160: ce2a 2b3a 904d 6f3d 7e33 8ebd f00d 163e
00000170: 99fd 213d 2b60 1f3e b1d4 3f3d 9498 eabd
00000180: 37dc d3bd 7e38 61bb 8c0a 703d 56ca 743d
00000190: 6733 faba 7209 60bd 9f33 c33d 8425 4abd
000001a0: f896 16bc 8c97 8d3d 0fbb 66bd fcb4 3bbd
000001b0: 1805 d93a 4099 8bbb c7e5 8e3d b251 043d
000001c0: 1b9b a03c 7c45 bcbd 3b1d 7d3c 0377 0a3d
000001d0: 6249 993c b1a9 edba c627 5ebc 7d9f 903b
000001e0: 2c16 bf3c 3249 a2bb f19c c9bc 0ea8 a03d
000001f0: 4e88 8abd 7efc d3bd b2bf e5bb f2a6 bbbd
00000200: e711 2abc 638e 123d 2277 883d be77 383c
00000210: fad5 00be dd1a b3bd 7f8b 3cbb 0daf acbd
00000220: f781 2bbc 6f74 bdbd 5a87 973d e60e 17bc
00000230: 66ac f93c f3ba 5fbd 21a8 00bd f40c 89bd
00000240: 0600 c5bc d8db 30bd d880 debb 678f 19bd
00000250: 1609 f4bd 02d4 56bd c03c 563c 44e1 5abd
00000260: 0063 6dbc 4bde 55bd efaa dc3c fe64 4e3d
00000270: 1279 9cbc 812c 11bd dbf1 ed3c 1aee c23d
00000280: 1799 803d 457e 5bbd b953 ee3b 8331 66bc
00000290: 6e95 b03d ddbf 15bd 16a5 913d 139d 523c
000002a0: 6a3c 59bd dbe3 a1bc 02b2 863d 593d 1cbd
000002b0: 4508 5ebd b912 a03d 98de e23c 4cb2 783c
000002c0: 916c 673c a7cf c23c 7eca b8bd 11da 16bd
000002d0: 2620 283d 02cb 8d3d 2c89 773d ca4a b7bd
000002e0: c796 a63b 0f8d 87bc 5166 b13c 3924 ecbc
000002f0: 02df c63c a452 89bd d3e6 4cbd 7b54 8d3d
00000300: 402a 09bd 7349 50bd 896b 48bc e78a 6fbd
00000310: bc16 2fbc 77e1 40bd 3a01 04bd 0195 863d
00000320: 939d 9dbc d5c7 2cbd 2e1b 36bd e74f a53c
00000330: 532e ea3c f7c0 b23d 702a b43d 32f0 103d
00000340: 95ed cbbd c5a4 b53c 5d5d 053a 30b6 c2bc
00000350: 05b1 023d aeeb 58bc d230 653d 6eca d2bd
00000360: 6ade a439 900e 0a3c 0ebd 82bd b2f5 b83d
00000370: 6437 6a3c 3a99 593d 39e0 2bbc 5fe1 623d
00000380: 5dda 77bd 8664 b03d 8c8a 01bd 1d04 4e3d
00000390: 5acd 313d 69e3 d3bd 44aa ac3d 1038 083d
000003a0: bf7b 11bd bbe0 1d3d 60f7 643c 9298 8e3b
000003b0: 1196 383d 18ce 033d 8085 8fbd 1836 c1bd
000003c0: 2406 483d 8f6a 063e 048f 4ebd f4ee 29bd
000003d0: 0674 b43c cb47 d33d b210 28bc fd4c 87bd
000003e0: 08ce 93bc 9865 d43d dd9f 533d b132 cb3b
000003f0: 080a d33a 6e33 133d 8343 09bc 8b7f 01bd
0.006416221 -0.027783833 -0.05642931 0.014978253 -0.039378405 0.11435948 -0.06743763 -0.055311248
-0.060716204 0.120122656 -0.05587912 0.030670496 0.17765701 0.102527104 -0.049066924 -0.07769478
0.01574136 0.05092584 0.006218282 -0.030654358 -0.13123994 -0.07959076 -0.14756355 -0.038487475
0.07862843 -0.1075173 0.02139725 0.047005955 0.13567209 0.16004574 0.09505395 0.10175635
0.023235682 0.020236598 -0.032121554 -0.04358855 0.11943376 -0.14756681 -0.07260647 -0.039896023
-0.12440389 -0.09533718 -0.051609706 -0.021665487 -0.019332863 0.029940855 -0.13955589 0.005088513
-0.019266356 -0.04321572 -0.013483896 -0.042050272 -0.13303314 0.038567543 -0.072931014 -0.03496821
0.012857924 0.090139195 -0.035234857 -0.05091471 -0.13564876 0.030349048 0.047702216 0.10277333
-0.03884832 -0.01695435 0.11187269 -0.037700564 0.11437375 0.05678957 0.009953525 -0.0055120974
-0.12122464 -0.06935352 0.18940276 0.103057094 -0.01621023 0.024535354 0.122855775 -0.13199796
-0.0053017023 0.12797569 -0.047987524 -0.023576833 0.052440885 -0.10552243 -0.094146416 -0.004792793
0.0006529511 0.05842358 -0.06943415 0.14653754 0.03954849 0.15564029 0.046833698 -0.11454883
-0.10344737 -0.0034365947 0.05860381 0.059763275 -0.0019088805 -0.054696508 0.0953133 -0.049352184
-0.009191267 0.06913671 -0.056330737 -0.045826897 0.0016557304 -0.004260212 0.0697742 0.032304473
0.01960521 -0.091929406 0.015448864 0.033804905 0.01871175 -0.0018132237 -0.013559287 0.0044135437
0.023326002 -0.004952573 -0.024610968 0.07844554 -0.06764279 -0.103508934 -0.0070113773 -0.09162702
-0.010380245 0.03578032 0.06663348 0.0112590175 -0.12581626 -0.08745358 -0.002876967 -0.08431826
-0.010467998 -0.092507236 0.07398863 -0.009219861 0.030477714 -0.054621648 -0.03141034 -0.06691924
-0.024047863 -0.04317841 -0.0067902617 -0.037490275 -0.119157955 -0.05244828 0.013076007 -0.053437486
-0.0144889355 -0.05221395 0.026936976 0.050389282 -0.0191007 -0.035442833 0.02904599 0.095180705
0.062791996 -0.053587217 0.007273164 -0.01404989 0.086222515 -0.03655993 0.07111566 0.012854832
-0.05303613 -0.01976197 0.06576921 -0.038144443 -0.054207105 0.07816071 0.027694032 0.015179228
0.014125005 0.023780657 -0.09022997 -0.036829058 0.041046284 0.06923486 0.06043355 -0.08949812
0.005083892 -0.016546754 0.021655234 -0.028825866 0.02427626 -0.067052156 -0.05002482 0.06900879
-0.03348756 -0.050851297 -0.01223267 -0.058482077 -0.010686573 -0.04709002 -0.032227732 0.06571389
-0.019240176 -0.042182762 -0.044459514 0.020179702 0.028586542 0.087282114 0.08797157 0.035385318
-0.099574246 0.022173295 0.00050874596 -0.023768514 0.0319071 -0.013239784 0.05595476 -0.10292517
0.0003144623 0.0084263235 -0.063837156 0.09031238 0.014295433 0.053124644 -0.010490471 0.055390712
-0.06051098 0.08612923 -0.03162627 0.05029689 0.04340873 -0.103461094 0.08430913 0.03325659
-0.035518404 0.038544398 0.013974994 0.004351684 0.04506499 0.03217897 -0.07007885 -0.09434146
0.04883398 0.13126586 -0.05042936 -0.04148765 0.02202798 0.10316428 -0.010257887 -0.06606481
-0.01804258 0.1037094 0.05166613 0.0062011112 0.0016101012 0.03593772 -0.008377912 -0.031615775

hidden_layer2.bias f4 [120]
00000000: e621 1c3e 82eb aa3d 5e1e a0bd 1980 3c3d
00000010: b5dd 9f3d a59f 853c 6703 b6bd f5ac 5bbd
00000020: 1fa3 b0bd e5cf d1bb a1a6 0d3d 2f77 eebd
00000030: ec85 853d 3dcd 413d c7a9 323c f7cd 8c3d
00000040: 81a2 18bd 91c2 d7bd c5fd a33d e178 a93d
00000050: 5a49 b5bd 3974 a6b8 de0d 8ebd a5cb 793a
00000060: 438c 5a3c eab2 013c 4c3c 153d 0a63 f63c
00000070: 8eb0 adbd 88a2 3abd 2c61 733c 1f87 973d
00000080: ca15 b6bd 1474 b9b9 4e5f eebb b0dd a53d
00000090: 63de d4bd bb2b 64bb ff0d a2bd 436c 7c3d
000000a0: b7cb 873d 4094 57bc 6697 5d3d c709 14bc
000000b0: 71f9 01bc 63a2 11bd a17d 51bd 5f30 46bd
000000c0: fc2a cb3d dd27 ccba bdd6 c23d 8dfe 133e
000000d0: 6ac3 153c a6b7 af3d 2751 bd3c aaf7 aebd
000000e0: c69c afbd d04e c93d a2fe 69bd 8523 17bd
000000f0: e792 7ebc 1042 9fbd 46c4 1a3d a14d 863c
00000100: 2334 40bd d9cf 30bd a951 ffbc 5366 8f3d
00000110: c667 07bd 752d 02be caf1 e63d fd56 193d
00000120: aef3 023e d43d e9bd 629d 55bc 3d86 22bd
00000130: 42b5 f6bc c95b 813e 8ab6 02bd fdc0 1fbb
00000140: 6d83 cbbd 7517 9dbb 7eaa 953c 3427 97bd
00000150: 67e7 a2bd 5a1e 683c 1e0b dc3d dc7a 123d
00000160: 67cc 883c 254e 043d 82d6 8a3d 38ec 2f3e
00000170: 2c38 55bc f93f b33d d581 a3bd 3dcf cf3d
00000180: 467b 3ebd 1024 613d 6821 1f3d 52d2 bd3b
00000190: beec 8fbd c969 c3bc 0489 f9bc bca7 b83d
000001a0: 5319 813c 1d4e debc 66d5 b8bd 1502 6f3c
000001b0: 780f 893d 2fb2 b7bd 8778 01be 8b20 823d
000001c0: 9991 0d3d cc66 363d 582d b5bd 7756 bf3c
000001d0: edd9 6bbd 72fa 39be 8826 083e fc66 fa3c
0.15247306 0.08345701 -0.07818292 0.0460206 0.07805959 0.016311476 -0.08887368 -0.05363174
-0.08624863 -0.006402957 0.034582738 -0.11643826 0.06519684 0.04731487 0.010904736 0.06875222
-0.03726435 -0.105351575 0.08007387 0.08275009 -0.08851881 -7.937145e-05 -0.06936239 0.00095289416
0.013339105 0.007916192 0.036434457 0.030076522 -0.08480941 -0.045565158 0.014854711 0.07398819
-0.08890875 -0.00035372435 -0.007274545 0.08098924 -0.103939794 -0.0034816104 -0.07912826 0.061626684
0.066306524 -0.013157904 0.054099463 -0.009035534 -0.007933007 -0.035555255 -0.0511452 -0.048385974
0.09920308 -0.0015575845 0.09513614 0.14452572 0.009140829 0.0857995 0.023109986 -0.08543332
-0.08574824 0.098294854 -0.057127602 -0.03689911 -0.015537954 -0.07776272 0.037784837 0.016394438
-0.04692472 -0.04316697 -0.031166868 0.07001939 -0.03305795 -0.12712653 0.11276586 0.037436474
0.12788269 -0.11388746 -0.013038011 -0.0396788 -0.030115727 0.2526534 -0.031912364 -0.0024376505
-0.09937177 -0.004794056 0.018269774 -0.07380524 -0.07954293 0.014167393 0.10744308 0.0357617
0.01669903 0.032301087 0.06779195 0.17179954 -0.013013881 0.08752436 -0.07983748 0.101469494
-0.04650428 0.054966033 0.038850218 0.0057928944 -0.07027577 -0.023854153 -0.030460842 0.09016368
0.015759146 -0.027136857 -0.090250775 0.014587899 0.066924036 -0.08969533 -0.12643634 0.06353863
0.03456268 0.04453163 -0.08846539 0.02335666 -0.057580877 -0.18161944 0.13295949 0.030566685

hidden_layer3.weight f4 [120, 120]
00000000: 047d 953d 7756 11bc c253 763c a72c dbbc
00000010: 043d df3c 3a42 b23d 24d9 39bd 30f7 e8bc
00000020: 9f53 eb3a d4f5 463d 4532 4dbd d18a 35bc
00000030: e3b2 bdba 570a c43d 0b0c 513d 0266 2abb
00000040: 9101 a93d 397e cc3d 43a1 71bd 2418 d3bc
00000050: fa05 ba3c a224 853d 0198 91ba a36b 31bd
00000060: afb7 503d 085b ea3c 020e 7d3d d377 883b
00000070: 0622 e93d 12f4 95bd ea2e 463c 023f f5bc
00000080: 166c 85bd 63c4 0d3d fe74 753d fe46 a43d
00000090: 4239 3c3d cc4f b3bd cad0 a8bc d9af 1e3d
000000a0: 699d 00be 5868 9ebc 32eb 87bd e9b5 18bd
000000b0: d044 cabc 57ea 3a3c 8dfa 123c f899 b6bd
000000c0: acc3 e4bb 4971 cd3b 7725 dabc 5e6e 50bc
000000d0: c560 3dbb 8a37 883c 0939 c63d 3ce0 e43d
000000e0: 508a 913d db6a 953d af05 183d 6e6a 70bd
000000f0: fd27 64bd cc31 6ebc 7ff7 2ebd dc0b 893b
00000100: 2112 0bbd 3ac6 a8bc 8f46 19bd acda f9bc
00000110: 7859 253d 5c0a cd3d 2489 b53c 8523 7dbd
00000120: 6341 06bd d832 fe3c eb2e 023c ef7b f7bc
00000130: 82cc 72bd bc75 81bc 380f 07bc cd6b dbbd
00000140: 3c3d 5c3d e45c 42bd b8f6 203d f745 853d
00000150: b19f 9ebd ecb5 b7bc 6322 883d 1946 e3bc
00000160: 1a97 b03d 60f4 a23d 9cd8 5cbc 5c95 93bc
00000170: 4427 c33d d337 70bd cee4 bf3d 2aff bd3c
00000180: dba7 4d3b e8be 203d c46d a9bd 0a99 bbbc
00000190: b692 34bd 3d2d 05bc a0da 50bd 7c42 9e3d
000001a0: 1cc1 743d c9cb d73b dbd9 bb3a e435 32bd
000001b0: 24cd 5abd 05e9 cb3d c83f 5a3d 1975 6a3c
000001c0: b9b6 8cbc 9430 0a3b 13b1 ce3d a549 993d
000001d0: 7f94 8f3a 3d75 3d3d 28ef a2bd 8323 3cbd
000001e0: abcc b13b 6766 b83d 6745 aebc 0ef3 ce3d
000001f0: 00bf 503d 975f 83bd 0ca8 a4bd 74b2 ce3d
00000200: 4dfc 39bc d001 1abd af39 7dbd ef38 40bd
00000210: 0ff4 81bd f56f 99bc f1d8 3c3d 8d95 ecb8
00000220: d9d4 b83d ed01 fdbc ff0a 7a3c 3522 ca3d
00000230: 5c45 403d cd52 81bd 06fb 4c3d be56 753d
00000240: 7ce7 93bd c366 98bd 81e6 a53c 0c29 133d
00000250: b79b cbb9 d081 f03d 8a19 eabc b8af 2a3d
00000260: ea7d 513d 10c0 00bd 4cbf 213c 1bb9 783d
00000270: 000b 73bd 57a3 543d 6f13 38bd 99f1 8b3d
00000280: f1cb 1bbd ef77 24bd da9f 52bd fde1 bc3b
00000290: 6e43 8d3d 8b90 293d a8bd 743d 5c55 a43d
000002a0: 3e14 e43d 9934 b33c 50f7 a13d 89c8 9dbd
000002b0: f88b 993d 4d9c 543d ec6e bd3c 745a 693d
000002c0: 934f 9bbd fb93 8dbd 7ee7 013d 08eb 1cbd
000002d0: 8b1c 803d 2219 b73d 3b78 83bd 6b3e b5bb
000002e0: 9966 61bd 7c71 40bd 2d0a d2bd 2650 d43d
000002f0: c842 a5bd fce0 40bb 5382 6d3d d2bd 8b3d
00000300: 5bb5 c63c 4679 ba3c 0848 383c da34 843d
00000310: 7aba 04bd 607c d73d ca1a c03d e8fb 1d3d
00000320: 5c70 d9bc 7f4e 983d b1ee 8cbd dde9 a43c
00000330: b0dd d7bc 68ae c03d f2c0 06bc 0983 663c
00000340: d1b1 3cbb 7816 893c 1b14 af3d 3708 e23d
00000350: 858e 8abd 1268 563c 21b1 283d 06c4 0ebc
00000360: ad76 f8bb 952a ecbc 6337 21bd e74f 89bc
00000370: 2b16 b8bd a8ed 103d 2c14 693b 2f03 ecbc
00000380: 4f36 e1bc 3510 63bd 83c7 1f3d e43a 09be
00000390: 4806 acbd cc22 d9bc 40f7 0abd 48aa a83c
000003a0: 677a bcbd 81b6 a03d cf8c ed38 96a5 3e3d
000003b0: d429 37bd 5c6d c63c 2b1e 8a3d 0993 01bd
000003c0: cba7 bbbd 5ff9 e83c aa53 49bd cdf1 b8bd
000003d0: b747 b0bb 0ad1 103d 2a63 a8bb ec84 fabc
000003e0: 1301 8dbd 5399 98ba 3f5c 83bb 24f0 79bd
000003f0: b598 4dbd 472d a2bd 6657 91bd bc6c b43d
0.072992355 -0.0088707125 0.015034618 -0.02675469 0.027250774 0.08704038 -0.045373097 -0.02843818
0.0017953998 0.048574284 -0.05009677 -0.01108046 -0.0014472868 0.09572285 0.051036876 -0.0026000743
0.08252252 0.099850126 -0.05899168 -0.025768347 0.022707928 0.06501128 -0.0011107923 -0.04331554
0.050956424 0.02860786 0.061780937 0.004164675 0.113834426 -0.07321943 0.012096146 -0.029937271
-0.065147564 0.034611117 0.059926026 0.08021353 0.045953043 -0.087554544 -0.02060737 0.03874192
-0.12560047 -0.019336864 -0.06636657 -0.037282858 -0.024691015 0.01140841 0.008970869 -0.08916086
-0.0069813337 0.006269608 -0.026629193 -0.012721626 -0.002889679 0.016628046 0.09678847 0.11175582
0.07106459 0.07295772 0.037114795 -0.05869525 -0.0557022 -0.01453824 -0.0427165 0.004182322
-0.033952836 -0.020602334 -0.037420806 -0.030499779 0.040368527 0.100117415 0.02216012 -0.061801452
-0.0327772 0.031030104 0.007945756 -0.030210463 -0.059277065 -0.01580321 -0.0082433745 -0.10713921
0.053769335 -0.04745187 0.03929779 0.06507485 -0.077453025 -0.022425614 0.06647184 -0.027743386
0.0862257 0.07956767 -0.013479378 -0.018015556 0.09528974 -0.058646988 0.09369813 0.02319296
0.0031380567 0.039244562 -0.08272889 -0.022900123 -0.044085227 -0.008128461 -0.050989747 0.07727525
0.059754476 0.0065855724 0.0014331894 -0.043508425 -0.053418294 0.09956554 0.053283483 0.014310145
-0.017176973 0.0021086084 0.10092368 0.0748475 0.001095429 0.046254385 -0.07955772 -0.045932304
0.0054260097 0.09003907 -0.021273328 0.10104953 0.0509634 -0.06414717 -0.08039865 0.10092631
-0.011351657 -0.037599385 -0.06182259 -0.046929296 -0.063453786 -0.018730143 0.04610533 -0.00011281213
0.090249725 -0.030884707 0.015261411 0.09869806 0.046941146 -0.06314621 0.050044082 0.059897177
-0.072218865 -0.07441475 0.020251514 0.035927817 -0.00038835194 0.1174351 -0.028576631 0.041671485
0.05114547 -0.031433165 0.009872269 0.060723405 -0.059336662 0.051913586 -0.04494041 0.068331905
-0.03803629 -0.04015344 -0.051421978 0.0057642446 0.06897627 0.041397613 0.059751183 0.080240935
0.111366734 0.021875666 0.07908499 -0.07704265 0.074974 0.051906873 0.02312418 0.05697103
-0.07583537 -0.06912991 0.03171491 -0.03831008 0.06255444 0.089403406 -0.064194165 -0.0055311224
-0.055029485 -0.046983227 -0.10255847 0.103668496 -0.08069378 -0.0029430976 0.057985615 0.06823315
0.024256399 0.022762906 0.011247642 0.06455393 -0.0324044 0.105217695 0.093801096 0.038570315
-0.026542835 0.07436847 -0.06881464 0.020131046 -0.026350826 0.09408265 -0.008224713 0.014069327
-0.002879251 0.016734347 0.08548757 0.11036723 -0.06765465 0.013086336 0.04118455 -0.008713728
-0.0075825066 -0.028828898 -0.03935946 -0.016761733 -0.08988603 0.035382897 0.0035565002 -0.028810112
-0.027491717 -0.055435378 0.03900863 -0.13401371 -0.083996356 -0.02650585 -0.033927202 0.020589009
-0.09203034 0.0784731 0.00011327268 0.046544634 -0.044717625 0.024222068 0.06744035 -0.031634364
-0.09162863 0.028439222 -0.049152054 -0.09030495 -0.005379643 0.035355605 -0.0051387744 -0.03058096
-0.068849705 -0.0011642374 -0.0040087993 -0.06102003 -0.05019446 -0.07918792 -0.07096748 0.08809802

hidden_layer3.bias f4 [120]
00000000: c41d 123d 52e4 39bc 2d5e 9cbd b1ec c6bc
00000010: c51c 1dbd 5c8e 3ebd 78e3 fabc e7e1 56bd
00000020: 74d8 3dbd 81b1 98bd 4e3b 783d afed c8bd
00000030: f14f 8dbd 9d51 173c baf3 0f3c 89af 52bd
00000040: bcd2 7a3d 8df5 553c ed69 7fbd 9a39 a93d
00000050: 5813 eebc f443 83bc f80f 2d3b 417a 643d
00000060: fbec 9e3d d313 893d d642 03bd cbdc 5abd
00000070: b576 10bd 7dad b43d bce2 9e3d bcbb a43c
00000080: e1c9 2abd 1c3c 6a3c 1236 89bc 5576 603d
00000090: 2e8e 1d3d 55c5 42ba 0906 28bd 0e0e c23d
000000a0: 13b3 813d 7e15 a0bd 3ed2 6a3d a707 8f3d
000000b0: 3f35 2bbd e5b0 50bd 0492 483d 208a b63d
000000c0: 2217 82bc 7a4c 333d cbc5 f23c faf9 7f3d
000000d0: a544 97bc 7af4 bc3d 6e39 d93d a06e 16bd
000000e0: 38af e9bc 8c72 863d 50f4 1bbd 3949 80bd
000000f0: 1121 c5bd 00ea 81bd c4f7 a23d fcdb d0bd
00000100: b4cd 473d 2aae 87bc 3791 b13d cf0e afbd
00000110: 8252 143d 5fff 243d 1ad5 c3bd bb41 90bd
00000120: c816 a4bc 9b8f 52bc cf4c c53d d786 63bb
00000130: 46f1 c93c bcb1 7bbd 1a38 7e3d cf23 cdba
00000140: 998b cabd 064d 14be 6aa2 79bd 1171 91bd
00000150: 0ade 543d 233e 833d dc9f d43c 7218 893d
00000160: bff8 7bbd e22c be3d 23e6 27bc 0c55 883d
00000170: 27ef e4bb 53a2 2a3c 676c 0cbd be59 0e3d
00000180: ab74 043c 457c bcbd 023b fe3c 6a5b c6bc
00000190: d6e6 60bd 0bee b5bd 3a2c d03d 49cb a3bd
000001a0: 9591 963d 762a a8bd 69ee 8ebd f8ad 0dbb
000001b0: f1d6 9fbd b222 43bd 70f7 82bd 7218 e43b
000001c0: d0f6 9bbd 3867 b1bd 7a0c 49bc a38b 203d
000001d0: 5518 5cbd 00a3 17bd 321d dcbd e2b9 e13a
0.035672918 -0.01134594 -0.0763515 -0.024282785 -0.038357515 -0.046522483 -0.030626044 -0.05246153
-0.046349004 -0.07455731 0.060603432 -0.098109595 -0.06900013 0.009235767 0.008786136 -0.051436935
0.06123613 0.013059032 -0.062356878 0.0826294 -0.029061958 -0.016023614 0.0026407223 0.055780653
0.07760044 0.06693234 -0.03204616 -0.05343322 -0.035269458 0.08822153 0.0775809 0.02010905
-0.041696433 0.014296558 -0.016749416 0.05480035 0.03846567 -0.00074299175 -0.04102138 0.09475337
0.06332984 -0.07816599 0.05732941 0.069838814 -0.041798826 -0.05094995 0.048967376 0.08913064
-0.015880171 0.043774106 0.02963533 0.062494256 -0.01846535 0.09226318 0.10606657 -0.036726594
-0.028525934 0.06564817 -0.03807479 -0.06263966 -0.096254475 -0.0634346 0.07957414 -0.10198209
0.04878016 -0.01656254 0.08670276 -0.085477464 0.036211498 0.040282603 -0.0956213 -0.07043787
-0.020030394 -0.012851621 0.09633791 -0.0034717822 0.024651181 -0.061448798 0.06206522 -0.001565093
-0.098899074 -0.14482507 -0.060945906 -0.07101644 0.051969565 0.06408336 0.025955133 0.06694116
-0.06151652 0.092859045 -0.01024774 0.066568464 -0.006986517 0.010414678 -0.034283068 0.034753554
0.008084456 -0.0920339 0.031033996 -0.024213511 -0.054907642 -0.08883294 0.101646855 -0.07997758
0.07351986 -0.08211224 -0.06979067 -0.0021618586 -0.07804669 -0.04764051 -0.06394851 0.006960922
-0.07615435 -0.086622655 -0.012271041 0.039195668 -0.053734142 -0.037020683 -0.10747756 0.0017221535

output_layer.weight f4 [2, 120]
00000000: 727a 3ebd f4e1 993d 9569 06be 4b0f df3d
00000010: 90b6 843d ba2c 143c 4c89 64bd ac5f 783d
00000020: a1d5 bebb 203e a33d 9d59 dd3d 5369 11bd
00000030: 2036 2e3c 8983 263e 88ba 2b3d 57b1 45bd
00000040: ed27 5fbc e37b e1bb 7aed 7cbd 0b6f bf3d
00000050: 6302 9a3d 6e00 f43d aab8 323c 2571 90bb
00000060: 87e0 9c3d 2d01 4bbd 77a0 613d 35a5 563d
00000070: 184b 7e3b 9916 873d 1839 8fbc 264f 4d3d
00000080: e191 263d 422d f8bb 445a d43b c9bf 7abd
00000090: 8488 8ebc 8afc 47bd 563a bdbd 6231 22bc
000000a0: 0c95 6f3d 03f8 f2bd 107d 9dbd f231 9b3c
000000b0: 316e b4bd 6eb1 b93d 95c8 23bd c5b8 c2bd
000000c0: 6618 b6bd e541 c43d f433 91bd 575d ea3c
000000d0: 46dd e6bd 457b 333d 0261 753d 9cd6 21bd
000000e0: cd8c 90bd d4d5 093e 521d 893d f3f9 0f3d
000000f0: c803 a4bb 617a 90bd 6f25 e2bb 6a1d 3ebd
00000100: 7000 7fbd 85c5 2a3d 786a a13d a982 0abd
00000110: bf4d 29bd 82e5 97bd 3114 b6bd 4354 b83d
00000120: 6fc1 403d c03b 9f3d 2028 113d 7516 a1bd
00000130: c17f bd3c 4ff7 283d 4081 abbc 2e1f 2ebd
00000140: 7bca ffbc 93a5 b5bd 50af a7bd da7c 23be
00000150: 84a4 3fbd aece a7bd f6a4 e53d 8723 993d
00000160: 457e 943a 0484 b53d 8cc1 04b9 0e3a a7bd
00000170: 89d1 12bb 702c b8bd 8c30 e1bc c976 e13d
00000180: 8f62 56bd 1904 483d 7f2a 853d ec6b cc3d
00000190: e524 de3d 43ae 6a3a 25d1 a23d 786c ddbd
000001a0: 8a47 433d 5286 20bd f838 00be e20d 533d
000001b0: 37f3 f33c deaa 37bd 5d87 393c c29f 843d
000001c0: c73a 0bbe 0737 e3bd acc4 823d 5927 37bb
000001d0: 6ce0 453e aa8a 013e 4a02 bdbd 8aa6 d2bd
000001e0: 6a2b 89bd 48bb 5d3d e85b 273d 5325 46bd
000001f0: ed3c cc3d 1b24 003e 1a70 4fbd 543b bebd
00000200: 7239 03bd 77b5 81bd 72c0 a7bd 2922 923c
00000210: 2fd2 cbbd ac35 12bc 79b8 f43c e2eb 9dbd
00000220: c5ea 483d 669c 9abd bcfe 0f3d a0bd 1bbd
00000230: 181c eabd 1cd4 cb3d 6a8b c0bc bbb6 9e3d
00000240: 8e1e 7b3d d342 a33c e317 d3bd 5fc6 c23d
00000250: 288a 2c3e 95c9 af3d c061 5c3d 4526 eb3b
00000260: 7a0f e13c 272f 043e c6cf 063e 3488 0cbe
00000270: e56b d2bd 2d67 f13d 849e 9e3d 38a0 643d
00000280: fd04 bb3d a661 fe3c d796 6c3a fe77 323d
00000290: 78d8 86bd 21e7 783c 907d 713d b998 573d
000002a0: cbd5 5abd c45c a0bd 55f5 06bd 51f9 c4bd
000002b0: c3d8 a1bc ed05 a53d 10ad 253d 7b3f 773d
000002c0: d1e2 b03d 0c38 033b 7ba5 42bd 4a80 6fbc
000002d0: 378f 0dbe ec53 8cbc 8296 1b3d 445e bdbd
000002e0: 4a01 4fbc 4f8f 9d3d f414 9a3c 8515 8d3d
000002f0: 03ec 463d 93c8 43bd 0e05 423d 51e8 0abd
00000300: 8f66 dbbd 1641 623d 85b6 773d afc7 b93d
00000310: be3b 24bd 2c7a 03be fa2e ba3d 0a76 8f3c
00000320: ec1b 93bd 1ba3 5ebe f62e 76bd 6fca 333d
00000330: 7f72 ba3d 5f8a 043c f6cf 9cbd dcb2 9b3d
00000340: bfc5 9e3d 3f78 2bbd 5dce b63d 3ed7 4c3d
00000350: 6c74 18be 7d55 b33c 6bbc 6f3d b657 b63d
00000360: 6a20 dc3d fe89 13bd 50a3 993b 7bb0 c03b
00000370: 58c6 31bc 9c3a 53bd ad40 c83c a26f 34bd
00000380: eb3e f33a 6322 a4bc 195b 593c 7b10 8c3d
00000390: a81c 813a 1520 c03d 1d7c b5bd ca2e a13d
000003a0: 15e3 b3bc 5f10 0b3d fe97 87bc 98ae f63d
000003b0: dc20 7abd 0155 0dbd 1322 cabd fedc b0bd
-0.04650349 0.075138 -0.13126214 0.10891589 0.064801335 0.009043867 -0.055795 0.060638115
-0.0058238064 0.07970834 0.10808108 -0.035500836 0.010633022 0.16261114 0.041925937 -0.048264828
-0.013620359 -0.0068812235 -0.061749913 0.09347352 0.075199865 0.119141445 0.010908285 -0.004408019
0.07660013 -0.04956167 0.05508467 0.052403647 0.0038802084 0.06596107 -0.01748328 0.05012431
0.040666465 -0.0075737545 0.006480487 -0.061218057 -0.01739908 -0.048824824 -0.09239642 -0.009899469
0.05849175 -0.11863711 -0.076898694 0.018944714 -0.0881008 0.09067045 -0.03998621 -0.09507898
-0.088913724 0.09582881 -0.070899874 0.028608961 -0.11272673 0.04381873 0.059906967 -0.039511308
-0.070581056 0.13460475 0.066950455 0.03515048 -0.0050053336 -0.07054592 -0.006901435 -0.04641477
-0.062256277 0.041692276 0.078816354 -0.033816013 -0.04133391 -0.07416822 -0.0889057 0.09000447
0.047059473 0.07775068 0.035438657 -0.078656115 0.023132207 0.041251477 -0.020935655 -0.042510204
-0.03122448 -0.088694714 -0.08187735 -0.15965596 -0.046787754 -0.08193718 0.112131044 0.074774794
0.0011329135 0.088630706 -0.00012660603 -0.0816537 -0.0022402725 -0.08992851 -0.02748897 0.110089846
-0.052340087 0.048832033 0.06502246 0.09981522 0.10846881 0.00089523586 0.079500474 -0.108117044
0.047675647 -0.039190598 -0.12521732 0.05152691 0.02977906 -0.044840686 0.011323777 0.06475784
-0.1359664 -0.1109448 0.063851684 -0.0027947037 0.19323891 0.12650552 -0.09228952 -0.10285671
-0.06697734 0.054133683 0.040859133 -0.04837544 0.09972558 0.12513773 -0.050644018 -0.0928866
-0.032037206 -0.0633344 -0.08191003 0.017838554 -0.09952199 -0.008923929 0.02987312 -0.07711007
0.04905202 -0.07549362 0.035155043 -0.038022637 -0.1143114 0.09952566 -0.023503978 0.07749697
0.061308436 0.019929325 -0.103072904 0.095104925 0.16849577 0.085833706 0.05380416 0.007176193
0.0274732 0.12908612 0.13165197 -0.13723832 -0.102744855 0.11787257 0.07745078 0.05581686
0.09131811 0.031052422 0.00090251624 0.043571465 -0.06584257 0.015191824 0.058957636 0.052635882
-0.053426545 -0.07830194 -0.03294881 -0.09617866 -0.01975668 0.08057771 0.04044825 0.060363274
0.08637012 0.002002242 -0.047521096 -0.014617989 -0.13824163 -0.01712986 0.037985332 -0.09246495
-0.012634585 0.076933496 0.01880882 0.0688887 0.048564922 -0.047798704 0.0473681 -0.03391296
-0.10712921 0.055237852 0.0604768 0.0907129 -0.040096037 -0.12839574 0.09090991 0.01751234
-0.0718306 -0.21741907 -0.06010338 0.043894228 0.0910387 0.008089631 -0.07656853 0.07602474
0.07752561 -0.041862722 0.089260794 0.05000996 -0.14888161 0.02189135 0.0585293 0.08903448
0.1074837 -0.03602027 0.004688658 0.005880413 -0.0108505115 -0.051569566 0.024444902 -0.044051774
0.001855818 -0.020035928 0.013266348 0.06839081 0.0009850459 0.09381119 -0.08861563 0.078702524
-0.021958867 0.03395116 -0.016551968 0.1204502 -0.061066493 -0.034504894 -0.098697804 -0.08635901

output_layer.bias f4 [2]
00000000: 513b d03d 743e a3bc
0.10167564 -0.01992724
